data/models/MAF_hb_trk_best.pth (torch, 22260 bytes, 51 tensors)

flows.0.initial_param f4 [2]
000000 3c 8a 52 3e ef 5c 87 3d
       0.20560545 0.066095226

flows.0.layers.0.network.0.weight f4 [8, 1]
000000 0c 81 41 bf e4 39 ad 40 a7 0b 84 bf 35 49 3f bf
       -0.75587535 5.4133167 -1.0316056 -0.7472108
000010 07 4a 94 bf 9a cc 91 3f 1e fc 95 be b8 a2 a8 3e
       -1.1585091 1.1390564 -0.29293913 0.32936645

flows.0.layers.0.network.0.bias f4 [8]
000000 a2 a8 e9 be c5 1c ae be 9c 37 2e bf df dd 24 bf
       -0.4563647 -0.34006324 -0.68053603 -0.6440105
000010 03 be 92 bf 95 ed f0 bf af 0f c5 bd 9a 08 9e 3e
       -1.1464237 -1.8822504 -0.09622132 0.30865937

flows.0.layers.0.network.2.weight f4 [8, 8]
000000 c6 e4 50 3d 01 82 4a bf e4 7b bf 3e 30 8e 14 3e
       0.050999425 -0.7910462 0.3739921 0.14507365
000010 28 6c 9a 3e fc 49 00 40 5b ca 90 bf e9 76 ae 3e
       0.30160642 2.0045156 -1.1311754 0.34075096
000020 ab e4 e1 3d ee 6c 93 3d 01 b5 84 3e 8a 85 b5 be
       0.11029943 0.07198511 0.25919345 -0.35453445
000030 3b 84 61 be 2f 07 90 3e 16 ec 4d 3f 0c 0e b7 3d
       -0.22023098 0.2813048 0.80438364 0.08938226
000040 8d fc ab be cc 61 0b 3f 48 95 25 bf 4b fe 4c be
       -0.33591118 0.544461 -0.6468091 -0.2001888
000050 f2 d5 c9 be 78 a5 c3 3e 9f 53 ac be f9 a9 09 be
       -0.3942104 0.3821218 -0.33657548 -0.13443746
000060 7a 1c be 3f 69 bc ba bf a9 ac c6 3f 54 3d 54 3f
       1.485244 -1.4588748 1.5521442 0.8290608
000070 dd f6 2a 3e 49 3c bc be bc eb 36 3f c1 ec 39 bf
       0.16695733 -0.36764744 0.7145345 -0.7262688
000080 98 38 1a be de 15 4e 3e 50 56 8e bc 99 ea 57 3e
       -0.15060651 0.20125529 -0.017375141 0.21085586
000090 c6 30 37 3d 6b fd 8b be 3f d4 4e 3e 12 a2 37 be
       0.04472425 -0.2734178 0.20198153 -0.17932919
0000a0 d4 42 a7 bd f8 d5 85 bf 40 0d 35 be 9d 4a 5c be
       -0.08167043 -1.0455923 -0.17680836 -0.21512838
0000b0 9a 37 e5 bc ff d3 98 3e ed c5 c4 bd 85 83 04 3e
       -0.027980614 0.2984924 -0.09608064 0.12940796
0000c0 c6 36 0f 3f a4 7d af 3d ee 76 0d 3f 93 1a 55 3f
       0.5594295 0.08568886 0.552596 0.83243674
0000d0 54 06 09 40 51 f7 db 3e 7c 5e d0 3e 60 60 a2 be
       2.1410112 0.42962125 0.40697086 -0.31714153
0000e0 d0 c4 fb bf ec e2 82 40 1a 8d a1 bf 87 f3 5f bf
       -1.9669437 4.0902004 -1.2621186 -0.8748097
0000f0 b2 f4 54 be ae aa 69 3d 41 ec 55 bf 0d f4 88 3f
       -0.20796469 0.05704754 -0.8356362 1.0699478

flows.0.layers.0.network.2.bias f4 [8]
000000 e9 e6 f1 bd 7b 08 05 3e 1c 89 8c 3e bb 2b c7 be
       -0.11811621 0.12991516 0.27448356 -0.3890055
000010 8a 99 c3 bd 60 cb be 3e 6d fe 95 be a1 0a 83 be
       -0.095507696 0.37264538 -0.29295674 -0.25594047

flows.0.layers.0.network.4.weight f4 [8, 8]
000000 5d 58 b7 be 21 89 33 be 63 5c 19 3f 1a 0e 8b 3e
       -0.35809603 -0.1753278 0.59906596 0.27159196
000010 32 80 f9 3d 10 63 f3 be f3 50 9b be d7 c7 b5 be
       0.121826544 -0.47536516 -0.30335197 -0.35504028
000020 51 80 4e 3d ad c4 77 3b 77 04 46 3f 10 08 f4 be
       0.05041534 0.0037806437 0.7735056 -0.476624
000030 8a 96 db bc 07 1c a5 3e 2d cb 3b bf 21 4c 4a be
       -0.026805181 0.32247946 -0.73356897 -0.19755603
000040 b4 0c bc bb de 8d bb bc 43 d4 1e bd 1e 0a 48 bd
       -0.005738819 -0.022894796 -0.038776647 -0.048837774
000050 49 b9 b9 bc 45 51 1b bc bb 02 f1 bb fe 1b dd bc
       -0.022671359 -0.009479825 -0.007355062 -0.026990887
000060 5f f5 b5 bd dc a1 9b 3e 4f aa 06 be 79 c3 d9 bd
       -0.088846914 0.30396926 -0.13150905 -0.106329866
000070 ef 3d cf bd ea e4 f8 ba d4 a5 e9 bb 94 c9 a7 ba
       -0.10119235 -0.001898912 -0.007130364 -0.0012801164
000080 d2 c3 66 3e 80 1f ea bd 81 e0 be bd 08 a2 01 3c
       0.22535637 -0.114317894 -0.093201645 0.007912166
000090 4d 5e 0a 3d 5a 7d 36 be fd ca 70 bd 27 b2 b0 bc
       0.03378134 -0.17821255 -0.058787335 -0.021569325
0000a0 45 bf 4e be 09 df 04 bd 73 b6 f9 bd 95 46 66 bd
       -0.20190151 -0.032439265 -0.121930026 -0.056219656
0000b0 ed b2 85 be d6 9d c3 3d 77 c3 99 3c 29 a7 dc 3d
       -0.26113072 0.09551589 0.018769963 0.10774071
0000c0 94 78 7b bf 5b 37 5f 3d 9d 77 bf 3e 6a 8a c9 3e
       -0.9823086 0.05449615 0.37395945 0.39363414
0000d0 48 10 a5 bc 57 4c 58 3d 0b 7c 59 3d 5e bb bf be
       -0.020149365 0.05280718 0.053096812 -0.37447637
0000e0 a9 97 95 3e e7 59 51 be af d9 0c be 05 cc 9f be
       0.2921727 -0.20444451 -0.13754915 -0.31210342
0000f0 c8 46 20 3e c6 f7 39 3f 7b c1 99 3e e0 86 09 3e
       0.15652001 0.726437 0.30030426 0.13430357

flows.0.layers.0.network.4.bias f4 [8]
000000 44 01 bc be 92 45 d1 3e 0b b4 6d bc 1c 41 a8 bd
       -0.36719716 0.4087339 -0.014508258 -0.08215544
000010 20 62 7c 3e 81 74 47 be 99 de 9f bc 87 5e 44 3e
       0.24646807 -0.19478036 -0.019515323 0.19176684

flows.0.layers.0.network.6.weight f4 [2, 8]
000000 c0 fb 08 be ce 58 1e be ae 72 4e ba 0d 90 f8 b8
       -0.13377285 -0.15463564 -0.0007875365 -0.00011852393
000010 40 32 98 b6 ee 35 f8 b9 fd 47 87 be 8c 0b 9a 3d
       -4.535803e-06 -0.00047342427 -0.2642211 0.07521734
000020 c7 66 02 3d ca e2 f9 3e 5b e5 41 3b 16 13 f1 ba
       0.031836297 0.4880584 0.002958617 -0.0018392529
000030 e6 fa 81 3c ca f3 7d bc 7b 05 92 be 01 df a8 bd
       0.015866708 -0.015500018 -0.28519806 -0.082456596

flows.0.layers.0.network.6.bias f4 [2]
000000 3a 8a bc 3e 00 73 33 bf
       0.36824208 -0.7009735

flows.0.layers.1.network.0.weight f4 [8, 2]
000000 e9 74 1f 3f 0e cd 0e bf b3 fb b8 be d5 e1 68 bd
       0.62287766 -0.5578164 -0.3612953 -0.056855995
000010 a9 79 c6 3e 91 6e bd 3f 53 41 eb 3f 86 1d d6 3d
       0.38764694 1.4799367 1.837931 0.1045485
000020 6c 99 1e be fb 02 78 be 98 09 8f bf c5 e0 20 3f
       -0.15488213 -0.24219887 -1.1174803 0.6284297
000030 e4 e6 03 40 f1 8b 35 3f 2b 28 eb 3e e0 cc 4d 3c
       2.0609674 0.7091666 0.45929083 0.012561053

flows.0.layers.1.network.0.bias f4 [8]
000000 87 72 9c bf a5 2b 14 be 2d 7c 0d 3f 82 6d 17 3d
       -1.2222451 -0.14469774 0.552676 0.03696967
000010 2b 9e 0a be d2 9b 8b bf 5f 24 1e 3f 4b ad bb 3e
       -0.13536899 -1.0906928 0.6177425 0.3665565

flows.0.layers.1.network.2.weight f4 [8, 8]
000000 bc cd 90 be 6e 9f 37 be 32 62 59 bf e4 16 82 3b
       -0.28281963 -0.17931911 -0.8491546 0.003970014
000010 c1 e7 8e be 20 37 f7 3f 7d 6a c5 bd 9f 44 12 be
       -0.2791119 1.9313698 -0.09639452 -0.1428399
000020 b3 36 23 3f 40 41 f8 3e 97 e7 9d 3e a8 3c 80 bf
       0.6375534 0.48487282 0.30840752 -1.0018511
000030 e8 8e 26 3f d6 45 9e 3f 83 65 8a bf 41 32 21 bf
       0.6506181 1.2365062 -1.0812229 -0.62967306
000040 eb fc 33 3f 95 81 c2 be c1 f9 e9 be d5 79 64 3f
       0.703078 -0.37989488 -0.4569836 0.892484
000050 b5 3d 08 3e aa 46 56 bc 1f ec 39 bf 4f 77 b4 3e
       0.1330479 -0.013078371 -0.7262592 0.35247275
000060 43 d5 c0 3e 29 fc 7f bf d1 79 b7 3e 42 6d 32 3e
       0.37662706 -0.9999414 0.35835126 0.17424491
000070 cb 76 2a bf 27 57 50 be 22 cb 23 be 91 19 d8 3d
       -0.66587514 -0.20345746 -0.15995458 0.105517514
000080 3d 25 20 3e 44 0a 41 be e8 d8 c4 3f 56 1b 0b bf
       0.15639205 -0.18851572 1.5378695 -0.54338586
000090 ed 51 18 bf ee 6a 96 3f 9d 1c 4f 3e d3 3d 8a 3d
       -0.5950001 1.1751382 0.20225759 0.06750073
0000a0 0a a4 3a c0 99 7a 53 3e 51 b7 ef 3f 08 ed 94 3e
       -2.9162621 0.20652236 1.8727819 0.2908709
0000b0 93 22 47 3e 6c 61 d2 be 8f 64 b5 3f cf 34 9f bd
       0.19446783 -0.41089952 1.4171313 -0.07773744
0000c0 35 e7 6f 3e bb 7e 9a 3e 0d 9f 22 bf 17 5e 80 be
       0.23428042 0.30174813 -0.6352394 -0.25071785
0000d0 45 a6 28 3f d5 a1 c2 3e 7a fb ca bf 8b c4 cc 3e
       0.6587871 0.38014093 -1.5857995 0.399937
0000e0 7e c7 82 bf 49 8a 80 3e c8 ef 68 bf ae c6 05 3f
       -1.021713 0.25105503 -0.9099088 0.52256286
0000f0 09 dc 05 3f 10 88 4b 3e 3a bc e4 3e 49 97 cc be
       0.5228887 0.19876122 0.44674855 -0.3995917

flows.0.layers.1.network.2.bias f4 [8]
000000 97 59 bc be 38 3c 05 bf c0 da 1f 3f 85 99 4c 3e
       -0.36787102 -0.5204501 0.6244316 0.19980438
000010 07 6a 08 bf a4 2e 2d be e4 ae 1f be 8f bf 83 3c
       -0.53286785 -0.16912323 -0.15594059 0.016082553

flows.0.layers.1.network.4.weight f4 [8, 8]
000000 b5 35 0a 3f e7 f6 22 bf b4 63 10 3e 44 f7 30 bf
       0.539882 -0.63657993 0.14100534 -0.691273
000010 62 fb 11 3d cf 90 cd 3c 29 ea 3f bc d0 01 88 be
       0.035640128 0.025093464 -0.011713543 -0.26563883
000020 6c a7 1b c0 6a 9f 90 be ee 82 12 bd 97 59 7c bc
       -2.4320936 -0.28246623 -0.035769396 -0.015402219
000030 32 6f fc be 57 1c cd 3c 4d 22 8e be d8 ea f2 3e
       -0.49303585 0.025037928 -0.27760544 0.47444797
000040 fe e3 7f be ed c1 de 3e 54 a2 39 3f a1 66 95 3d
       -0.24989316 0.4350733 0.7251332 0.072949655
000050 73 c7 e6 3e a2 d5 82 bf 61 5d 6d be ad 95 38 bf
       0.45074043 -1.0221446 -0.23180152 -0.7210339
000060 c8 ff c3 3d 82 55 21 bf 5c 61 78 bf ea e3 0f 3e
       0.09570271 -0.630211 -0.9702356 0.14051786
000070 72 84 a1 3d c6 40 9d 3f 38 64 64 3d 52 44 f5 be
       0.0788659 1.2285392 0.05575964 -0.47903687
000080 a4 4b 8f 3e 63 67 e6 3e e4 0e 96 bd 01 6f 2d 3d
       0.27987397 0.45000753 -0.07327059 0.04234219
000090 40 24 0c 3e e9 7f 86 bd 25 bb cd 3e b5 f5 a3 bf
       0.13685703 -0.06567366 0.40181842 -1.2809359
0000a0 de aa 07 3e cf cf a0 bc 61 b5 3d bf b3 8d b9 3e
       0.13248774 -0.01963034 -0.7410489 0.3624092
0000b0 7e 49 08 3f 76 74 dd 3d 0e 18 34 3f ec ec 12 3e
       0.5323714 0.10813229 0.70349205 0.14348191
0000c0 10 41 84 3d 31 d1 9a 3f 3a 47 de 3e 40 6b f1 3d
       0.06457722 1.209509 0.43413717 0.117880344
0000d0 09 d8 de 3e 0f f3 d3 bd 6a d8 9a 3e dd 34 61 be
       0.43524197 -0.10349094 0.30243236 -0.21992822
0000e0 bb 7c 1b 3e bc 1a 0a be 57 20 4c 3f 06 5d 9d 3e
       0.151843 -0.13486761 0.79736847 0.30735034
0000f0 65 46 cb bf d9 6b 58 3d af ce ad 3e f5 f4 b1 3f
       -1.5880858 0.052837227 0.3394675 1.390288

flows.0.layers.1.network.4.bias f4 [8]
000000 26 0a 71 3e d9 1c 6b be a7 91 51 be e2 2a ea be
       0.23539028 -0.22960223 -0.20465718 -0.45735842
000010 15 a8 20 3f 5e e8 5f 3e 01 00 36 be c0 81 55 3f
       0.6275647 0.21865985 -0.17773439 0.8340111

flows.0.layers.1.network.6.weight f4 [2, 8]
000000 bc c1 3f 3d a0 9b 3d be f8 08 09 bf 81 25 6a 3d
       0.04681562 -0.18516397 -0.5352931 0.057164673
000010 f0 2a 83 bd 7f 30 a3 3e 4d 3c 0f bf f6 5d 1b be
       -0.06404674 0.31872937 -0.55951387 -0.15172562
000020 d4 62 6d bc 26 c9 1b 3e ef ed fa 3d bd 0c cf 3e
       -0.0144888945 0.15213451 0.122524135 0.40439406
000030 c5 33 be be 1b 4c 26 bd de a2 32 3d 4c 72 a4 be
       -0.37148872 -0.040599924 0.043612354 -0.32118452

flows.0.layers.1.network.6.bias f4 [2]
000000 2b cd cc be 3f 8e 51 be
       -0.4000028 -0.20464419

flows.1.initial_param f4 [2]
000000 63 d1 0b 3e 62 61 05 3f
       0.13654093 0.5210172

flows.1.layers.0.network.0.weight f4 [8, 1]
000000 99 ea a9 40 43 bc 1a bf d8 58 71 bf 1a e5 5d bf
       5.3098874 -0.60443515 -0.9427619 -0.86677706
000010 08 3d 5f bf 71 d6 22 3f fe 2b 12 c0 93 47 74 c0
       -0.872025 0.6360846 -2.283935 -3.8168685

flows.1.layers.0.network.0.bias f4 [8]
000000 6b 7d 0e 3f d2 bd 9a bf 51 94 fe 3f 77 91 1f 40
       0.5566012 -1.2089179 1.9889013 2.4932535
000010 2a 9e 21 40 73 d1 c4 3f cf 8c a5 3e 04 90 41 be
       2.5252786 1.5376419 0.3233399 -0.18902594

flows.1.layers.0.network.2.weight f4 [8, 8]
000000 46 02 bb 3f 3a a9 8a 3e 26 70 9b 3f 72 d4 ec 3f
       1.4610069 0.27082235 1.21436 1.8502333
000010 3a 80 dd 3f 88 dd 2b bf 9f 5e 86 bf 91 e0 81 bf
       1.7304757 -0.67134905 -1.0497626 -1.0146657
000020 81 4a 0d bf 21 83 59 be e1 c3 06 bf b7 8b 3f bf
       -0.5519181 -0.21241428 -0.5264264 -0.7482256
000030 cd 6e 61 bf 22 76 50 3f c5 5d 26 3f fe 4e 40 3f
       -0.88059694 0.81430256 0.6498683 0.7512053
000040 0f b9 cf be 44 cb 88 bd 02 03 69 3e 68 bd 14 bf
       -0.40570876 -0.06679395 0.22755054 -0.5810151
000050 2d e0 f0 be 9e cb 3a 3f 64 12 2f 3e eb 49 9a bd
       -0.47046033 0.72966945 0.17096859 -0.0753363
000060 dc 01 1f 3f c3 c5 15 bf f7 6f 16 be d3 13 e0 3e
       0.6211221 -0.58504885 -0.14691149 0.43765125
000070 13 e7 1e be ea 5d 28 3f 11 5e f2 be 5f aa 92 be
       -0.15517835 0.657683 -0.47337392 -0.28645608
000080 95 34 17 bf 06 f9 a1 bf bd 64 10 be ba 5f 8a 3e
       -0.5906461 -1.2654121 -0.14100929 0.2702616
000090 a5 41 e2 3d 0c e5 ea 3f 89 ec 96 3d 5b 52 d1 3e
       0.11047677 1.835115 0.07369334 0.40883145
0000a0 20 b1 d5 bd d2 70 2d 3e 71 48 30 be 61 b6 30 bf
       -0.104341745 0.16937569 -0.17215134 -0.6902829
0000b0 76 e5 14 bf ef f8 b0 be 54 96 bb 3e d8 03 02 3c
       -0.5816263 -0.3456492 0.3663813 0.007935487
0000c0 e9 06 ad 40 db ee 30 3d ea 94 01 be 30 34 4f be
       5.4070935 0.04319654 -0.12654462 -0.20234752
0000d0 32 67 1f bf cf b2 91 be bc 17 82 bf 1b 77 ad c0
       -0.6226684 -0.28456733 -1.0163493 -5.4207892
0000e0 8a 9d e8 be b6 f1 68 bf 34 c4 52 bf 35 15 c2 be
       -0.45432693 -0.9099382 -0.8233063 -0.37906805
0000f0 e8 87 b6 be d2 e8 40 3f 60 c3 e0 be 80 90 7a 3f
       -0.35650563 0.75355256 -0.4389906 0.9787674

flows.1.layers.0.network.2.bias f4 [8]
000000 30 d2 8f bf 02 32 87 3e 7c 00 ed bd 3e 1d dd 3d
       -1.1236019 0.2640534 -0.11572358 0.10796593
000010 33 bc 16 3f 07 83 30 3f 8d 1d 58 3e aa a5 b4 3e
       0.5888092 0.6894993 0.21105023 0.35282642

flows.1.layers.0.network.4.weight f4 [8, 8]
000000 a1 39 6e c0 2f bd 0b 40 24 73 80 3e da b6 93 bd
       -3.7222674 2.1834219 0.25087845 -0.072126105
000010 dd a4 ef 3d 5e f1 62 3f a8 ca 50 3d 1f f4 47 3f
       0.11701367 0.8864955 0.050974518 0.78106874
000020 a8 41 36 3e 7a ec 83 bf 26 cc 44 be 58 f2 26 be
       0.17798483 -1.0306542 -0.19218501 -0.16303384
000030 36 f6 08 bf 5d 8d 3e be 50 16 89 bf be 68 fe bf
       -0.5350069 -0.18608613 -1.0709934 -1.9875715
000040 3e 14 00 40 06 b1 1a 3e e3 c5 a5 3c c1 da 8a 3e
       2.0012355 0.15106592 0.020235961 0.2712002
000050 de 8a e7 3e 02 39 88 bf 2f d1 60 bf a2 96 a3 3f
       0.45223135 -1.0642397 -0.8781919 1.2780344
000060 ca 1a c5 bd 9a da ec 3d 87 0b 89 3d fd 6d b9 be
       -0.0962425 0.115651324 0.06691652 -0.36216727
000070 63 c8 68 bf 3e c9 4f 3e 3d c7 51 be c0 dc f1 be
       -0.90930766 0.20291612 -0.2048616 -0.4723873
000080 fd 67 0e 3d 25 86 8c 3f b4 58 2f bd 84 fb 10 3e
       0.03476714 1.0978438 -0.042809203 0.14158446
000090 55 3b 55 3d 2e 6e 66 3d c1 b1 a0 be 40 02 8d 3f
       0.052058537 0.05625742 -0.31385615 1.1016312
0000a0 27 d4 35 c0 9a dc f4 3f 83 81 40 3e 90 96 ef bd
       -2.8410738 1.9129822 0.18799405 -0.116986394
0000b0 ba 54 bc 3e aa b2 0e 3f ce 0c 87 bf 19 c7 02 3f
       0.3678339 0.5574137 -1.0550783 0.5108505
0000c0 9d 9c 69 3d 0c b4 7f 3f 08 d6 90 3e 3d 0b 70 3e
       0.057034124 0.99884105 0.28288293 0.23441787
0000d0 52 30 93 bd d9 39 bc 3e 21 ca 29 be d5 81 29 3f
       -0.07186951 0.36762884 -0.16581012 0.6621373
0000e0 77 1e ec 3e d6 bd 88 3e bd 4e 3d 3c 19 1c 54 be
       0.46116993 0.26707333 0.011554417 -0.20713843
0000f0 df 89 db 3b 6c 8a 48 3e 5a 55 da 3d fa 1a e2 3c
       0.006699785 0.19584054 0.10660811 0.027600754

flows.1.layers.0.network.4.bias f4 [8]
000000 ee 9b 14 3f 0b 64 ef be d0 6f 0a be a7 9a a9 be
       0.5805043 -0.46756014 -0.13519216 -0.33125803
000010 41 a9 e9 bd a9 22 ea be df 71 01 bf 97 8d 97 3d
       -0.11409236 -0.4572957 -0.5056438 0.07400053

flows.1.layers.0.network.6.weight f4 [2, 8]
000000 9a c6 24 bd bd 64 e1 bd ea 6c a3 bd e1 d6 f2 be
       -0.040228464 -0.110055424 -0.07979758 -0.47429565
000010 27 1d 00 3e f0 aa 6a 3c c3 1f 73 3e a7 de 72 bd
       0.1251112 0.014322981 0.23742585 -0.05929437
000020 8b 42 64 bf ce 87 40 bf a4 6d c4 be 0a 33 07 be
       -0.89164037 -0.7520722 -0.383649 -0.13203064
000030 07 65 b9 be 2a 59 8d 3f ef 6f f9 be 19 6f e6 3d
       -0.3620989 1.1042836 -0.4871821 0.11251659

flows.1.layers.0.network.6.bias f4 [2]
000000 e2 a7 32 be f5 d9 05 3c
       -0.17446855 0.008169641

flows.1.layers.1.network.0.weight f4 [8, 2]
000000 e6 c5 7a 3d 82 13 82 3f de 42 05 bf 99 e0 06 be
       0.061223887 1.0162203 -0.52055156 -0.13171615
000010 46 20 93 be 23 86 38 3f ce 9d 88 bf 13 7c 33 bf
       -0.2873556 0.72079676 -1.0673158 -0.701112
000020 db 62 c8 3f 14 77 03 c0 07 07 fc be a0 ee 9f 3d
       1.5655168 -2.054143 -0.4922411 0.07809186
000030 d9 c7 68 bf d4 0b 0b be 21 d7 1b 40 5b 50 ce 3d
       -0.90929943 -0.13578731 2.4350054 0.1007392

flows.1.layers.1.network.0.bias f4 [8]
000000 2a 0f ba bf 4a 5f 51 bf 24 e1 34 bf ad 3e 01 3f
       -1.4535878 -0.81786025 -0.7065604 0.5048626
000010 61 2f df bf 2a 3b 9c 3f 00 25 5e be 7f 80 bc be
       -1.7436334 1.2205555 -0.21693802 -0.36816785

flows.1.layers.1.network.2.weight f4 [8, 8]
000000 39 ef b3 3f c3 a6 40 3d 63 e7 62 3f 92 18 c5 bf
       1.405738 0.047034036 0.8863432 -1.5398123
000010 f5 ab c0 3d a3 13 3c bf d0 4e 88 3e c8 50 39 3f
       0.09407798 -0.73467463 0.2662263 0.7238889
000020 79 d4 f4 be c6 b1 ac be 41 52 31 bf 86 98 ba 3f
       -0.47818354 -0.3372938 -0.69266135 1.4577796
000030 95 a4 c5 be 45 79 a0 bf cc 31 c7 bd 9e b5 69 3f
       -0.3860213 -1.2537009 -0.09726295 0.9129275
000040 db 33 49 be 27 88 2b 3f f7 fa 8c 3e c8 71 b5 3f
       -0.19648688 0.67004627 0.2753522 1.4175348
000050 28 58 7b be a3 f7 f5 bf 3b fd 15 bf 8e 21 f0 bf
       -0.24545348 -1.9216198 -0.58589524 -1.876024
000060 e0 3b 4e be cc a0 45 3f 6f 52 5b 3f f0 22 9e 3e
       -0.20140028 0.7719848 0.8567266 0.3088603
000070 15 4c 17 bf 7d 0f 9c 3e 02 10 8b 3f 20 66 0e 3e
       -0.59100467 0.30480567 1.086426 0.13906145
000080 d1 1b 78 bf f0 ed dd be 58 3a c0 be d5 f8 9c 3f
       -0.96917444 -0.43345594 -0.37544513 1.2263438
000090 bd d6 91 bf 2f 5b 8d 3f 01 ab 84 3f ec 96 e4 bf
       -1.1393658 1.1043452 1.0364686 -1.7858558
0000a0 68 41 67 bf f2 a3 86 bf 4a ea 34 bf ca 33 00 3c
       -0.90334177 -1.0518782 -0.70669997 0.0078248475
0000b0 61 6a cf bd ba 1a 83 3d 51 f5 a3 be b3 fb e6 3e
       -0.10127712 0.06401582 -0.320231 0.45113906
0000c0 e5 0f 0e 3f 1c d7 0f 40 c7 89 e9 3f 25 87 25 3e
       0.55493003 2.2475042 1.8245171 0.16164835
0000d0 15 8e 51 3f fa 8f bb 3b 09 88 80 3f 03 9c f2 bd
       0.81857425 0.0057239505 1.0041515 -0.11846163
0000e0 88 d5 08 bd 25 a3 f9 3d b4 e1 63 3f 1c f7 4b 3e
       -0.033406764 0.121893205 0.8901627 0.19918483
0000f0 04 34 5e bf 32 23 7b bc fd 41 e2 bd 89 81 e8 3c
       -0.8679812 -0.015328215 -0.110477425 0.02838208

flows.1.layers.1.network.2.bias f4 [8]
000000 2f b3 13 be b4 ff 40 bf 08 a1 d8 3e 56 51 a0 bd
       -0.14423822 -0.7539017 0.42310357 -0.078280136
000010 77 0c d2 3e b9 5b 06 bf 56 84 29 bf 4a 06 31 3e
       0.41025135 -0.5248371 -0.66217554 0.17287555

flows.1.layers.1.network.4.weight f4 [8, 8]
000000 a7 cf 91 be 68 19 30 3f a7 68 7f 3f 62 55 a8 3d
       -0.2847874 0.68788767 0.9976906 0.082194105
000010 8c e0 0b 3f d6 99 36 3f 53 ff 8e be 6b 55 7b 3f
       0.54639506 0.71328485 -0.27929172 0.9817721
000020 10 39 61 bf 0d 35 0d be 2d cb a1 3f e5 f3 0f 3e
       -0.87977695 -0.13789769 1.2640129 0.14057882
000030 e4 48 fb 3f c1 e4 8c be af cd 83 be a6 76 c4 be
       1.963162 -0.27518275 -0.25742862 -0.38371772
000040 d7 3b e3 3e 2a ff d6 3f fd 56 78 bf 6b ff a9 3e
       0.44381592 1.679662 -0.97007734 0.3320268
000050 a0 6f ec bd 68 ce d7 3e de 02 0a 3f 69 d8 1e 3f
       -0.11544728 0.42149663 0.53910625 0.62048966
000060 38 46 43 3d 65 77 b5 3e 9a 4a cf be e0 c7 72 3f
       0.047674388 0.35442653 -0.40486604 0.94836235
000070 30 3c 50 be 18 fe 61 bd c5 19 c3 bd a5 da 2e 3d
       -0.2033546 -0.055173963 -0.095263995 0.042688984
000080 9a 97 5a bc 64 4b a0 bd 85 ec 97 bd bd 7b 07 3e
       -0.013341809 -0.078268796 -0.074181594 0.13230796
000090 78 f5 f8 bc 49 ea ed 3d 74 0c 50 3d 49 4e ee bc
       -0.030390486 0.11616952 0.050793126 -0.029090064
0000a0 3b cc c8 3e ef ba d4 bd e1 f7 92 be 89 a2 a9 be
       0.39218315 -0.10387217 -0.28704742 -0.33131817
0000b0 07 48 60 3f 7f 98 2a 3f 0d 80 a8 be e7 a2 f6 bd
       0.87609905 0.6663894 -0.32910195 -0.1204279
0000c0 2d 35 99 3e f4 cc 56 3f b7 85 de 3e 89 7d 01 bf
       0.29923382 0.83906484 0.4346139 -0.50582176
0000d0 d5 cc ab 3e 1f 5e 5b 3f 45 84 93 be d6 68 c5 be
       0.33554712 0.8569049 -0.2881185 -0.38556546
0000e0 44 62 61 3c ad 44 84 bf fb ad 7c 3e 1a db 94 be
       0.0137563385 -1.0333458 0.24675743 -0.2907341
0000f0 09 e0 14 bf 90 ca 15 3e 9e 23 27 bf 1c e5 84 be
       -0.5815435 0.14628053 -0.6528872 -0.25956047

flows.1.layers.1.network.4.bias f4 [8]
000000 8b 93 09 be 96 68 16 3d 74 ff 00 bf d2 d1 7a 3e
       -0.1343519 0.036720835 -0.5038979 0.24494103
000010 45 76 c2 bb ea b4 85 3b b9 43 55 be e7 86 ca bd
       -0.005934509 0.0040804045 -0.20826615 -0.09889012

flows.1.layers.1.network.6.weight f4 [2, 8]
000000 83 4d 79 3d 55 d0 a5 be ce 29 a6 3e 3b 91 1f bd
       0.060864937 -0.32385507 0.3245377 -0.038956862
000010 2b ca 7d ba 46 9b c0 3d e1 df ea 3e 50 5a d7 3e
       -0.00096813095 0.09404616 0.4587393 0.4206109
000020 f8 e7 f5 3e 8c e6 1d bf 34 6c 27 3c 25 b1 61 bd
       0.4802854 -0.6167991 0.010218669 -0.05510058
000030 6c a5 1f bb e6 bf 87 3e 98 9a 27 3e 36 ce 65 bd
       -0.0024360074 0.26513594 0.16367567 -0.05610486

flows.1.layers.1.network.6.bias f4 [2]
000000 5f 37 9e 3d 81 c1 99 be
       0.07725405 -0.30030444

flows.2.initial_param f4 [2]
000000 ea 1d d2 bd 1c 72 94 be
       -0.10259612 -0.2899331

flows.2.layers.0.network.0.weight f4 [8, 1]
000000 50 ce 9b bf af 64 ce 3f 65 52 0a c0 84 7b 2f 40
       -1.2172337 1.6124476 -2.161279 2.7419138
000010 07 87 3a bf ab cb 40 bf 74 c3 70 3f 50 51 8a bf
       -0.72862285 -0.7531077 0.9404824 -1.0806065

flows.2.layers.0.network.0.bias f4 [8]
000000 c4 2b d3 bf 21 31 0e 3f e0 8a b2 3f 6d e9 aa be
       -1.6497731 0.55543715 1.3948631 -0.33381215
000010 67 04 3f 3f 1f 59 fb 3f d5 97 81 3f da 67 ba bf
       0.7461609 1.9636573 1.012446 -1.4562943

flows.2.layers.0.network.2.weight f4 [8, 8]
000000 ee 4e 3b 3f 7b 3e 10 bd bf d4 b6 bf 64 01 88 3f
       0.7316731 -0.035215836 -1.4283675 1.0625424
000010 a3 d1 52 3f 6a bc a8 3f 3f 67 aa be 87 5e 86 3f
       0.8235113 1.31825 -0.33281896 1.0497597
000020 bd 4e 4a bf ec 1e 20 3f 71 c2 28 bd 69 c5 14 c0
       -0.79026395 0.62547183 -0.04120106 -2.324549
000030 3f 46 14 bf e3 1b 69 bf ec 8f 35 3e 1c 41 9e be
       -0.5791969 -0.91058177 0.17730683 -0.3090905
000040 b7 d8 cd 3e 21 06 62 bc b6 bd 50 c0 c8 ec 88 3f
       0.40204403 -0.013795407 -3.261579 1.069726
000050 73 5e 95 bf f7 59 20 bf 49 9f 7b bd d0 8b ba 3d
       -1.1669449 -0.62637275 -0.061431203 0.09108698
000060 4a a7 9f be f7 8a fe be d6 e3 a7 40 52 a9 ac bf
       -0.3118232 -0.49715397 5.246562 -1.3489172
000070 a4 b0 4e 40 bf 63 bc 3f c4 3a 0d 3f 59 b7 45 bf
       3.2295313 1.471794 0.55167794 -0.7723289
000080 dc 3c b3 c0 4e d8 b3 3f 9b e2 43 3f 3b 57 27 bf
       -5.601179 1.4050386 0.7651765 -0.6536748
000090 f3 ff 4d 3e 27 fd e2 3e cd d7 15 40 02 35 93 c0
       0.20117168 0.44333765 2.3412964 -4.6002207
0000a0 1b 14 bc bf 53 34 34 41 9c e3 0b bf 9c 8f 1b 40
       -1.4693636 11.262774 -0.5464418 2.4306402
0000b0 76 c7 20 bf ca 0c 37 be 73 ba 04 40 d0 fd f2 bf
       -0.62804353 -0.17875972 2.07388 -1.8983707
0000c0 5f 01 d3 be 4b 13 f9 3f 8a 69 1b be e7 25 90 3e
       -0.41211984 1.9459013 -0.15176979 0.28153917
0000d0 81 dc 4a be b2 3d 94 be 48 11 26 3f fb 93 45 bf
       -0.19810678 -0.2895332 0.6487012 -0.77178925
0000e0 d1 55 c2 3d 06 e2 e0 be fd 55 a9 3f e9 4c 4b c0
       0.094890244 -0.43922442 1.3229367 -3.1765692
0000f0 94 87 8a 3e d3 ff 9a 3e 23 c2 b7 be 14 09 50 3d
       0.27056563 0.30273303 -0.35890302 0.050789908

flows.2.layers.0.network.2.bias f4 [8]
000000 ae 24 88 3d 36 60 df be ce 3c 1b be f0 11 da 3e
       0.06647621 -0.4362809 -0.15159914 0.4259181
000010 ab 1b ce 3e 30 e7 dd 3e 1a 80 0d be ab af 23 3e
       0.40255484 0.43340445 -0.13818398 0.15984981

flows.2.layers.0.network.4.weight f4 [8, 8]
000000 c0 34 22 40 57 73 8c bf bd 4c cf 3f ea 79 1a c0
       2.5344696 -1.0972699 1.6195294 -2.413691
000010 79 72 f4 bf 7f 90 0e 3e bb 35 c7 be 88 5f 05 bf
       -1.9097434 0.13922308 -0.3890818 -0.52098894
000020 8e db ce 3f 1c a0 ec 3e af 42 65 3f a0 13 eb bf
       1.6160753 0.46215904 0.89554876 -1.8365364
000030 a2 7a 9c bf 5d 15 ad bd c3 38 82 bf 37 01 b1 3d
       -1.2224925 -0.0845134 -1.0173572 0.0864281
000040 ec bd 42 3e 9a 10 3f 3d 88 ac 9d be d4 18 97 3f
       0.19017762 0.04664669 -0.30795693 1.1804452
000050 4c 2a a4 be 35 84 cc 3f 9c ea 5c bf 5c b9 dd 3e
       -0.3206352 1.5977846 -0.86295485 0.4330548
000060 9c f0 05 3f 9a 35 56 bf 34 d4 b4 be 69 1a 08 3f
       0.52320266 -0.8367554 -0.35318148 0.531653
000070 a8 d9 d4 bf c3 f9 48 3f 72 d8 10 bf 2e 8b 13 3f
       -1.6628923 0.78506106 -0.5658027 0.57634246
000080 38 1f 8e c0 c4 ee e6 3f f5 cf 01 3e 42 89 d0 be
       -4.441311 1.8041615 0.12676986 -0.4072972
000090 d8 a6 01 c0 dc b8 df bd e8 32 1c 3e 1c 80 f6 3e
       -2.0258083 -0.10923931 0.15253794 0.48144615
0000a0 30 dd 97 be 56 0f 51 be f5 b1 49 be c8 0d 33 3e
       -0.2966094 -0.20416006 -0.19696791 0.17485726
0000b0 46 70 8e 3d a8 bb e9 bf c3 0d e3 be 5c 9c 98 3f
       0.06955008 -1.8260393 -0.44346437 1.1922717
0000c0 94 1c 35 3f 9f 3b a0 be a6 e4 3b 3f d5 84 09 bf
       0.7074673 -0.31295487 0.73395765 -0.5371831
0000d0 0e a7 ad 3d 44 d1 0b 3e b6 9b 87 3e 7e cf 2b bf
       0.08479129 0.13654047 0.26485986 -0.6711348
0000e0 ae b9 53 bf 2d e9 49 3f c7 9a b6 bf a4 65 0b 3f
       -0.827052 0.78871423 -1.4265984 0.54451966
0000f0 57 78 18 be e4 6e 2a bf 52 81 8f be 3d 11 8a 40
       -0.14889656 -0.66575456 -0.2802835 4.3146043

flows.2.layers.0.network.4.bias f4 [8]
000000 d8 5a c2 3f 7a 84 0f bf bc 55 4d be 81 7a 08 be
       1.5183973 -0.5606152 -0.20052236 -0.13327982
000010 70 81 0f 3f 50 86 19 3f de 2f fb be be b2 93 3e
       0.5605688 0.5997057 -0.49059957 0.28847307

flows.2.layers.0.network.6.weight f4 [2, 8]
000000 20 5e a7 bf d7 f7 36 bf 13 5c ae bf 6a f3 31 3e
       -1.30756 -0.71471924 -1.3621849 0.17378011
000010 9e 29 fb bd 5e e5 86 bf 24 95 74 3f 8e b4 91 3f
       -0.12263797 -1.0538747 0.9554007 1.1383226
000020 f4 85 ba 3d 50 16 9a 3f cd 33 38 3f 4a a5 6c bf
       0.09107581 1.2038059 0.7195404 -0.9243971
000030 50 cd 87 bf 02 81 eb 3e dd ea ec be 39 ce 1e 3f
       -1.0609531 0.45996863 -0.46272936 0.6203342

flows.2.layers.0.network.6.bias f4 [2]
000000 36 7c 06 bf 41 c0 a2 be
       -0.5253328 -0.31787303

flows.2.layers.1.network.0.weight f4 [8, 2]
000000 9c 8e e0 bd 44 6d 8c 3e 80 a2 ad 3f 45 97 35 3f
       -0.109647006 0.27427113 1.3565216 0.70933944
000010 1d 74 20 bf 46 a3 b4 3f 7c ac 1e 3f 51 ec 59 c0
       -0.62677175 1.4112327 0.6198194 -3.4050486
000020 91 95 f5 3e 7b 7e 48 be f3 e4 c0 3f e0 7d 7d bf
       0.47965673 -0.19579498 1.506987 -0.99020195
000030 56 86 cd bf de 84 ab 3d f5 07 5b 3d 09 dc 54 c0
       -1.6056621 0.08374952 0.053474385 -3.3259299

flows.2.layers.1.network.0.bias f4 [8]
000000 41 07 69 3f 9d de e2 bf 0c d4 be 3f ea 6e ab 3f
       0.91026694 -1.7724186 1.4908462 1.3393223
000010 ae f5 98 3f 0e 1a 54 bf 52 f8 0e c0 06 e8 ce 3d
       1.1949975 -0.82852256 -2.2339063 0.10102849

flows.2.layers.1.network.2.weight f4 [8, 8]
000000 24 74 3b 3f 39 9e b9 3f d8 5f 07 3f 26 c8 07 c0
       0.7322409 1.4501411 0.5288062 -2.121591
000010 59 e3 cd 3b 4f bd ea 3d 36 bf 00 3f d2 49 0b c0
       0.0062832055 0.11461889 0.50291765 -2.1763806
000020 04 fd 1d 40 23 9e 80 c0 25 7c 19 bd e1 b0 c0 3e
       2.4685678 -4.019304 -0.03747191 0.37634948
000030 73 12 4d be d3 c4 4e c0 96 b8 ba bd f9 80 95 bf
       -0.20026569 -3.2307632 -0.09117238 -1.1679984
000040 0a 5f 00 bf 3d 68 be 3e db 8b 92 be 5e 1d 98 bd
       -0.5014502 0.37188902 -0.28622326 -0.07427476
000050 87 16 10 bf de 89 c5 3e 44 76 ca 3d 36 ad 28 40
       -0.56284374 0.38581747 0.09885839 2.635572
000060 f0 a2 7e be 8c 97 89 bf a3 00 21 bf 80 53 d9 bd
       -0.24866843 -1.0749373 -0.62891597 -0.106116295
000070 49 f4 59 3f b4 f4 88 bf df cb b6 bf ad ef 1d bf
       0.85138375 -1.0699677 -1.4280967 -0.6169384
000080 ab c2 21 3f 8e b3 65 bf 77 af f5 3e 3c 26 d2 3f
       0.63187665 -0.89727104 0.47985432 1.6417918
000090 ae 1c aa be fa 33 8c 3e 2d 11 65 3f 07 82 4a 3f
       -0.33225006 0.27383405 0.89479333 0.79104656
0000a0 b1 44 98 bf ca 75 7f bf ad 14 34 3f 37 76 e8 3f
       -1.1895963 -0.99789107 0.7034405 1.8161076
0000b0 eb a5 94 3f dd da b4 3f ee 92 14 c0 68 5f 9b 3f
       1.1613134 1.4129292 -2.3214679 1.2138491
0000c0 87 65 45 3e 38 69 54 bf 9c d7 3e bd 38 31 6e bf
       0.19277011 -0.8297305 -0.04659234 -0.9304385
0000d0 b6 59 5c bf d6 35 3b 3f 0b 4c 82 40 68 73 60 bf
       -0.8607439 0.7312902 4.0717826 -0.87676096
0000e0 43 91 81 bd 70 00 aa 3e 27 fd 7d 3f d6 42 a9 3f
       -0.063265346 0.3320346 0.99214405 1.3223522
0000f0 0a cc d9 3e 54 6c b4 3f 72 88 99 3f ae 7b 52 3f
       0.42538482 1.4095559 1.1994765 0.8221997

flows.2.layers.1.network.2.bias f4 [8]
000000 1c b6 8f 3e 6e 08 71 3f 06 c8 37 bf b3 f2 2b be
       0.28068626 0.9415349 -0.71789587 -0.16791801
000010 32 d6 9a 3e 63 2f f4 bf e9 54 f7 be 29 65 1f 3f
       0.30241543 -1.9076961 -0.4830697 0.62263733

flows.2.layers.1.network.4.weight f4 [8, 8]
000000 4f 6a 3c bf f6 c9 34 bf 69 35 10 3f 5b 89 01 c0
       -0.73599714 -0.7062067 0.563315 -2.0240085
000010 54 28 e3 3f f3 72 10 3f f5 2e 0c 3f d3 3d 84 bf
       1.7746682 0.564254 0.5475915 -1.0331367
000020 0c 2c 8f 3e ea e9 8d bf 84 90 c1 3f 1b 63 a9 3f
       0.27963293 -1.108701 1.5122228 1.323337
000030 71 5c b2 be ce 32 7a bf dc f8 fb be df db 63 bf
       -0.34836152 -0.9773377 -0.49213302 -0.8900737
000040 07 41 f1 3f 06 d9 6c 3e 70 46 e6 bd 4b a6 98 be
       1.884797 0.23129663 -0.11243904 -0.2981437
000050 49 fc f3 be 7f f8 af be 4e ae 28 3f 75 82 09 3f
       -0.47653416 -0.34369275 0.6589097 0.53714687
000060 39 58 75 3f 6a 41 23 bf 7c b9 49 bf 6c 34 79 bf
       0.9583774 -0.6377169 -0.7879865 -0.97345614
000070 b8 73 0c bf 04 dd 47 bf 95 31 9c bf d7 72 00 bf
       -0.5486407 -0.7807162 -1.2202631 -0.5017523
000080 dc dc 5d bf 79 7c 2f 40 be c8 a8 bf 51 c8 c8 3f
       -0.8666513 2.7419722 -1.3186262 1.5686132
000090 0b 3d 36 bf 40 ea 9e bd a1 88 fd bc 16 c9 c5 3e
       -0.71186894 -0.077595234 -0.030948939 0.3862998
0000a0 ce 32 40 bf fd 2a e6 3f a4 82 f1 bb d4 2b 22 3f
       -0.7507752 1.7981869 -0.00737031 0.63348126
0000b0 a5 a0 6b bf d4 b0 2a be 5d 14 1b 3e 5a a6 72 bf
       -0.92042 -0.16669017 0.15144487 -0.9478508
0000c0 2e 9c 4a c0 89 ae 0b bf 47 37 d9 3e b1 e8 47 3f
       -3.1657825 -0.54563195 0.42424986 0.78089434
0000d0 80 73 88 3e c1 d0 85 3e d2 0f 3f bf 9c 28 8d 3f
       0.2665062 0.2613583 -0.74633515 1.1028018
0000e0 ca 4b c3 bf 28 90 aa bd db b2 45 bf d8 de d2 be
       -1.5257504 -0.08328277 -0.77226037 -0.4118564
0000f0 78 8e 80 bf 34 d8 4b c0 45 a6 5d bf a9 64 28 be
       -1.0043478 -3.185071 -0.8658183 -0.16444649

flows.2.layers.1.network.4.bias f4 [8]
000000 d6 79 71 3e 7f ad c6 bd 40 e3 10 3f 20 d8 a2 3c
       0.23581633 -0.097010605 0.56596756 0.019878447
000010 b5 c2 ae 3f c8 bb 13 bf ea 27 3b bf a6 bb 08 3f
       1.365317 -0.57708406 -0.7310778 0.5341133

flows.2.layers.1.network.6.weight f4 [2, 8]
000000 7c 42 a1 3f fc 63 f0 3d 91 da 1f 3f ba 18 81 bf
       1.2598414 0.117378205 0.6244288 -1.0085671
000010 12 f9 55 3f e9 f2 78 be f8 5f 1b bf 0d 48 96 bd
       0.83583176 -0.24311413 -0.6069331 -0.07337961
000020 20 80 bd bd ac ee a7 3f 28 d5 3c bf 88 6c 14 be
       -0.092529535 1.3119712 -0.7376275 -0.14494526
000030 42 e4 9d be 1a 5c 9f 3f 78 80 48 be 7d a1 92 bf
       -0.3083821 1.2449982 -0.19580257 -1.1455532

flows.2.layers.1.network.6.bias f4 [2]
000000 8e ed 1b 3e 09 06 8d bf
       0.15227339 -1.1017467
