data/models/MAF_overtake_with_four_npcs_best.pth (torch, 276162 bytes, 585 tensors)

flows.0.initial_param f4 [2]
00000000: d124 5fbe 24a1 ddbe
-0.21791388 -0.43287003

flows.0.layers.0.network.0.weight f4 [8, 1]
00000000: 541b 41be 41c7 053f d666 5abf f2c9 38bf
00000010: 23e0 f4be 6eba 813d 9d34 8f3d aae4 3d3f
-0.18858081 0.5225716 -0.85313165 -0.72183144 -0.47827253 0.06334387 0.06992457 0.7417704

flows.0.layers.0.network.0.bias f4 [8]
00000000: 6c93 06be 253c 643e 28e8 d6be 60f3 9abe
00000010: 695f 7cbf c692 2ebf b046 c3be f320 133e
-0.13142174 0.22288568 -0.41973996 -0.30263805 -0.98583084 -0.6819271 -0.38139868 0.14368038

flows.0.layers.0.network.2.weight f4 [8, 8]
00000000: 30ec 053e 9352 573e 4156 76be 28d3 15be
00000010: 7b48 c23d 26f7 823e 5356 e0bd 868f 6f3e
00000020: 4e35 833d f7e6 41bd 4a1b c93e 997e 84be
00000030: ae1b 1abe 9121 93bd fcae eabd 4580 833e
00000040: 24c8 1cbe f52c 59be 8e25 4fbe b47c 8fbe
00000050: ec90 3abe a31d 9c3e ef15 373e 3033 bb3d
00000060: 3b4a f2bc d663 25be 5d19 2f3d 1d70 adbe
00000070: 3397 9bbe 0b21 5fbe bc49 3e3e 11c5 423e
00000080: 373c acbd c616 83bd bad4 913e f36c cf3e
00000090: 6d0c 353e e802 723d 032b 843e 2e9c 82be
000000a0: 9330 1a3e fe1f 9ebe 9860 67be 2960 26be
000000b0: 6ebb 423e db04 f43d 6ba5 59be 9385 c13d
000000c0: 2076 8c3e a111 d9bd 8ee1 963d c7eb 133e
000000d0: 249d 7c3e 7080 a63e 4284 8cbe 4fdd 4bbe
000000e0: ca2b 533e 70fb 793e f880 b83e b377 b53e
000000f0: 8f5d 063e 357f 85be 319e 9e3d b8c0 75be
0.1307838 0.21027593 -0.24056341 -0.14631331 0.09486481 0.25579184 -0.10953965 0.23394594
0.064066514 -0.047339406 0.39278632 -0.25877836 -0.15049621 -0.07184137 -0.11459157 0.256838
-0.15310723 -0.21208556 -0.2022917 -0.28024828 -0.18219346 0.3049136 0.17879461 0.091406226
-0.029576411 -0.16151366 0.042748798 -0.33874598 -0.30388793 -0.21789949 0.18582815 0.19020487
-0.084099226 -0.06400828 0.2848261 0.4051281 0.17680521 0.059084803 0.25814065 -0.2550978
0.15057592 -0.30883783 -0.22595441 -0.1624762 0.19016811 0.119149886 -0.21254508 0.094493054
0.27433872 -0.105990656 0.0736724 0.1444541 0.2466932 0.32519865 -0.27444655 -0.19908641
0.20622173 0.24412322 0.36035895 0.35442886 0.13121627 -0.26073614 0.07745016 -0.23999298

flows.0.layers.0.network.2.bias f4 [8]
00000000: 135f 97be 9a55 923e 979a 7a3e 7352 a1be
00000010: 2ca8 273d 8f77 84bd a282 79bd 8812 55be
-0.29564723 0.28580934 0.24473034 -0.31508216 0.040931866 -0.064681165 -0.060915597 -0.2080785

flows.0.layers.0.network.4.weight f4 [8, 8]
00000000: da1a 5b3d 54bb 60be 2b7f cd3d 1ffc 0d3e
00000010: 2851 883e 4641 4e3e 339f acbe 382e 56be
00000020: 91d0 213e b8ed 363d 7d84 9bbe e800 80be
00000030: f46c bc3e 1085 953e f1aa e7bd 230d 7abd
00000040: 3ccc 9cbe 558e 1cbd c4e6 92be 8a38 87be
00000050: 41f5 5f3c e039 983d 535d d9bd 672e 6f3e
00000060: d6a6 83be c4fb 973e 51f7 4e3e 38f2 c0be
00000070: 771f 40bd 7ffd 843d 4a75 bf3d e5ac f93d
00000080: 8e2a 3e3e 680a 233d 4882 15be 23e0 203e
00000090: 2842 b2be 1cc0 51be 0679 c1bd 0680 48be
000000a0: fe79 71bd 5a3c 88be 0afa 46bd d8dd a43d
000000b0: f1c1 76be 7b1c 76bd 8e06 743e d95e 6dbd
000000c0: fb0f 8bbd c1d2 39bd 2e1e 023d 2bf5 153e
000000d0: 2f92 ba3e 528e 8b3e 7b50 b93e 4bd0 083c
000000e0: b218 85be d4a0 18be bc64 8b3e 0db9 733d
000000f0: 34ac 4ebe 42c0 a3be 0209 b6be ad09 a7be
0.053492405 -0.2194646 0.10034021 0.13865708 0.26624417 0.20142087 -0.3371521 -0.20916069
0.15802218 0.0446603 -0.30374518 -0.2500069 0.36801875 0.2920308 -0.11311901 -0.061047684
-0.30624568 -0.038221676 -0.28691685 -0.26410323 0.013669313 0.07432914 -0.10613503 0.23357545
-0.25713223 0.2968427 0.20211531 -0.37684798 -0.046905007 0.06493663 0.09348543 0.1219118
0.18570921 0.039804846 -0.1460048 0.15710501 -0.34816098 -0.2048344 -0.094469115 -0.19580087
-0.05895423 -0.26608545 -0.0485783 0.08050126 -0.2409742 -0.060085755 0.23830625 -0.057951782
-0.067901574 -0.045367006 0.031767063 0.14644305 0.36439654 0.2725702 0.36194214 0.008350442
-0.25995404 -0.14905101 0.27225292 0.05950265 -0.20182878 -0.3198262 -0.35553747 -0.3262457

flows.0.layers.0.network.4.bias f4 [8]
00000000: b85c a4bd ed4e 2d3e f7a7 243e 427e b6be
00000010: 5fea 7d3e 9e60 7cbe 692e a9bd d3fe 04be
-0.08025497 0.16924639 0.16079699 -0.35643202 0.24796437 -0.24646232 -0.08260805 -0.12987833

flows.0.layers.0.network.6.weight f4 [2, 8]
00000000: 20e3 02be bb97 3fbe 4efd b2be e418 a8be
00000010: cd2a 3fbc a3e5 40bc 5943 50be 4924 463e
00000020: 6e4e a3be 1aba 12bd fd31 753e b144 54be
00000030: f0d2 ac3e 994c cc3d 8e6e abbe d6c3 753e
-0.12781954 -0.18710224 -0.3495888 -0.3283149 -0.011667919 -0.0117735 -0.20338191 0.19349779
-0.31895775 -0.03582201 0.2394485 -0.20729329 0.33754683 0.09975547 -0.33482784 0.24000487

flows.0.layers.0.network.6.bias f4 [2]
00000000: b4ca aabc 27a8 07be
-0.02084861 -0.13247739

flows.0.layers.1.network.0.weight f4 [8, 2]
00000000: c094 033f f980 43bf fa19 333e ae1e 283d
00000010: f7f7 d23e 76ed 163e 96e8 f63e f33c 8f3e
00000020: b1a3 1fbe 6685 80be 5373 08bf fd2e 2f3e
00000030: 56cc c03e dbd1 0d3f e015 bebe 7eb6 86be
0.5139885 -0.7636867 0.17490378 0.041044883 0.41204807 0.14739022 0.48224324 0.27976188
-0.15589787 -0.25101775 -0.5330097 0.17107768 0.37655896 0.5539834 -0.37126064 -0.26311105

flows.0.layers.1.network.0.bias f4 [8]
00000000: 0c38 f9be 161e ddbe 231e e6be b5f4 123e
00000010: eea1 babe 8468 67bc 412a 85bd 79ec 1b3f
-0.48675573 -0.43187016 -0.44944867 0.14351161 -0.36451668 -0.01412404 -0.065022 0.60907704

flows.0.layers.1.network.2.weight f4 [8, 8]
00000000: 56ca bdbe 401d 85be 605f 0ebe 2431 8d3e
00000010: 787c 14be d7ec 9c3e 35fa 293e 81d0 13bd
00000020: 917c b8bd 5542 74bb 9a8a 3a3e 00f1 9ebd
00000030: 6065 b03c 198d 8c3d b061 97be e2a9 c1be
00000040: 8f4e ba3e 4b50 87be a321 fbbd 39f4 983e
00000050: 7fc1 3a3e f88b f5bb c63b acbe 461d 8d3e
00000060: 7d3e 69be 59f9 03be 86fc 45be 6fd1 94bd
00000070: 0441 083c 81c4 7f3e 030e ec3c 8c0d d23e
00000080: 7b00 a23e a4b1 8ebe 1ec4 763e 066b 20be
00000090: 763d 8fbe f691 2d3e ec4f 4b3e 09a8 3b3e
000000a0: 990f 69be 1999 67bd e003 463d d420 b3be
000000b0: 767e 7e3e 6f0a 8bbe 3eb0 f4b9 0f59 703e
000000c0: 3110 84bd bf5d bb3d 15ec 813e c4fa cfbd
000000d0: 651d 54be cabe 32be e812 abbe c6b7 4d3e
000000e0: 6c68 5cbe 068a 93be 5c1f a9be 75e1 263e
000000f0: 243c 543e c518 8e3e 6119 be3d 298a 383d
-0.37068433 -0.25998878 -0.1390357 0.27576554 -0.14500606 0.30649444 0.16599353 -0.036087517
-0.09008134 -0.0037270982 0.18216935 -0.07760811 0.021532714 0.0686285 -0.29566717 -0.37824923
0.3638806 -0.26428446 -0.12262275 0.29873827 0.18237875 -0.007493492 -0.33639354 0.27561396
-0.22777744 -0.12888087 -0.19334611 -0.07266509 0.008316282 0.24977304 0.028815275 0.4102596
0.31640992 -0.27869904 0.2409825 -0.15665826 -0.27976578 0.16950211 0.19854707 0.18325819
-0.22759856 -0.05654249 0.04834354 -0.34985983 0.24852929 -0.27156398 -0.00046670617 0.23471473
-0.06448401 0.0914874 0.2537543 -0.101552516 -0.20714338 -0.17455593 -0.33412862 0.20089635
-0.21524209 -0.2881624 -0.33031738 0.16296943 0.20726067 0.27753273 0.092821844 0.045053635

flows.0.layers.1.network.2.bias f4 [8]
00000000: 097e c6bd 786b 1b3d 0f63 893e 9bbc fd3d
00000010: bb98 d8bd ceaa f5bd 9cae babe 79f0 d43d
-0.09692008 0.037944287 0.26833388 0.12389489 -0.10576006 -0.11995469 -0.3646134 0.10397429

flows.0.layers.1.network.4.weight f4 [8, 8]
00000000: 3fce 13be f751 93be df87 b93e 2c3c 05be
00000010: 1027 2abe c0a0 053e fe4e 9f3c 1131 30be
00000020: 3275 6fbe ddfa ad3e d1d4 be3d 2da6 c23e
00000030: 546e b6be 544f 1e3e bd28 4bbd a429 4e3d
00000040: d917 87be 4222 ef3d 130c 5b3d eb04 05be
00000050: 63a8 0e3d 818e 7ebe fc7f 7a3e 28a9 afbe
00000060: 0397 393e 35b2 bdbd 6eea 18be a796 b83d
00000070: 0087 a7be d6bf 643d 004a 913d ec4f 6bbe
00000080: 8205 d43c 74c9 d13d abfb ea3d b113 83bd
00000090: adff 11be 04b7 fdbc 8b16 f13d 4c0e 21be
000000a0: 11ca 3a3e c58c 813e 86b1 09be 49e5 033e
000000b0: 8b89 173d 3610 803d 6bb0 283d 073f ed3d
000000c0: cc85 a7be 9290 8cbd f23b 6b3e e3e5 9a3e
000000d0: b82f b53e 07b0 703d 819a 093e a978 55be
000000e0: c012 9dbe 3f3f d5be 2da2 cf3e d64b 823e
000000f0: 9d63 29be 0413 253e 2f66 7c3e 8f8e cb3e
-0.14434145 -0.28773472 0.36236474 -0.13011235 -0.16616464 0.13049603 0.019446846 -0.17206217
-0.2338455 0.33980456 0.09317935 0.38017407 -0.3563105 0.15459949 -0.049599398 0.05033268
-0.26385382 0.11676456 0.05347831 -0.12990157 0.034828555 -0.24859048 0.24462885 -0.34308743
0.18124013 -0.09262506 -0.14933178 0.0901311 -0.32720184 0.05584701 0.070941925 -0.22979707
0.025881533 0.10243502 0.11473783 -0.0640024 -0.14257689 -0.030971058 0.11771878 -0.1572811
0.18241145 0.2530271 -0.13446626 0.12880434 0.036996406 0.06253092 0.04118387 0.11584287
-0.32719266 -0.06863512 0.22972086 0.30253515 0.3538797 0.058761623 0.13437845 -0.2084681
-0.30678368 -0.41649815 0.40553418 0.25448483 -0.16541906 0.16120535 0.24648355 0.397572

flows.0.layers.1.network.4.bias f4 [8]
00000000: 2b19 ac3e ad85 943e 2584 e4bd d50d bbbd
00000010: b5f8 823e a599 613e 3002 74be ca3c ad3e
0.33612952 0.29008237 -0.11158017 -0.091334976 0.25580373 0.22031267 -0.2382896 0.3383544

flows.0.layers.1.network.6.weight f4 [2, 8]
00000000: c870 373e 401f 813e 7d49 93be 1224 a03d
00000010: 1031 c1bd 8350 a33e 70e5 8bbd d139 5c3e
00000020: 46a8 5e3d cd31 433e ff00 f9bd 3943 2a3e
00000030: 47e0 5dbe fe97 123e 3fc3 85be 2fd9 b0be
0.17914116 0.25219154 -0.28767005 0.0781938 -0.09433186 0.31897363 -0.06830871 0.2150643
0.054359697 0.19061966 -0.12158393 0.16627206 -0.21667586 0.14315793 -0.26125523 -0.34540698

flows.0.layers.1.network.6.bias f4 [2]
00000000: f2bb 82be 37b2 953e
-0.25534016 0.2923753

flows.0.layers.2.network.0.weight f4 [8, 3]
00000000: db7d a43e d052 e93e a461 fe3e e7c4 cebe
00000010: 1adf 1bbe 9d23 55be 7d04 8abe 5917 a73e
00000020: 1661 27bf b821 80be 7b06 5bbf c4b3 93be
00000030: 322e 173f 60fc 36be fde7 893e c91d bd3e
00000040: f5a2 f53d 3fe1 1bbe ed52 303e 063d 153f
00000050: 69b2 5e3e 7321 1c3f 4799 023f dcc7 c53e
0.3212727 0.45570993 0.4968387 -0.403846 -0.15221825 -0.20814367 -0.2695655 0.32635
-0.65382516 -0.25025725 -0.85556763 -0.28848088 0.59054863 -0.17869711 0.26934806 0.36936787
0.11993972 -0.15222643 0.17219134 0.5829624 0.21747746 0.6098854 0.5101513 0.38629043

flows.0.layers.2.network.0.bias f4 [8]
00000000: 781e 54be c516 9b3e b5d9 b43d 3f9d 29be
00000010: 929b cabe fa28 bcbe 2d55 eabe f98b d73e
-0.20714748 0.3029081 0.08830587 -0.16563891 -0.39571816 -0.36750013 -0.4576811 0.42098978

flows.0.layers.2.network.2.weight f4 [8, 8]
00000000: e221 4b3e 257e 613d d1a2 29be 00e5 a23e
00000010: 4b0e 0f3e 3696 98bd 042f 6dbe fa42 873e
00000020: 9c0a 063e b8cc 98be 2033 da3e f235 833e
00000030: 3010 6fbd 4337 6f3e 1673 56be 22f4 09bd
00000040: 212c 603e 9e85 6a3d 2b7c 1ebf 00a6 91bd
00000050: e4d3 2ebe 1379 fcbd c311 79bc a9d6 933e
00000060: 72d7 71be 3b0b 99be 02d2 7bbe cdc7 f03e
00000070: 8937 8b3e 542a 4fbe cff1 d2bd 7579 dfbe
00000080: e49c 26be 12d6 cc3c 6250 2cbf 26ef 823e
00000090: d92c d53e 6dac 70bc a925 b7be 8745 0cbd
000000a0: 1389 883e 20ae 89be b085 df3e 8274 02bf
000000b0: 96c9 a4be 047b bebe bccb 8dbb 2ee8 c03e
000000c0: e775 f2be 93e5 a33e 666c ec3c d5dc 153e
000000d0: 2164 24be b09e a8be c6c4 7e3e dfdf 2c3e
000000e0: 8042 c63e 62c9 263e 49d3 2abe ab9e 8d3e
000000f0: 2c55 f73c 0a7a 4d3e f252 a8be 3c76 9ebd
0.19837144 0.05505194 -0.16566016 0.31815338 0.13970296 -0.074505255 -0.23162466 0.26418287
0.13089985 -0.29843688 0.4261713 0.25627095 -0.058365047 0.23360924 -0.2094234 -0.03368009
0.21891834 0.057256334 -0.61908215 -0.0711174 -0.17073017 -0.123277806 -0.015201989 0.2887471
-0.23617342 -0.2989138 -0.2459183 0.47027436 0.27190807 -0.2023099 -0.103000276 -0.43647352
-0.16270787 0.02500442 -0.67310154 0.2557308 0.4163578 -0.014689547 -0.3577092 -0.034245994
0.2666708 -0.2689066 0.43656683 -0.50959027 -0.32185048 -0.37203228 -0.0043272655 0.3767714
-0.47355577 0.3201109 0.028860282 0.14635022 -0.16053821 -0.3293357 0.2487975 0.16882275
0.3872261 0.16287759 -0.16682161 0.27660117 0.03019198 0.20066085 -0.32875782 -0.07737395

flows.0.layers.2.network.2.bias f4 [8]
00000000: 2c11 aebe 0ee3 debd 977e 1a3d 14ef a9be
00000010: 3e5c bd3d 3e91 8a3e b824 3d3d 3700 f1bd
-0.33997476 -0.10883151 0.03771838 -0.33190215 0.092461094 0.27063936 0.046177596 -0.11767619

flows.0.layers.2.network.4.weight f4 [8, 8]
00000000: 0f31 64be 0bf1 8fbd 164a 003e 781d cb3e
00000010: abad ad3e 37f9 c7bd bcbf 273e 3643 9cbe
00000020: 9bfe 66be ce1b 5f3e ac91 4bbe b1a4 073e
00000030: 5d0c 31be 659a f8bd f872 b5be 64c8 1c3e
00000040: 41e5 0ebd e24b 753e 95c3 1a3e c351 9d3e
00000050: 4c53 083e 6c87 82be b9fc 193c c1b4 e33d
00000060: 7fda 463e fa45 82be 0be1 9b3e 6eae ec3a
00000070: e084 88be 8e93 7cbe fe4c b83e 5618 b83e
00000080: 1a77 5dbe 19b7 7a3e b7fd 783e 44ee 303e
00000090: d1dd e83e 59f5 05be c341 853d 017b 133e
000000a0: eac2 80be 127d 943d fb87 c2bd b992 153e
000000b0: ebd1 04bf 98c2 80bd 263e 9f3d 3352 1d3d
000000c0: db8a aebd 7e0e 253d ee9d 453e c9de 333c
000000d0: 46f7 ad3e 9895 09be 0660 3e3e ba6f 4dbe
000000e0: e5b9 bcbe bbd1 13be ca0a b73e f57e 09be
000000f0: ba1c cdbe e9e6 0ebe 1808 743e 4a9f 893e
-0.2228434 -0.07028397 0.12528262 0.3967092 0.3392156 -0.09764331 0.16381735 -0.30520028
-0.22558062 0.2178795 -0.19879788 0.13246419 -0.17289872 -0.121388234 -0.35439277 0.15310818
-0.034886602 0.23954728 0.15113671 0.30726442 0.13313025 -0.25493944 0.009398633 0.111184604
0.19419287 -0.25444013 0.30445132 0.0018057355 -0.26663876 -0.24665663 0.3599624 0.35956067
-0.21627465 0.24483909 0.24315535 0.17278391 0.45481732 -0.13081874 0.06506684 0.14402391
-0.25148708 0.07250418 -0.094985925 0.14606752 -0.5188281 -0.06287116 0.07775526 0.03840847
-0.08522578 0.040297024 0.19298527 0.010978409 0.33977717 -0.13435972 0.18591318 -0.20062152
-0.36860576 -0.14435475 0.3575042 -0.13427337 -0.4006098 -0.13955273 0.23831213 0.2687934

flows.0.layers.2.network.4.bias f4 [8]
00000000: a9a1 9dbe 9e8f 8fbe 1278 9abe 4ac8 0abd
00000010: 0abf 99bd e736 13be 114a 3abe fff7 0f3e
-0.307874 -0.2803926 -0.3016973 -0.033882417 -0.07507141 -0.14376412 -0.18192317 0.14059447

flows.0.layers.2.network.6.weight f4 [2, 8]
00000000: ae58 75be 20bb 273d f87f 0abe aaff 7bbe
00000010: f12e 52bc 7533 843e 7fb4 bcbe db59 4c3d
00000020: 7088 92bd d13c b93e 2c21 90be 7eb4 92be
00000030: f74c bb3e 5a94 5fbe 71f3 383e 776a 22be
-0.2395961 0.04094994 -0.13525379 -0.24609247 -0.0128285745 0.2582051 -0.36856458 0.04989038
-0.0715493 0.36179212 -0.28150308 -0.2865333 0.36582157 -0.21833935 0.18061616 -0.15860926

flows.0.layers.2.network.6.bias f4 [2]
00000000: c9dd e1bc 8ffa 0dbe
-0.027571576 -0.13865112

flows.0.layers.3.network.0.weight f4 [8, 4]
00000000: 4bad a93e 971c 1d3e ea07 bdbe 87f5 a3be
00000010: f97c 7f3c 9fb1 c53d 6c0a 01bf edce e93e
00000020: 47b8 46bd 66ae 16bd d4fd d63e c3fe 0e3f
00000030: 1167 f93e e6cc 6a3f bffb ac3c cae5 39bf
00000040: 40b6 0abe 460b 973f dec6 323d ab6d e1be
00000050: 591f 463e 87d6 453f 00ec 92bb 6425 cdbe
00000060: f22c d7be 7e7e c63e b7a8 34be ed73 d9bc
00000070: 31dd 7e3e 5f0d 733e 5011 e23e ba32 b53d
0.33140025 0.15342937 -0.369201 -0.3202326 0.015593761 0.09653019 -0.5040653 0.45665684
-0.048515584 -0.036787413 0.4199053 0.55857486 0.48711446 0.917189 0.021116136 -0.72616255
-0.13546085 1.1800315 0.043646686 -0.44028983 0.19347896 0.7728047 -0.0044837 -0.4006759
-0.42026478 0.3876838 -0.17642485 -0.026544536 0.24889065 0.2373557 0.44153833 0.08847566

flows.0.layers.3.network.0.bias f4 [8]
00000000: 86c1 4f3b 6dcd e2be 4642 01bf f552 083f
00000010: cb80 573d 5ba9 9c3e 5e55 b3be 6876 f73e
0.0031701042 -0.44297352 -0.5049175 0.5325158 0.05261306 0.30597958 -0.35026067 0.48332524

flows.0.layers.3.network.2.weight f4 [8, 8]
00000000: 8a02 8a3e 45bf e73e cb54 d8be efc4 2cbe
00000010: 48cb 09be f190 bb3e cf28 68be 6999 64be
00000020: 7a0e 733e 7688 23be c4b8 39be dccf 54be
00000030: 8cc7 b0bd e599 abbe c2d1 c63e f9ab b2bd
00000040: 0a92 5f3c 07c6 bf3e 5d79 3c3e 18a6 443d
00000050: 8e8f 063f cdc3 303e 010c 30be c1c0 6c3e
00000060: 9ed3 9a3d 3672 03bf 3eb3 90bd 9819 81be
00000070: 7ea6 4a3e 10e3 dbbd 55ca 61be af51 683d
00000080: ab7c e33d 19d8 653e 30aa b83e 9e1c 533c
00000090: db14 743e 4dce 0cbe 737f abbe ed73 f2be
000000a0: 31ab 84be d68f 55bd 1dd5 30be 5ef8 293e
000000b0: d1e6 d63d ec5d 913d 79a0 25be 1f15 043f
000000c0: ff59 8ebe bd44 143f 2ef4 b2be fe02 40be
000000d0: 3c08 e83e 5f64 b6bd 52f9 6e3e 769d 2bbf
000000e0: 97d1 a9be eeb1 e3bd 88c4 ba3d 5009 133f
000000f0: 9143 28bd 25e5 7b3e 1b06 2ebe 75f5 f2bd
0.26955062 0.45263115 -0.42252192 -0.16871999 -0.13456452 0.3663402 -0.22671817 -0.22324146
0.23735991 -0.15970024 -0.18136889 -0.20782417 -0.086318105 -0.3351585 0.38831908 -0.087242074
0.013645658 0.3745577 0.18405671 0.04800996 0.525628 0.17262192 -0.17192079 0.23120405
0.07559894 -0.5134615 -0.07065438 -0.2521484 0.19790074 -0.10736668 -0.2204984 0.056718525
0.11107763 0.22445716 0.36067343 0.012885241 0.2383608 -0.13750573 -0.33495674 -0.4735407
-0.2591186 -0.052139126 -0.17268796 0.16598651 0.104932435 0.07097992 -0.16174497 0.5159473
-0.27803037 0.57917386 -0.3495192 -0.18751141 0.45318782 -0.08905863 0.23337296 -0.6703714
-0.33167717 -0.11117922 0.091195166 0.57436085 -0.04108006 0.2459913 -0.16994517 -0.118632235

flows.0.layers.3.network.2.bias f4 [8]
00000000: a4b0 953e 6b29 86be 364e 033d 916a a63e
00000010: 690f aebd 3278 983e a4e7 59bd 77d1 843e
0.2923633 -0.26203474 0.03205701 0.3250318 -0.08499033 0.29779202 -0.053199425 0.2594106

flows.0.layers.3.network.4.weight f4 [8, 8]
00000000: b1a8 d0be e76f 0dbd 383f d8bd c4d1 dc3d
00000010: c7ce e6bd 9d6a 8c3e 5e9a 44be 8156 d03c
00000020: a28b 973e 4c41 abbd f39c e83e e4f5 9ebe
00000030: 5514 933d 5c7a 50bd d87b 0e3f 5fe9 b43d
00000040: 93c8 703b 9d07 a2be 5336 1c3e e789 ad3d
00000050: be3f 713e 67d3 5fbe 3e10 9a3e a41e b33e
00000060: da68 5d3d d169 b9be 6ff9 1e3d 3049 92be
00000070: 376a bd3d 2984 643d 7fba 42be 0346 4c3e
00000080: 7ea5 b2be 7a1a 123e b219 b0be 588d aebd
00000090: a681 163b 0c54 823e c68a c7be 4cd6 8a3e
000000a0: 7253 6f3c 5bc9 67be 6567 52be 07fe 9abe
000000b0: 79b7 f73e 2f04 84bd 076c 2d3e b94e 703d
000000c0: 1399 3e3e 322d a73e c080 b93e 84f5 65be
000000d0: ebbc 3fbe 234a 4cbe 341b 67be fa70 273d
000000e0: 388c cf3e 73ed 9dbe 3f72 853e 8c0a 3bbe
000000f0: 4238 053e 6e87 933e 868b d53c 7a58 0d3d
-0.407537 -0.034530547 -0.10558933 0.10782197 -0.112699084 0.2742509 -0.19199511 0.025431873
0.2959872 -0.08362064 0.45432243 -0.31046975 0.071816124 -0.05089794 0.5565772 0.088335745
0.0036740645 -0.31646433 0.15255098 0.084735684 0.23559472 -0.21857987 0.30090517 0.34984314
0.054055072 -0.36213544 0.038812097 -0.28571463 0.092487745 0.0557901 -0.19016455 0.19948582
-0.34891886 0.14267913 -0.34394604 -0.08523053 0.002296546 0.25454748 -0.38973063 0.2711662
0.014607297 -0.22635405 -0.20547254 -0.30271932 0.48382166 -0.064461105 0.1693574 0.058668826
0.1861308 0.3265167 0.3623104 -0.22456938 -0.1872441 -0.19950156 -0.22568971 0.040879227
0.40536666 -0.30845222 0.26063725 -0.18265742 0.13009742 0.28814262 0.026067507 0.034508206

flows.0.layers.3.network.4.bias f4 [8]
00000000: 561f 7fbe b706 7f3e cdd8 7ebd 8be0 83be
00000010: c239 b73d 90a5 6dbe f428 82be 8d85 473c
-0.24914297 0.24904905 -0.062218476 -0.2575725 0.08946563 -0.23207688 -0.2542187 0.012177837

flows.0.layers.3.network.6.weight f4 [2, 8]
00000000: 4746 b83e 33c8 8bbe 78bb c0bd b8d4 9f3e
00000010: 3181 a73e d669 4dbe a354 34bd 0f3a 38be
00000020: aabe acbe 5897 0d3d 8b4b cd3e 3c4d b33e
00000030: 1693 633c 0afd f03d 0845 1abe 5df0 953e
0.35991117 -0.27301177 -0.09410757 0.3121698 0.32715753 -0.20059904 -0.04402603 -0.17990898
-0.33739215 0.03456816 0.40096697 0.35019863 0.0138900485 0.11767013 -0.15065396 0.29284945

flows.0.layers.3.network.6.bias f4 [2]
00000000: 34dd 0fbe 20fa 83be
-0.14049226 -0.25776768

flows.0.layers.4.network.0.weight f4 [8, 5]
00000000: 9f74 ad3d 2344 5d3e 9210 c9be f16d 2b3f
00000010: 68ab 253e 8733 c0be 99ce 32be dc24 c03e
00000020: 69e7 49bf 522d 963e aa08 083d 5a77 54be
00000030: 3602 383e 6f3f f63e 5fec ca3e ec13 d0be
00000040: 50e5 253f ed30 1fbe c8dc 063f 7ec2 30be
00000050: d7e9 ccbe fe18 773f 0bff 713d e001 95be
00000060: 72a3 debe 0630 25be 2a23 d33b 6942 1ebf
00000070: 5d45 a9be 96ee bc3d 88f6 703d b939 15bd
00000080: 0717 c83e 428a 813e 631e d4bd 3baa a1be
00000090: f0e6 f1bd 0eda 90be 7be7 6ebe 0e36 48be
0.08469509 0.21608023 -0.39270455 0.6696463 0.16178668 -0.37539312 -0.17461623 0.3752812
-0.7886873 0.29331452 0.033211388 -0.20748654 0.17969593 0.4809527 0.39633462 -0.406402
0.6480303 -0.15546007 0.52680635 -0.17261693 -0.40022156 0.9652251 0.05908112 -0.29102993
-0.43484074 -0.161316 0.006443401 -0.61820084 -0.33060732 0.09225194 0.05882886 -0.036432
0.39080068 0.25300795 -0.10357358 -0.31575188 -0.11811626 -0.28291363 -0.2333049 -0.1955187

flows.0.layers.4.network.0.bias f4 [8]
00000000: 2f37 153e d34b 713c 0a22 fb3e 4039 54be
00000010: 56d7 77bd aa63 e03e dab7 023f e1c4 8fbe
0.14571832 0.014727551 0.49049407 -0.20724964 -0.060508095 0.43826038 0.51061785 -0.28079894

flows.0.layers.4.network.2.weight f4 [8, 8]
00000000: 662d 7ebe 8fdd a93e a871 88be 22ae 7dbe
00000010: b84c c93e 34a3 5abe ea6c 0e3e da74 5e3d
00000020: 219f 7cbd 36e8 433e d97b 5dbd 2390 083d
00000030: 2a30 b33e 3e5d 25be 9c0c 623e b925 8dbe
00000040: 1d13 2dbd d906 e3bd 4e01 cebc 2a03 4abe
00000050: 0fb7 20bc 6d9e 963d 6a87 913e 947e 35be
00000060: fb46 2a3b d891 3dbd 5295 a2be e641 0a3e
00000070: 059f 0b3e 265a 53be 9de4 12be a0e1 253e
00000080: ba25 45bd 36a1 803e f47e 243d 015f 803e
00000090: 2b7a 8f3e 6373 41be 1ca3 ee3d 35bb 9d3e
000000a0: 5def 183e 456d e1bd d605 f93d c031 b13e
000000b0: c0f0 bdbe 6599 66be 303d 2c3d b2a3 dbbd
000000c0: 35df d83c bb3c 5fbe 7f52 a43e 6222 f2be
000000d0: 19d5 99bd e2e3 f33e 24a2 c63c c69f faba
000000e0: 4c55 b23e 6c1c 6dbe 3a21 133d 2a43 8dbe
000000f0: fe78 03be 4f19 263e ba83 853d 2e61 05be
-0.24822006 0.33176848 -0.26649213 -0.24773458 0.39316344 -0.2135132 0.13908735 0.054310657
-0.061675195 0.1913155 -0.05407319 0.033340584 0.34997684 -0.1614885 0.22075123 -0.27567843
-0.042254556 -0.110852905 -0.025147106 -0.1972777 -0.00980927 0.07354436 0.28423625 -0.17724067
0.002598225 -0.046281666 -0.31754547 0.13501701 0.1363488 -0.20639858 -0.14345022 0.1619935
-0.048131682 0.25122994 0.040160134 0.25072482 0.28022894 -0.18891673 0.116522044 0.3080689
0.1493506 -0.1100717 0.12159316 0.3460827 -0.3709774 -0.22519453 0.04205054 -0.10724582
0.02647362 -0.2180051 0.3209419 -0.47291857 -0.07511348 0.47634798 0.024247237 -0.0019121103
0.348307 -0.23155373 0.03592036 -0.27590305 -0.12839124 0.16220592 0.065192655 -0.13025352

flows.0.layers.4.network.2.bias f4 [8]
00000000: c17d 92be 6b59 ba3d d52f f33c 7069 013d
00000010: b521 6f3e 7266 973e 3654 5cbe 8cb3 32bb
-0.28611568 0.090990864 0.029685894 0.031594694 0.23352702 0.29570347 -0.21516499 -0.0027267663

flows.0.layers.4.network.4.weight f4 [8, 8]
00000000: 1f96 e7bd 6bd3 60be 7975 96be 1648 c53e
00000010: 6769 d83e 350a 2b3e c71e f13c ab66 a8be
00000020: 1728 513d 35f7 e83e 9010 6fbe a686 ae3e
00000030: e79f 1b3e 9367 723e e367 97be bf28 0f3e
00000040: bb0a b6be 83cc a6bd 68f8 f83d eba0 353d
00000050: 3136 c53d a421 b73e c900 d33e ea04 9b3e
00000060: 616e 7b3e 8ae3 90bd 6050 20be dd99 2abe
00000070: 9b66 1e3b 411b 27be fbc4 813e d2fd 0d3e
00000080: 94d9 983d 07a7 2f3e a6f8 e53e 96f9 163e
00000090: d996 60be 0e2f 62be bcc1 2f3e a352 393d
000000a0: 1af1 363e fadb bfbe fcd5 e5be 436e 933e
000000b0: 36a0 2f3e f551 b7be d597 893d 20d9 91be
000000c0: c743 313e 2cd3 34bb da66 a93e 877b d5be
000000d0: 647b 1dbf 9455 903e 593d d03e e608 a73e
000000e0: 6ff2 813e 9116 2ebe ed54 bd3e 51e0 aebe
000000f0: 0b32 363e d1a7 51be 62d1 fcbd 44c2 213c
-0.1130793 -0.2195565 -0.293865 0.3853156 0.42267916 0.16703112 0.029433621 -0.3289083
0.051063623 0.45501104 -0.23346162 0.34087104 0.15197717 0.23672323 -0.29571447 0.13980387
-0.35555062 -0.08144476 0.12156755 0.044342916 0.09629477 0.35767853 0.41211537 0.30277187
0.24553825 -0.0707465 -0.1565566 -0.16660257 0.0024170044 -0.1631899 0.25345597 0.13866356
0.07463375 0.1715356 0.44916266 0.14743647 -0.21932544 -0.22088262 0.17163748 0.045244824
0.1786541 -0.37472516 -0.4488982 0.2879506 0.1715096 -0.35804716 0.06718413 -0.28485966
0.17311011 -0.0027591689 0.33086282 -0.41695806 -0.61516404 0.2819029 0.40671805 0.32623976
0.25380275 -0.17000796 0.36978856 -0.34155515 0.17792527 -0.20474173 -0.12344624 0.009872977

flows.0.layers.4.network.4.bias f4 [8]
00000000: e7d8 1dbe 20b5 a1bd eedf afbe 8c8d 90be
00000010: bc51 463e 44e6 4dbe 1671 60be 93cc a1bd
-0.15414773 -0.07895875 -0.34350532 -0.28232992 0.19367117 -0.2010737 -0.21918139 -0.079003476

flows.0.layers.4.network.6.weight f4 [2, 8]
00000000: 20b9 bcbe 1f08 dabe 77ae 953e 1ef9 1e3e
00000010: 8ed1 fd3d fb0f 68be c23c c93d dd02 bfbb
00000020: ece6 24be 6ebc 033d a7ed 023f 1ad2 92be
00000030: 27eb 07bf 4d6c c13d c205 b93e 94e8 42be
-0.3685999 -0.4258432 0.2923467 0.15524718 0.12393485 -0.22662346 0.09826042 -0.0058291988
-0.16103715 0.032162122 0.5114388 -0.2867592 -0.5309319 0.09444485 0.36137205 -0.19034034

flows.0.layers.4.network.6.bias f4 [2]
00000000: 2d24 e23d 3767 3b3e
0.11042056 0.18301092

flows.0.layers.5.network.0.weight f4 [8, 6]
00000000: 716b 713d 13a5 683e 5a08 e83e cb88 e13e
00000010: a5c0 81be c60e 153e e5fa 113e 4944 ee3e
00000020: 50e2 fbbe 8786 813e 21fb 5f3d a439 24bf
00000030: 864c 783d 61bf 2ebd c1a8 153d cec1 25bf
00000040: ea88 83be a61c 3a3d a4ca 53be 6ad6 823e
00000050: 25c6 56bd afac 1d3d ff5e 1c3e 038c dd3c
00000060: c68b 403e 6cee bb3d 8604 913e fde4 10bf
00000070: 2f19 e33d a87b 5bbd 6b48 e63c 4ce8 03bf
00000080: 394f cd3d 3fbc d5be f85d 95be c340 113d
00000090: 7c85 abbe 7cd1 3dbf 7378 813c b2d8 eb3d
000000a0: 817b 5d3e 0587 c03d c5ce 8f3e f4d0 19be
000000b0: f012 3abc b9a0 ce3e d1da 9e3e 7f5d 18bf
0.058940355 0.22719221 0.45318872 0.44049677 -0.2534229 0.14556417 0.14255865 0.46536472
-0.491961 0.2529795 0.054682855 -0.6415045 0.060619853 -0.042662982 0.03653789 -0.6474885
-0.25690395 0.045437478 -0.2068277 0.2555421 -0.05243506 0.038494762 0.15270613 0.027044302
0.1880332 0.09176335 0.28323764 -0.5659941 0.11088788 -0.053584725 0.028110703 -0.5152633
0.10024876 -0.41745183 -0.29173255 0.035462152 -0.33500278 -0.7414777 0.015804505 0.11515941
0.21629144 0.09400753 0.2808744 -0.15021116 -0.011357054 0.40356997 0.3102632 -0.59517664

flows.0.layers.5.network.0.bias f4 [8]
00000000: dc4c 33be 1970 eb3d da5c aa3e ffc4 9ebe
00000010: bba4 6dbe 29e1 af3e 5371 4dbd 3e7a a4be
-0.17509788 0.1149599 0.33273965 -0.3100967 -0.23207371 0.3435147 -0.050156903 -0.32124513

flows.0.layers.5.network.2.weight f4 [8, 8]
00000000: 1411 c8bd 7c1c e83d 9c8f 10be 79ae bb3e
00000010: 2175 973e c346 38be 0f66 813d b8c6 efbd
00000020: eb82 be3c b6ed 0e3e babd 8cbe 1a85 60be
00000030: 83a4 8fbe 0a14 b43e 1db1 acbe 9b05 e13e
00000040: b066 2e3e 96e4 fabd 0f5f 283e 7aae 6a3e
00000050: 80f0 e33e 676d 783c 1083 adbe e012 0d3e
00000060: bf26 c5bd 5ca4 9bbe 1029 343e 86e3 983d
00000070: cfd5 8fbe 36ea 7dbd cebe 063f cc56 123f
00000080: 3f0a 0a3f 85b7 a6bd 941f 59be df39 f33e
00000090: 8f3f b63e ce80 1e3e 713e babd b9d0 6dbe
000000a0: 7eb5 0dbe 66ba 64be 456f 5a3e b285 e83d
000000b0: 7e22 ce3c dc65 223e bfa5 f03d 3a9e a2be
000000c0: 20f7 593e db97 a9be ab6a 98be c4ac 10be
000000d0: 0006 a73e 3865 0d3e 975d c63c 4488 58be
000000e0: 0872 833e 260d 963e 9fb1 423e f74e be3e
000000f0: cfbc 2b3e 3e7f c0bd 8b15 56bd cdd0 92be
-0.097688824 0.11333558 -0.14117283 0.3665655 0.2958155 -0.17995743 0.06318294 -0.117078245
0.023255786 0.13957867 -0.274885 -0.21925774 -0.280552 0.3517154 -0.33728877 0.4394959
0.1703136 -0.122506306 0.16442512 0.2291812 0.44519424 0.015162802 -0.33889055 0.13776731
-0.09626531 -0.30398834 0.17593789 0.07465272 -0.2809281 -0.06199094 0.52634895 0.5716369
0.53921884 -0.08140472 -0.21203452 0.4750509 0.35595366 0.15478823 -0.09093941 -0.23224153
-0.13838765 -0.2233673 0.21331508 0.11353625 0.025162932 0.15859169 0.117503636 -0.31761342
0.21285677 -0.3312367 -0.2976888 -0.14128405 0.32621765 0.13808143 0.024214549 -0.21145731
0.25672936 0.29306906 0.1901307 0.3716962 0.16771244 -0.093992695 -0.05226664 -0.28674927

flows.0.layers.5.network.2.bias f4 [8]
00000000: 8b6d 2abe df72 683e 7fe8 37be ea12 403e
00000010: 8835 4cbe 0a4c 0fbd f5f7 123d 4586 b4be
-0.1664335 0.2270007 -0.17959784 0.18757215 -0.19942296 -0.034984626 0.035881 -0.3525869

flows.0.layers.5.network.4.weight f4 [8, 8]
00000000: cecb 6dbd a7f7 94bb 4568 9bbd 2c49 023e
00000010: 4212 4b3e 96d6 983e 5c84 dbbd 1195 823d
00000020: dd75 6fbe dea7 c7be 42a7 b83d 91a0 d63d
00000030: f5f2 f7bd fab1 93be 396a a2bd 0c52 303e
00000040: 7c81 d9be 7542 81be 2554 edba 9124 1abe
00000050: de81 dabe 208a 26be 54d7 9bbd b49b dcbe
00000060: 3a18 94be abc4 8b3d 6533 c4be 2153 2d3e
00000070: 2b55 b5be a3bd 6ebe f913 e13d 19e7 b6be
00000080: 36db cdbe 5262 ca3e 98db eb3d e131 573e
00000090: 6ae7 23be f357 95be a79c fdbd e0c1 84bd
000000a0: 295c 8b3e 949b d2be fb6b 13be ebef 8f3e
000000b0: edb4 57be f3a1 21be c189 623e e325 c4be
000000c0: 5036 563e 7ba0 cbbe 5ca9 183e 583a 57be
000000d0: 31ab 923e e18c 92be 2357 83be c6d8 d53d
000000e0: 769a ac3e 3509 c5be f5e3 6fbe e726 dd3e
000000f0: bc77 a6bd d998 4c3e 08af 8fbe 233c 16be
-0.05805569 -0.004546124 -0.07588247 0.12723225 0.19831184 0.29851216 -0.10718605 0.063760884
-0.23384805 -0.3899526 0.09016277 0.10479844 -0.12106887 -0.28846723 -0.079304166 0.17218798
-0.424816 -0.25246015 -0.0018106742 -0.15053011 -0.42677206 -0.16263628 -0.0760943 -0.43087542
-0.28924733 0.06824621 -0.3832046 0.16926242 -0.3541654 -0.23314528 0.109901376 -0.3572319
-0.40206307 0.39528137 0.115164936 0.21015121 -0.16006246 -0.29168662 -0.12383395 -0.06482291
0.2721875 -0.41134322 -0.1439666 0.2811273 -0.21065111 -0.15784435 0.22122861 -0.38310155
0.20919156 -0.39770874 0.14908355 -0.2101835 0.28646234 -0.28623107 -0.25652418 0.10441737
0.33711594 -0.38483587 -0.23426802 0.43193743 -0.08128306 0.19980182 -0.28063226 -0.14671378

flows.0.layers.5.network.4.bias f4 [8]
00000000: 78a3 0abe 5cbd 983e 4e50 333e 7ecb 61be
00000010: 4664 6b3d eccf b73c 314b 36be cb58 24be
-0.13538921 0.2983197 0.17511103 -0.22050282 0.057468675 0.022438012 -0.17802121 -0.16049497

flows.0.layers.5.network.6.weight f4 [2, 8]
00000000: da42 92bd 4de8 893e 3bde 97be 7e78 bbbe
00000010: cd6f 37be 4d2e 20bd 5806 4f3e 67fd 0d3d
00000020: 26af 86bd c6be 88be c577 60bd 9a15 6ebe
00000030: 855d a33e 7683 01bf 7c2d 02be a141 b3be
-0.07141657 0.26935044 -0.29661736 -0.36615366 -0.17913742 -0.039106656 0.20217264 0.03466549
-0.06576376 -0.2670805 -0.05480172 -0.23250428 0.31907287 -0.5059122 -0.12712663 -0.35011008

flows.0.layers.5.network.6.bias f4 [2]
00000000: dc79 aebd d9cb 743e
-0.085193366 0.23905887

flows.0.layers.6.network.0.weight f4 [8, 7]
00000000: d944 d43e 3f84 a8be 2986 14bd d94b f63e
00000010: f53a e5bd a04e f63e b7ee 5dbe 1dc7 ddbe
00000020: 88f8 263e 1561 eebd 511c 0d3e bca5 0fbe
00000030: d8ec 3e3e 0344 023f 8a97 a43e 6aad f3bd
00000040: 99ab cabd 26f6 b0bc 87d2 abbd ce98 90be
00000050: 761b 8fbe 6f96 d5be 69fa 943e ca83 f7bd
00000060: 307d 8fbd e2c7 a0be 4b6c b9be 2b39 91be
00000070: 9014 8e3e 8f8a e33d 75fd f2be 978c a23e
00000080: b84d 993d 12ec a83d 3d60 663e edb3 7c3e
00000090: 8a4b 5abe 7b01 9a3e 7179 23bf 8850 273e
000000a0: b57e bc3e 4d49 2f3d 0597 fe3e 5227 203e
000000b0: 14e7 d0be 27ed 38be cc43 1d3d 1638 06bd
000000c0: f79d 1bbe d373 6bbe 4393 e13e 9fde 81be
000000d0: 184d 1bbc d850 963e 5d8a 29be baf2 08bf
0.41458777 -0.32913396 -0.036260758 0.48104742 -0.11192886 0.4810686 -0.21673094 -0.43315974
0.16305745 -0.11639611 0.13780333 -0.14028066 0.18645036 0.5088503 0.32146865 -0.118983105
-0.09896011 -0.021601748 -0.08389764 -0.2824158 -0.2795064 -0.41716334 0.29097298 -0.12085684
-0.070062995 -0.31402498 -0.36215433 -0.28363928 0.27750063 0.11110412 -0.47458997 0.31747887
0.07485527 0.08248152 0.2249765 0.24678011 -0.21317878 0.30079255 -0.6385718 0.16339314
0.3681542 0.042794514 0.49724594 0.1564 -0.408013 -0.18059216 0.038394734 -0.03276833
-0.15196978 -0.22993402 0.44057664 -0.2536516 -0.00947883 0.29358554 -0.16556688 -0.5349537

flows.0.layers.6.network.0.bias f4 [8]
00000000: e5c8 38be 668f 8bbe 9adc edbe 519a d6bd
00000010: a560 0b3e 6b32 f8bd 74dd d43d 3ba8 ab3e
-0.18045385 -0.27257842 -0.46457368 -0.10478652 0.13611086 -0.121189915 0.10393801 0.33526787

flows.0.layers.6.network.2.weight f4 [8, 8]
00000000: 7064 913e 00e5 80be 5129 273e 4551 883e
00000010: f994 973e 934d 29bf 6870 663e dba2 2e3e
00000020: a672 debe 8370 2d3e 0c67 b33e c7d9 dabe
00000030: 09e2 ad3d 6b84 3b3e 2c0c 493e c6cb c13e
00000040: 32ff 053e a499 5f3e 4915 2abf 48cc 0f3e
00000050: e28d 82be d381 e5be b21d 39be 9b1a 37be
00000060: c1d6 c63e 52ab 443e 058c 873e 8013 643e
00000070: dbd9 2fbe 84d3 1d3e b1ee 7c3d c9b7 8b3e
00000080: f4ba 8e3e 8766 05be e704 cbbd cdb2 c83e
00000090: c5a2 3ebc a411 84bd bf31 143e 57cf a43e
000000a0: d881 dfbd 1bed a2bd 45ee a5be eec3 91be
000000b0: 3252 0c3d 6ce5 8fbe 91a0 3a3e c838 eebe
000000c0: 0c7d 5d3c 05a9 743c 5c0b 7a3e 0554 783e
000000d0: 2169 b53e 64b1 963e 5ff1 9abd f6a9 03be
000000e0: a0c1 b3be 60b6 71bd 9d5f 863e 3f7b 7fbe
000000f0: e90b 12be 3060 88be 9fd0 133d 3f7f 9b3d
0.2839694 -0.25174713 0.16324355 0.26624504 0.29605845 -0.66133994 0.22503817 0.17054312
-0.43446845 0.16937451 0.35039556 -0.42744276 0.084903784 0.18312232 0.1963355 0.3785078
0.1308563 0.21835953 -0.6643873 0.14042771 -0.25498873 -0.4482561 -0.18077734 -0.17881243
0.3883572 0.19205979 0.26474014 0.22273064 -0.17172949 0.15412718 0.06175107 0.27288654
0.2787701 -0.13027392 -0.099130444 0.39198914 -0.011635487 -0.06448677 0.14472102 0.32189438
-0.109134376 -0.079553805 -0.32408348 -0.28469795 0.034258075 -0.28104722 0.18225314 -0.46527696
0.013518583 0.0149328755 0.24418396 0.24250801 0.3543177 0.29432213 -0.07565569 -0.12857804
-0.35108662 -0.059011817 0.26244822 -0.24949358 -0.14262356 -0.26635885 0.03608763 0.0759263

flows.0.layers.6.network.2.bias f4 [8]
00000000: b93e bdbe 284a a3be 8aea 183f f1e3 c23d
00000010: 04b9 daba 650a 6b3d 5a49 36bd 749d 86be
-0.36961916 -0.31892514 0.5973288 0.095161326 -0.0016687219 0.05738296 -0.044503547 -0.26292002

flows.0.layers.6.network.4.weight f4 [8, 8]
00000000: 64f2 5bbe 54c3 ab3e 5245 afbe 2bb5 f3bc
00000010: ac68 973d 22fd 8bbe 7a2b c2bd 8551 7bbe
00000020: 1c27 693e fd65 d53e 4d59 85be 7216 66be
00000030: 2f76 38bd 76d5 64bd 522b 0c3c ce7f 9a3e
00000040: 79eb 45be 0174 4a3e fc15 85be 5163 c23e
00000050: feb5 1bbd 9250 20be a18a 9f3e ee62 77be
00000060: 6a1e 2ebd e499 223e ac7b 5a3c 7d56 ad3e
00000070: 2bb0 903e b6c3 a63e 31ce 0d3c 1a9f 743e
00000080: 6f62 d0bd 560f ff3d e567 ddbd 3120 e73d
00000090: bb33 913e f4b3 973e c5fd 68be b7f7 8f3e
000000a0: 9e3e 223e 5f47 a03d 8a2d 053f b647 3abe
000000b0: 5292 aabe bf9c ba3e 2229 98be f0f6 323e
000000c0: ee4a 9dbe 5eac ec3d 457c 96bd 69c7 19bc
000000d0: 59c8 ccbd 7ed8 2c3e 0c22 42bd d5e3 963e
000000e0: 2458 a93e 4398 1fbf a798 023e 10b5 14be
000000f0: f489 d33e 9f0a 9e3e 07f9 a43c 7c51 84be
-0.21479183 0.3354746 -0.34232575 -0.029749474 0.073930115 -0.27341563 -0.09480949 -0.24542816
0.22768825 0.41679373 -0.26044694 -0.224695 -0.045034584 -0.055867635 0.00855525 0.30175632
-0.19328107 0.19770814 -0.25993335 0.37966397 -0.03801536 -0.15655735 0.31160453 -0.24158832
-0.042509474 0.15879017 0.01333515 0.33855048 0.28259405 0.3257119 0.008655117 0.23888817
-0.10175025 0.12454097 -0.10810832 0.11285437 0.2835978 0.2962948 -0.22753055 0.2811868
0.15844199 0.07826113 0.5202261 -0.18191418 -0.3331476 0.36447713 -0.29718882 0.17477012
-0.3072123 0.11556314 -0.07347921 -0.009385922 -0.09999151 0.1687946 -0.04739575 0.29470697
0.33075058 -0.6234171 0.12753545 -0.14522195 0.41316187 0.30867478 0.020138277 -0.25843418

flows.0.layers.6.network.4.bias f4 [8]
00000000: 43a3 4fbe b32b 303e 7d36 cdbc 0396 b43e
00000010: 6834 3a3e 1f42 9d3e 6d3a 513e 6b53 41be
-0.20277123 0.1720417 -0.025050396 0.352707 0.18184054 0.3071451 0.20432444 -0.18879478

flows.0.layers.6.network.6.weight f4 [2, 8]
00000000: eda9 783d 70f6 a8bd e3db 923e 9b7c f63b
00000010: 7ae3 383d 28f1 9ebe af5c 91be ef24 9a3d
00000020: 98c7 143e 555a 1a3e f1bb 6b3e 73d2 00be
00000030: 4af6 e33d 2ba7 61be 1c9e 853d b157 33be
0.06070893 -0.08250129 0.28683385 0.0075221783 0.045138814 -0.31043363 -0.28391024 0.07526576
0.14529264 0.15073521 0.23020913 -0.1258028 0.1113096 -0.22036426 0.065242976 -0.1751392

flows.0.layers.6.network.6.bias f4 [2]
00000000: 4a21 9b3e de0c 903e
0.30298835 0.28134817

flows.0.layers.7.network.0.weight f4 [8, 8]
00000000: f38f f13e 7459 693e 4001 8a3e b34b debe
00000010: 2dea 77be 752d 7e3d 5df1 cebd 58c9 9fbe
00000020: d7b6 8fbe b1f3 56bc 04c3 bebe e7ff a13e
00000030: 0549 6b3e c5f0 883d fe7e 203b 5668 24bf
00000040: 0c68 b4be ad37 f03d ffe2 193e 9c42 d6be
00000050: 799f b4bd a134 93be 506f c2bd 91f5 9fbe
00000060: e1af 81be ba31 18be 9f5b a2be 48e2 99be
00000070: e741 15be 6834 b7be abfd 2bbe a4ff 6b3e
00000080: ca20 bcbe bb68 6c3d 2d48 173e a873 9bbe
00000090: 8733 ba3e 0e01 493e 3bc0 aa3e 68cb 42be
000000a0: 3fd5 a73e d618 03bf 9c0e 28be 1cff 4ebd
000000b0: 4931 38be 9067 d83e 2f0c 323e 353a a7bc
000000c0: 1c1c 90be 2a4c 15bf ad7b 37be 7e28 a6be
000000d0: 7693 963e 86e4 9b3e 8249 b03e 7092 e2bd
000000e0: fe6d 453e 8bd8 4bbe 8d42 933e 5da1 f13d
000000f0: a487 cdbd 287d b7be dfad 09bf a42f 7ebe
0.47180137 0.2278803 0.2695408 -0.4341713 -0.24210425 0.06205507 -0.1010463 -0.312083
-0.28069183 -0.013119624 -0.3725816 0.3164055 0.22977073 0.06686548 0.0024489756 -0.64221704
-0.3523563 0.11729369 0.15027998 -0.41847694 -0.088194795 -0.2875109 -0.094938874 -0.3124204
-0.25329497 -0.14862719 -0.31710526 -0.3005545 -0.14575921 -0.3578217 -0.16795985 0.23046738
-0.36743766 0.057717066 0.14773627 -0.30361676 0.36367437 0.19629309 0.33349785 -0.19022906
0.3277988 -0.5120977 -0.16411823 -0.05053626 -0.17987551 0.42266512 0.1738746 -0.020413497
-0.28146446 -0.5831934 -0.17918272 -0.32452768 0.2940938 0.30447787 0.34431082 -0.11063087
0.1928024 -0.19906823 0.28761712 0.11798356 -0.10035637 -0.35837674 -0.5378093 -0.24822861

flows.0.layers.7.network.0.bias f4 [8]
00000000: 3df3 f43d 413d 113e 1bcc a73e cfd7 bb3e
00000010: eb54 1bbd e350 63be f105 a83e 8b83 d93e
0.119604565 0.14183523 0.32772908 0.36688086 -0.03792278 -0.22198825 0.32817033 0.42483172

flows.0.layers.7.network.2.weight f4 [8, 8]
00000000: 025b 4b3e 203c 6abe 636f c33e 20b0 c73d
00000010: 9abd 2c3e abc6 e83c 28f0 8a3e ddce 0abe
00000020: 9d59 7bbe e6af 323e d17d 10be b4a6 0fbf
00000030: 3756 cf3e e609 3dbd 7b85 bf3e 3379 e0be
00000040: 34ea 413e 05e3 22be 8931 9cbe 37ea 0abe
00000050: 6d72 edbc 9822 763e b15c 0cbe affb e83d
00000060: 3fa2 c53d c8f5 33be 79c4 45be 5cbd b6be
00000070: a02f e9bd 158e 0dbf b6a9 be3d 8170 2a3e
00000080: e28e 7abe d328 7fbe 98b6 763e b515 743e
00000090: 24ce 22be e389 c5be 2965 fe3e ccc0 a33e
000000a0: 8b58 9ebe 1fa9 09be ee47 e5bd d5fb 82be
000000b0: b761 c03e 74e5 00be 3518 8c3e 8293 b0bd
000000c0: c24f 90be 1641 2abd 385b a83d 89a4 a73e
000000d0: 5ee6 d93d 3b03 96bc fb4f c63e 7cab ccbe
000000e0: fd8c 853e ae1d 1d3f c59a b13d 0dd2 963e
000000f0: 4fd1 f23d ef81 68be 59da ecbd 2f8b aa3d
0.19858935 -0.22874498 0.3817092 0.0975039 0.16869202 0.028415045 0.2713635 -0.13555475
-0.24545904 0.17449912 -0.14110495 -0.56113744 0.40495464 -0.046152018 0.37406525 -0.43842468
0.18936998 -0.15906914 -0.30506542 -0.13565908 -0.028985227 0.24036634 -0.13707234 0.1137613
0.096500866 -0.17574227 -0.1931323 -0.35691345 -0.11386037 -0.55294925 0.093097135 0.1664448
-0.24468568 -0.24917917 0.24093091 0.23836406 -0.15898949 -0.38581762 0.49686554 0.3198303
-0.30926928 -0.13443421 -0.1119536 -0.25582758 0.3757455 -0.1258753 0.27362218 -0.08621885
-0.2818585 -0.041565977 0.082205236 0.32742718 0.10639642 -0.018312087 0.38732895 -0.39974582
0.26084128 0.6137341 0.08672098 0.2945713 0.11856329 -0.22705816 -0.11565084 0.083273284

flows.0.layers.7.network.2.bias f4 [8]
00000000: 22cc 12be 8f2d 883d 3fdd b53e 723e 243e
00000010: 32d7 aebc 599f 8f3d e633 29be ecf0 90be
-0.14335683 0.066493146 0.3552036 0.16039446 -0.021342847 0.07012815 -0.16523704 -0.2830881

flows.0.layers.7.network.4.weight f4 [8, 8]
00000000: 0f72 91be 7613 b1be f75d 8f3d 0c46 07bd
00000010: cb77 c5bd 247f b6be ecdd 3e3e 06d4 80be
00000020: a966 51bd 41b7 bbbe c0c7 50be 4008 523d
00000030: a1a5 56be 4cba 66be 6cab 703e 7878 3ebe
00000040: c264 6bbe ee89 7bbd bd17 083e 18f9 a7be
00000050: 5f89 7cbe d74d 0c3e faec d63b cf94 ef3d
00000060: 537a 83be 6b06 4b3e 0e00 f03d aa7a 333d
00000070: 5183 99be 3a9f 2a3e 9e1b 883e 7011 50bd
00000080: baf4 3c3e 6c72 c63d 1e8a eebd 1853 aa3d
00000090: 4828 093f d712 863c 6a09 9cbe 2759 f0bd
000000a0: a271 2f3e 6b3d e5bd 212a 45be 0e81 d53e
000000b0: fb43 cd3e 2d15 dcbc ccb6 8839 dd16 fabd
000000c0: 9fe6 1fbb b28a 853c 5ca5 52be 710b 0dbe
000000d0: 419e 33be 9d5e 0b3c ac41 01be 476e 193e
000000e0: 4620 a6be dff0 133e 0900 503e 3e10 f6bc
000000f0: 378f edbe 8b00 01bd 8460 a73c 7f5e 6ebe
-0.28407332 -0.3458516 0.07000344 -0.033025786 -0.09641989 -0.35643876 0.18639344 -0.2516176
-0.051123295 -0.3666325 -0.20388699 0.0512774 -0.2096162 -0.22532004 0.23502892 -0.18600643
-0.22987655 -0.061410837 0.13290305 -0.3280723 -0.24661778 0.13701569 0.0065590115 0.11698305
-0.25679263 0.19826667 0.117187604 0.043818153 -0.29983 0.16662303 0.2658357 -0.05079788
0.18452731 0.09689793 -0.116474375 0.0831663 0.5357709 0.016366405 -0.30475932 -0.117357545
0.17133191 -0.11193355 -0.19254352 0.41700023 0.40090927 -0.026865566 0.00026076136 -0.12211392
-0.0024398935 0.016301487 -0.20570892 -0.13773896 -0.17540838 0.008506444 -0.12622708 0.14983474
-0.32446498 0.14447354 0.20312513 -0.030037042 -0.46398327 -0.03149466 0.020431764 -0.23278235

flows.0.layers.7.network.4.bias f4 [8]
00000000: 73a3 7dbe 7a91 9d3e 2c03 413e 671c 423e
00000010: 5672 a63e 80b2 363e 1063 3b3e f8cc 673e
-0.24769382 0.30775052 0.18848866 0.18956147 0.32509106 0.1784153 0.18299508 0.22636783

flows.0.layers.7.network.6.weight f4 [2, 8]
00000000: 6c8d debd b6e0 48bd 1c5c 7f3e c04c 203d
00000010: 54c2 83be c84a a4be ef79 413e 708f 9a3e
00000020: 04be e53e 30b3 603d 3e60 853e e79a a7be
00000030: 2713 83be f45d c7be 0c4f 903e 4e30 7a3b
-0.10866818 -0.049042426 0.2493748 0.039135695 -0.25734198 -0.32088304 0.1889417 0.3018756
0.44871533 0.054858387 0.2604999 -0.3273537 -0.2560055 -0.38938868 0.28185308 0.0038175764

flows.0.layers.7.network.6.bias f4 [2]
00000000: 1d2e 2bbe f222 f13d
-0.1671681 0.117742434

flows.1.initial_param f4 [2]
00000000: 5d26 24bf 0a94 0d3f
-0.6412104 0.55304015

flows.1.layers.0.network.0.weight f4 [8, 1]
00000000: 7b13 d23e 84ce 4f3e 8fbd 3abf 021b 27bf
00000010: 99cc bc3e 1026 2f3f 37ab 0f3d 87ad ddbe
0.41030487 0.20293623 -0.72945493 -0.65275586 0.36874846 0.68417454 0.035075393 -0.43296453

flows.1.layers.0.network.0.bias f4 [8]
00000000: 5e28 043f e4aa 333e 5c53 75bf 0c7e 0ebf
00000010: 3ae7 683e b9a0 f43e 99eb a4be 9213 f03e
0.51624095 0.17545658 -0.9583032 -0.5566108 0.22744456 0.47778872 -0.32210997 0.4688993

flows.1.layers.0.network.2.weight f4 [8, 8]
00000000: 9cb7 54be f98a c13e 0d88 903e 812e 923d
00000010: 36c7 543e 2636 fe3d 51e7 58be 5ed1 70bd
00000020: 701c 073e 8c7b 2abd 766a a73e 03ce 2fbe
00000030: ee92 7dbe 46ba f9bd 0862 a3be 7473 353e
00000040: 68c0 38be 6510 97be b1cc 48bc 8a57 67be
00000050: 07cf 43be 7d05 313e b422 70be c07d fb3c
00000060: 5090 623e 263e 71bb 4f5a 6a3e 9137 ecbd
00000070: 987d 023e a3ad 4b3e 6940 7f3d 0517 a93e
00000080: c113 bcbe 5281 5fbc f0e3 0c3e 9add 88be
00000090: 6531 423e 2162 2fbe 0438 00be bdc0 b5be
000000a0: 8f2a f53d 9e77 95be f42a 9cbd 9b49 333e
000000b0: eb90 5a3e 6691 5e3d 8d6b 02be aae5 d8bd
000000c0: 52d9 3f3e a364 853d 91b0 933e 6905 0f3e
000000d0: a8fe 873e 4aaf 96be 48d3 903e 2bcd 13be
000000e0: 8fb4 c3bd e9f3 5b3c 3053 22bd ebc3 b43d
000000f0: 5f0c 803e 2b8d 74be abbf af3d 4c12 8abe
-0.20773166 0.3780134 0.28228799 0.07137776 0.20779118 0.12412672 -0.2118199 -0.058793418
0.13194442 -0.04162173 0.3269841 -0.17168431 -0.2476308 -0.12193732 -0.3191073 0.17719823
-0.18042147 -0.29504696 -0.0122558335 -0.22591987 -0.19121943 0.1728725 -0.23450738 0.03069961
0.22125363 -0.0036810725 0.22886012 -0.11534036 0.12743223 0.19890456 0.062317286 0.33025375
-0.3673382 -0.013641672 0.13758826 -0.2673157 0.18964155 -0.17127277 -0.12521368 -0.3549861
0.11971008 -0.29192823 -0.0762538 0.17508547 0.21344344 0.05433788 -0.1273634 -0.1059068
0.18735245 0.065133356 0.28845647 0.13966908 0.26561475 -0.2943061 0.28286195 -0.14433734
-0.09555923 0.013424852 -0.039630115 0.08826431 0.25009438 -0.23881976 0.0858148 -0.26967084

flows.1.layers.0.network.2.bias f4 [8]
00000000: 4508 893d 610c 963e 4fb7 593e 343d a73e
00000010: 6436 4a3e 15aa 24bd 5c80 b53d a9bf fabd
0.066910304 0.2930632 0.21261333 0.32663882 0.19747311 -0.040201265 0.08862373 -0.122435875

flows.1.layers.0.network.4.weight f4 [8, 8]
00000000: 7ebb e73e 862f 283e 947c 80be 9e21 a23e
00000010: da1b 1b3d 2fc7 c73d b112 95bd be5d d2bd
00000020: e336 c2bd a67e cbbd 5c1b 9dbe 5a63 34be
00000030: 1e68 b6bd d8b3 303e ee72 5e3e c8b1 63be
00000040: e4ba 41be 8f14 87bd e9fb 40be 21b9 87bd
00000050: 099c 37be 38a5 703d abb0 56be 3c78 563d
00000060: 894e b4be 250b e8bd f937 843e 6251 47be
00000070: 31e3 cabd 82fe 8c3e 2c74 e13d b4ba 25be
00000080: a5f6 cbbe 8ac3 d4bd 224f e9bd 9147 163e
00000090: 864d 73be c506 503e bd46 7ebe 0886 e5bd
000000a0: d573 c7bc dc63 a13e e637 ac3e 38c0 423d
000000b0: ae1d 7bbc 96b6 8fbe b1af 2e3e 9230 4cbe
000000c0: 6f28 4dbe 76cd 56be 1406 acbe a981 433e
000000d0: 99fb af3c cc8e 363e e1f3 823e 2c31 3f3e
000000e0: 623d 563d a1ac 9dbd fd6c 403e 458c 1d3e
000000f0: d212 f83d afc1 95bd 35ff 1b3d a03e a43c
0.45260233 0.16424379 -0.25095046 0.31666273 0.03786836 0.09754788 -0.07278956 -0.10271786
-0.09483125 -0.09936266 -0.30684936 -0.17616025 -0.089065775 0.17256105 0.2172353 -0.22235787
-0.1891895 -0.06595718 -0.18846096 -0.066271074 -0.17930616 0.058751315 -0.20965831 0.05236076
-0.35216168 -0.11330251 0.25823954 -0.19464639 -0.099066146 0.27537924 0.11008486 -0.16184503
-0.39836612 -0.103888586 -0.113920465 0.14675738 -0.23760042 0.20315082 -0.24831672 -0.11207205
-0.024347225 0.315215 0.33636397 0.047546595 -0.0153269 -0.2806899 0.17059208 -0.19940403
-0.20034955 -0.20976815 -0.33598387 0.1909243 0.021482276 0.1782791 0.2557669 0.18671101
0.052304633 -0.07698942 0.18791576 0.1538554 0.12112965 -0.07312333 0.03808518 0.020049393

flows.1.layers.0.network.4.bias f4 [8]
00000000: 4e29 75be 7269 bb3d 8f5f 8abe fa4d 133e
00000010: 762b 6abe f44f 02be bf6c 2fbe 7659 893e
-0.23941538 0.091509715 -0.2702603 0.14385214 -0.22868142 -0.12725812 -0.17131327 0.26826066

flows.1.layers.0.network.6.weight f4 [2, 8]
00000000: d1bc 4fbe 6091 2d3e 6879 4b3e 8464 5a3e
00000010: 2a94 f13d 4a10 3e3e 2407 933e 96b1 3d3d
00000020: e9ff 093e 761d 81be f0bc b0bd 95a9 803c
00000030: 9c58 b83c b96a 37be a8e3 a6be b6a4 c9bd
-0.20286871 0.16949987 0.19870532 0.21327406 0.11795838 0.18560901 0.28716385 0.046311937
0.13476528 -0.2521779 -0.08629787 0.015705863 0.02250319 -0.17911805 -0.32595563 -0.09845869

flows.1.layers.0.network.6.bias f4 [2]
00000000: f7b7 e53d 023a 973e
0.11216729 0.29536444

flows.1.layers.1.network.0.weight f4 [8, 2]
00000000: 944a 31bf 23b7 da3e cde9 45bf 8dcd 08bf
00000010: 347a b8be 1757 9abe a2e0 563e dc95 07bf
00000020: a079 273f 5747 6e3f bf3d a93e de01 263f
00000030: e3a1 84be 7a8c dfbe 8810 c3bd 91a4 ff3d
-0.6925442 0.42717847 -0.77309877 -0.53438646 -0.36030734 -0.3014457 0.20984128 -0.5296304
0.6541996 0.93077606 0.3305492 0.648466 -0.2590476 -0.43661863 -0.095246375 0.124825604

flows.1.layers.1.network.0.bias f4 [8]
00000000: 1da2 f5be c3cd 0cbf 2624 9c3e e68f 783e
00000010: e5e0 813f cb82 b5be dd04 a23e 1a7c 93be
-0.47975245 -0.5500147 0.3049633 0.24273643 1.0146757 -0.3545135 0.31644335 -0.2880562

flows.1.layers.1.network.2.weight f4 [8, 8]
00000000: fa5d 1b3e 46b5 d1bd 1bf2 583e 4c78 c83e
00000010: f6e0 9f3e f339 123e 96a7 a0bb 41df a03e
00000020: 4b2d 95be 4d39 903e 7077 c53e ce85 cd3e
00000030: 4ea0 bbbd 3c0a a2be 4a37 b93d b47e 473d
00000040: 12b2 ea3d 2f37 823d 35e6 7c3e e86c 06bd
00000050: 20df 5dbc 5d56 0d3d 73f7 8d3d b632 80be
00000060: d80e 843d ed28 b0be 8044 13be 8475 36be
00000070: c9d2 ac3e 7983 a2be 2b09 6fbe e539 a1be
00000080: c87d ce3d 294d 87be 670c b23d 1f1c 98be
00000090: 3f5e 90be 5a54 22be ac75 aa3c 1e36 ba3e
000000a0: 7f64 983e 6481 b9bd ee34 b2be aa4b 46bd
000000b0: d1f9 64bd 43ec b8be 8eac 5d3e db8a e93d
000000c0: 0c56 e73d 7ef6 c53c 3a9c ffbd 8137 9c3d
000000d0: e724 003e d12e 88be 7213 bd3c cf2a babd
000000e0: 3180 b5be 8ca9 323e ed5b 063d edea 7abe
000000f0: 93f6 b83e e2da aebe 8d14 6e3e d82a 9f3e
0.15172568 -0.10239653 0.21186106 0.3915428 0.3122632 0.14279918 -0.0049027903 0.3142033
-0.29136118 0.28168717 0.38567686 0.40141147 -0.09161435 -0.31648433 0.09043749 0.048704818
0.114597455 0.06358182 0.24697192 -0.032818705 -0.013541967 0.03450619 0.06931963 -0.2503869
0.06448144 -0.34406224 -0.143816 -0.17818266 0.33754566 -0.3174093 -0.23343341 -0.31489483
0.100825846 -0.26426056 0.08693772 -0.29708955 -0.28196904 -0.1585249 0.020808063 0.36369413
0.29764172 -0.090578824 -0.34806007 -0.048412003 -0.055902306 -0.36117753 0.21647856 0.11403438
0.11295709 0.024165388 -0.1248097 0.07627774 0.12514077 -0.26598218 0.023080561 -0.09090196
-0.35449365 0.1744749 0.03280251 -0.2450368 0.3612562 -0.3415137 0.23250027 0.31087375

flows.1.layers.1.network.2.bias f4 [8]
00000000: 2c4d c73a 69d2 1d3e 2732 213e ddad 793e
00000010: c75b 0abe 9c8b 07be 0b16 443c 0679 a23e
0.0015205494 0.15412296 0.15741788 0.2438273 -0.13511573 -0.1323685 0.011968146 0.3173296

flows.1.layers.1.network.4.weight f4 [8, 8]
00000000: 6fd0 4dbd 8754 5d3e fdb8 1c3d 3645 df3b
00000010: c06d 7c3d af44 473d 6efd e3be 3e5f dfbe
00000020: 850d 423d 6345 313e e303 413e 4942 dc3d
00000030: d888 bd3d 93a4 0d3e c3a4 39be 68b8 84be
00000040: 5e69 54be e39f 513d c75e 55be e049 5dbd
00000050: 0946 f9bd f83f b13d 6687 b93d efe7 c43e
00000060: b7ee 893e b88f 9abe 22c0 b6bc fa5f 303c
00000070: d037 bd3e e67f 84bd 4fa3 10be aff4 8ebe
00000080: a024 523e 9097 f3bd 8860 1dbe 4478 833e
00000090: 4986 d63e ec50 963d e82b 2abe 2b4f 843e
000000a0: 98f7 a8be 94bb 58be fca5 59be fb04 84be
000000b0: 4330 65be 3c2e 1fbe 2585 bfbe dc1b 30be
000000c0: d3e1 bf3d a177 96be ace1 12bc 55de c8bd
000000d0: 71dc 443e 327b b53e f833 9e3d 06d0 35be
000000e0: a5c1 b2be 1387 91be 1095 aa3d fce3 ad3c
000000f0: 29ff 7d3e aa63 5ebc aeb0 213e 0cd8 bfbe
-0.050247606 0.21614276 0.038262356 0.0068136705 0.061628103 0.048649486 -0.4452929 -0.43627352
0.047376174 0.17311625 0.18849139 0.107548304 0.092546165 0.13832311 -0.18129258 -0.2592194
-0.2074332 0.05117787 -0.20836936 -0.05402553 -0.12171561 0.08654779 0.09059028 0.384582
0.26939937 -0.30187774 -0.022308413 0.01076507 0.36956644 -0.06469707 -0.14124797 -0.27921054
0.20521784 -0.11894143 -0.15368855 0.25677693 0.41899326 0.073396534 -0.16618311 0.2584165
-0.330014 -0.21165305 -0.21254724 -0.2578505 -0.22381692 -0.15544981 -0.3740627 -0.17198128
0.093692444 -0.29388145 -0.008964937 -0.098080315 0.19224717 0.35445553 0.07724756 -0.17755136
-0.34913364 -0.28423366 0.08329213 0.021226875 0.24804367 -0.013573566 0.15790054 -0.37469518

flows.1.layers.1.network.4.bias f4 [8]
00000000: 269d 613d ff75 b23e 5f24 9dbe 4c42 64be
00000010: 87f1 543e a3f7 02be 0a3c 3cbe ae1f 323e
0.05508151 0.3485565 -0.3069181 -0.22290915 0.2079526 -0.12789778 -0.18382278 0.17394897

flows.1.layers.1.network.6.weight f4 [2, 8]
00000000: 3d5e 093c 5ca8 8cbb 6155 9cbd 2658 9f3e
00000010: e84a 283e 6ee8 d63d ff22 c63d 2146 423e
00000020: 874a 8b3e 88d1 07be 943e 2abd fc7e 413e
00000030: 85af 6cbe cc39 b83e 71c6 4fbe 51ec 823e
0.008384285 -0.004292531 -0.07633472 0.3112194 0.16434824 0.10493551 0.09674644 0.18972065
0.27205297 -0.13263524 -0.041563585 0.18896097 -0.2311383 0.35981596 -0.20290543 0.2557092

flows.1.layers.1.network.6.bias f4 [2]
00000000: 07b3 93be b251 cf3d
-0.28847525 0.10123004

flows.1.layers.2.network.0.weight f4 [8, 3]
00000000: 4ce3 c03e 4269 f63e c10b b43c 529f 223e
00000010: 22ff 8cbf 7c62 7ebd 65c0 c0be 49d2 6cbf
00000020: 9f52 263e 2118 a8be 66f4 4fbd 0cfa b23d
00000030: 514f ad3e 9a33 e4be 4e3b 42be d515 f13e
00000040: 1dcb 583e 79f4 823e ee5a 65be 44bb 15be
00000050: 6165 3cbe b60b 3e3e d7eb d73e b2a7 11bf
0.37673414 0.4812718 0.021978261 0.15881088 -1.101536 -0.06210564 -0.37646785 -0.9250837
0.16242455 -0.3283091 -0.050770186 0.08739099 0.33849576 -0.4457062 -0.18967935 0.4708697
0.21171232 0.25577143 -0.22397968 -0.14622217 -0.18398048 0.18559155 0.4217212 -0.5689651

flows.1.layers.2.network.0.bias f4 [8]
00000000: d02c c83e 21c6 823e bc06 13be 5da2 cdbc
00000010: 723c f53e cb24 083f 52c1 b53e 8fc4 4a3d
0.3909669 0.25541785 -0.14358038 -0.025101835 0.4789768 0.5318114 0.35499054 0.04950386
