data/models/MAF_crossroads_ego_through_bv_on_left_best.pth (torch, 49643 bytes, 100 tensors)

flows.0.initial_param f4 [2]
0	0x3ee1439f	0.43996903
1	0xbe94dc44	-0.290743

flows.0.layers.0.network.0.weight f4 [8, 1]
0	0x3ece6791	0.4031339
1	0x40570f44	3.3603067
2	0xbfdab0f4	-1.7085252
3	0xbf4e76a0	-0.8064976
4	0xbf884caa	-1.0648396
5	0x3f584016	0.8447279
6	0x3e4f81a2	0.20264295
7	0x3f40a8b0	0.75257397

flows.0.layers.0.network.0.bias f4 [8]
0	0xbeaf9cab	-0.34299216
1	0x3f8022c4	1.001061
2	0xbe847c70	-0.25876188
3	0x3e110225	0.14160974
4	0xbfa11b45	-1.2586447
5	0xbf84c12d	-1.0371453
6	0xbe523420	-0.20527697
7	0xbf117033	-0.5681183

flows.0.layers.0.network.2.weight f4 [8, 8]
0	0x3f5463d6	0.8296484
1	0x3e305d9c	0.17223209
2	0xbded0888	-0.11573893
3	0xbe449c97	-0.1920036
4	0x3efaa565	0.4895431
5	0x4052eeb7	3.29582
6	0x3ce7e362	0.028306667
7	0x3f3a3e94	0.72751737
8	0x3de66a65	0.11250762
9	0xbfc3cea1	-1.5297433
10	0x3fb42270	1.407301
11	0x3ec41125	0.3829433
12	0x3c96487a	0.018345106
13	0x3c41b2e1	0.011822433
14	0xbc22c2b0	-0.009934112
15	0xbd8b53fd	-0.06803129
16	0x3de3aef4	0.11117354
17	0xbdbd4017	-0.0924074
18	0xbeefbcd7	-0.4682376
19	0xbf193661	-0.598486
20	0xbf55a675	-0.8345712
21	0x3eb9e50f	0.3630757
22	0x3e4f6e02	0.20256808
23	0x3e90977f	0.28240582
24	0x3f3404ab	0.7031962
25	0xbdf9a54b	-0.1218973
26	0x3bd92280	0.006626427
27	0xbf12b263	-0.57303447
28	0xbe4f3d05	-0.20238121
29	0x3f63c48c	0.8897178
30	0x3efd6573	0.49491462
31	0x3f71dfd7	0.9448218
32	0xbf1df8ff	-0.6170806
33	0xc0006af5	-2.0065281
34	0x40008b5c	2.0085058
35	0x3ff45efb	1.9091486
36	0x3ecf3c4d	0.40475693
37	0xbe869fa8	-0.26293683
38	0xbcd07ec7	-0.025451077
39	0xbf88e81b	-1.0695833
40	0xbd5f1e68	-0.054472357
41	0xbdb72ba2	-0.08943869
42	0xbef5f27e	-0.4803657
43	0xbed3463c	-0.41264522
44	0x3e719f2d	0.23595877
45	0x3dd54863	0.10414197
46	0xbef87acc	-0.48531187
47	0x3e93ca1d	0.28865138
48	0xbd828aaf	-0.06374108
49	0xbda5a3e4	-0.080879
50	0x3d24fa2c	0.040277645
51	0x3e096cb5	0.13420375
52	0x3fd4dd21	1.6629983
53	0x3ef986a8	0.48735547
54	0xbe29a5a6	-0.16567096
55	0xbce272be	-0.027642604
56	0xbf3fabde	-0.74871624
57	0x3eb6b98f	0.35688445
58	0x3e78b51b	0.24287836
59	0x3eed27ed	0.46319523
60	0xbdf4a761	-0.119459875
61	0xbfcee54c	-1.6163726
62	0xbef1dfc2	-0.47241026
63	0xbf6b7146	-0.91969717

flows.0.layers.0.network.2.bias f4 [8]
0	0xbf3f0d23	-0.7462942
1	0xbcb8cd14	-0.022558726
2	0x3e07f78f	0.1327803
3	0xbedd4ae1	-0.4322119
4	0x3e254d47	0.1614276
5	0x3edef465	0.43545833
6	0xbe3e46bd	-0.18581672
7	0x3df5a09f	0.11993527

flows.0.layers.0.network.4.weight f4 [8, 8]
0	0xbc673ba4	-0.0141133405
1	0xbef58708	-0.47954583
2	0x3efc1b0b	0.49239382
3	0x3e95de19	0.2927101
4	0x3ece54a2	0.40298945
5	0x3de71878	0.11283964
6	0xbf03b73a	-0.51451457
7	0xbeb29734	-0.34880984
8	0x3e8e7761	0.27825454
9	0xbea5f8b6	-0.32416314
10	0xbea8820f	-0.32911727
11	0x3e45f29b	0.19330828
12	0x3f1cb5e1	0.61215025
13	0xbba20d12	-0.0049454058
14	0xbeae4a2f	-0.34040973
15	0xbede16bc	-0.4337672
16	0xc0054901	-2.0825808
17	0xbe3b836c	-0.18311852
18	0xbe92e8e9	-0.2869332
19	0xbea0497c	-0.31306064
20	0xbda551b5	-0.08072225
21	0x3d58f2cb	0.05296592
22	0xbdb29aca	-0.0872093
23	0x3ed6258a	0.41825515
24	0xbf7b532e	-0.981738
25	0x3f3b6989	0.7320791
26	0xbe02fd2d	-0.12791891
27	0xbf8202d0	-1.0157108
28	0x3ed300ca	0.4121154
29	0xbf2db7cd	-0.6785858
30	0x3e5b8c72	0.21440294
31	0x3f8675af	1.0504664
32	0xbcbf3da7	-0.023344828
33	0x3e62990c	0.22128695
34	0xbe59a902	-0.21255878
35	0xbe0502fe	-0.12989423
36	0xbebacdf1	-0.36485246
37	0x3ddef829	0.108871765
38	0x3cd884b1	0.02643046
39	0x3e2d633f	0.1693239
40	0xbe8cf8a8	-0.2753346
41	0xbeb54422	-0.35403544
42	0xbea02c74	-0.31283915
43	0xbda4d322	-0.08048083
44	0xbf0abd43	-0.5419504
45	0x3e1b7ae0	0.15183592
46	0x3f990ade	1.1956441
47	0x3e329bfe	0.17442319
48	0xbe84e4a4	-0.2595569
49	0xbdde2710	-0.10847294
50	0xbd96b0cf	-0.07357942
51	0x3ea60a77	0.3242986
52	0x3ef95f8b	0.48705706
53	0xbe0278cb	-0.12741391
54	0x3ea5f972	0.32416874
55	0xbdc64ce1	-0.09682632
56	0x3dc2f855	0.09520022
57	0xbd99c6d7	-0.07508629
58	0x3ef66bc0	0.48129082
59	0x3f0f2452	0.55914795
60	0xbee80e11	-0.45323232
61	0x3da98fd8	0.08279389
62	0xbed6959f	-0.41911027
63	0xbf426292	-0.75931656

flows.0.layers.0.network.4.bias f4 [8]
0	0xbe7310c5	-0.23736866
1	0xbe071433	-0.13191299
2	0x3e87f493	0.26553783
3	0xbebcbd7a	-0.3686331
4	0x3f04b5b5	0.5183976
5	0xbe4ea44c	-0.20179862
6	0xbdbcb2b4	-0.092137724
7	0xbea31e57	-0.31859085

flows.0.layers.0.network.6.weight f4 [2, 8]
0	0x3e73cf11	0.23809458
1	0xbe67b497	-0.22627483
2	0xbf0edfb1	-0.55810076
3	0xbf40e136	-0.75343645
4	0x3c6a313a	0.014293963
5	0xbe59c72c	-0.21267384
6	0xbdf5f3c8	-0.12009388
7	0x3e92c82a	0.28668338
8	0xbe657e2f	-0.22411416
9	0xbec20902	-0.37897497
10	0x3eb806f3	0.35942802
11	0xbe46fa24	-0.19431359
12	0x3e3279b4	0.17429239
13	0x3e61ca68	0.22049868
14	0xbd6456b1	-0.055746738
15	0x3dce09b9	0.10060448

flows.0.layers.0.network.6.bias f4 [2]
0	0xbc6fa13f	-0.014625846
1	0x3dcd1204	0.10013202

flows.0.layers.1.network.0.weight f4 [8, 2]
0	0x3effd302	0.49965674
1	0xbf875ef1	-1.0575849
2	0x3ebbb0af	0.36658236
3	0x40488e45	3.1336834
4	0x3f560935	0.836078
5	0x3f4a7edd	0.7909983
6	0x3fb14ba5	1.385121
7	0xbe6a5617	-0.22884403
8	0xbe9ad3e1	-0.30239776
9	0x3d82cf5f	0.06387209
10	0xbf13d29d	-0.57743245
11	0x3f4470d1	0.76734644
12	0x3f9d75b3	1.2301544
13	0x3f96d212	1.1782858
14	0xbede87e0	-0.4346304
15	0x3e2275a2	0.15865186

flows.0.layers.1.network.0.bias f4 [8]
0	0xbf3ce014	-0.73779416
1	0xbc81cce8	-0.015844777
2	0xbf9acd7d	-1.209396
3	0x3f25f5ab	0.64827985
4	0x3e0dbc34	0.13841325
5	0x3def8d38	0.11696857
6	0xbe2f044c	-0.17091483
7	0x3f3f1097	0.7463469

flows.0.layers.1.network.2.weight f4 [8, 8]
0	0xbf8c2b58	-1.0950727
1	0xbea17172	-0.31531864
2	0xbf5286a0	-0.8223667
3	0x3e9b933d	0.3038577
4	0xbcb426e3	-0.021991199
5	0x3f2aeda3	0.66768855
6	0xbe67691e	-0.22598693
7	0x3e57c2d5	0.21070416
8	0x3e42e24e	0.19031641
9	0x3e38508a	0.17999473
10	0x3ed4ed04	0.4158708
11	0xbebd3b95	-0.3695952
12	0x3e622042	0.22082618
13	0xbec0524d	-0.3756279
14	0xbf2a617b	-0.66554993
15	0xbe3f7c54	-0.18699771
16	0x3f98ecd3	1.1947273
17	0xbf244bbb	-0.64178056
18	0xbe9edef2	-0.3102947
19	0x3efa3e4b	0.4887565
20	0x3dc19af9	0.09453387
21	0xbf3c56c2	-0.7356988
22	0xbf812ff7	-1.0092763
23	0xbd82c455	-0.063851036
24	0x3f380091	0.71875864
25	0x3f229b6c	0.63518405
26	0x3ed6ed03	0.419777
27	0xbf877513	-1.0582603
28	0x3f2229ee	0.6334523
29	0xbee97035	-0.4559342
30	0x3ef4330b	0.47695193
31	0x3e237098	0.1596092
32	0x3f1d4696	0.6143583
33	0xbf254e26	-0.6457237
34	0x3e85d018	0.26135325
35	0xbf6dd7dc	-0.929075
36	0x3de33870	0.11094749
37	0xbf5c9643	-0.8616678
38	0x3f1bca45	0.60855514
39	0x3e7be75b	0.24599974
40	0x3e993119	0.2992027
41	0xbd856711	-0.06513799
42	0xbf3fde78	-0.74948835
43	0xbf81e44b	-1.0147794
44	0x3e9a22c0	0.30104637
45	0xbe263dfe	-0.16234586
46	0xbf12b796	-0.5731138
47	0x3e9df456	0.30850476
48	0xbf22c50e	-0.6358193
49	0xbdf73923	-0.12071445
50	0x3f3d016e	0.73830307
51	0xbc2a7064	-0.010402773
52	0xbe7b5e43	-0.24547677
53	0xbee9ec34	-0.4568802
54	0xbe948804	-0.29010022
55	0x3dada4eb	0.08478721
56	0xbf11b5b4	-0.5691788
57	0xbf94ac38	-1.1615057
58	0xbfecb3f1	-1.8492414
59	0x3ece5f5e	0.40307134
60	0x3ef142c3	0.47121248
61	0x3f5076fc	0.81431556
62	0x3e852847	0.26007292
63	0x3fa92f39	1.3217536

flows.0.layers.1.network.2.bias f4 [8]
0	0xbe16243e	-0.14662263
1	0x3e3bc523	0.1833692
2	0xbe5ebc49	-0.21751513
3	0xbdafb589	-0.08579547
4	0x3e1a04fe	0.15040967
5	0x3e4685c9	0.19386972
6	0xbe82b600	-0.2552948
7	0x3f3470d1	0.70484644

flows.0.layers.1.network.4.weight f4 [8, 8]
0	0xbe73da1b	-0.2381367
1	0xbf5ab80c	-0.85437083
2	0x3e82e1df	0.2556295
3	0xbf562f5f	-0.8366603
4	0x3e1db55a	0.15401211
5	0xbf2ead0f	-0.68232816
6	0xbe0ab2c1	-0.13544752
7	0x3e1d0000	0.15332031
8	0xbf9ee90b	-1.2414869
9	0x3f29f8f5	0.66395503
10	0xbe044046	-0.12915143
11	0x3ce37a88	0.027768388
12	0xbd8e070c	-0.06934938
13	0x3da9ea1b	0.08296605
14	0x3aa5c2f6	0.0012646604
15	0xbf3d135b	-0.7385766
16	0x3ea356b0	0.31902075
17	0xbd5acce6	-0.053418063
18	0x3eae7c0a	0.3407901
19	0xbe2c81be	-0.16846368
20	0xbf29b455	-0.6629079
21	0xbf1aa0d8	-0.6040168
22	0x3e04e34e	0.12977335
23	0xbd8cc5cd	-0.06873665
24	0x3db48652	0.08814682
25	0xbe8a566d	-0.27019063
26	0x3f26f63d	0.6521948
27	0xbebc59cc	-0.3678726
28	0xbf8fdb5a	-1.1238816
29	0xbeeb82ca	-0.45998222
30	0x3efe8892	0.4971357
31	0xbdc493c3	-0.09598496
32	0x40034309	2.0509665
33	0xbfa588b3	-1.2932342
34	0x3b612539	0.0034354462
35	0xbfad6c41	-1.3548661
36	0xbee166ec	-0.44023836
37	0xbe02c84f	-0.12771724
38	0xbfa7a424	-1.3096967
39	0x40809f5e	4.019454
40	0xbe538745	-0.2065707
41	0x3e8d19d7	0.27558777
42	0xbeb3f19f	-0.3514528
43	0xbf37b5fd	-0.7176207
44	0x3d296c9d	0.041363347
45	0xbd182314	-0.037142828
46	0x3ef9bcfd	0.48777
47	0xbe2dd778	-0.16976726
48	0x3de9d0e7	0.11416798
49	0xbe8bc8ad	-0.2730154
50	0x3f01d858	0.5072074
51	0x3d90d0d7	0.07071083
52	0xbf7509fd	-0.95718366
53	0xbe5c61a8	-0.21521628
54	0xbed3d664	-0.41374505
55	0x3e77f529	0.24214615
56	0xbf742fbe	-0.9538535
57	0x3eb38a7c	0.35066593
58	0x3d6efff5	0.05834957
59	0x3f56f2b4	0.83964086
60	0x3ef99536	0.4874665
61	0x3e8e7e70	0.2783084
62	0x3ecc62fb	0.39919266
63	0xbc027db1	-0.0079645375

flows.0.layers.1.network.4.bias f4 [8]
0	0x3edd1417	0.4317939
1	0x3e8b623d	0.27223387
2	0xbe3782b7	-0.17920958
3	0xbeebf4c7	-0.46085188
4	0x3f9ce5a1	1.2257577
5	0x3dfe7748	0.12425095
6	0xbeb3c9a4	-0.35114777
7	0x3db90706	0.09034543

flows.0.layers.1.network.6.weight f4 [2, 8]
0	0x3f458379	0.77153736
1	0x3e42adfd	0.19011684
2	0xbca429fb	-0.02003955
3	0x3e71b17e	0.23602864
4	0xbece113f	-0.40247533
5	0x3e98e9bb	0.29865822
6	0xbeb5d657	-0.3551509
7	0x3df9c86d	0.12196431
8	0xbe8f7118	-0.2801597
9	0xbef976c4	-0.48723423
10	0x3ef565d4	0.4792925
11	0x3eacbaf7	0.33736393
12	0xbf1d7566	-0.6150726
13	0xbd5affce	-0.05346661
14	0x3ec5f822	0.38665873
15	0xbf02ee74	-0.511451

flows.0.layers.1.network.6.bias f4 [2]
0	0xbf13a2dd	-0.57670385
1	0x3a8a03da	0.0010529712

flows.0.layers.2.network.0.weight f4 [8, 3]
0	0x3dcc8558	0.09986371
1	0x3f1b107d	0.60572034
2	0xbef6b4ea	-0.481849
3	0x3d87c8d7	0.06630104
4	0xbc918c7d	-0.017767185
5	0xbf7b605a	-0.98193896
6	0x3d30e133	0.043183517
7	0x3d7225bf	0.05911803
8	0xc0792cc5	-3.8933575
9	0xbf445473	-0.7669136
10	0xbfb0a20c	-1.3799453
11	0xbf86b5f2	-1.0524275
12	0x3fc57b25	1.5428206
13	0xbc9fe87d	-0.019520039
14	0x3f014844	0.50500894
15	0xbe1aa48b	-0.1510183
16	0x3f322369	0.6958528
17	0x3f599375	0.84990627
18	0x3f29f6de	0.66392314
19	0xbcfb45a2	-0.030672852
20	0xbf81eda7	-1.0150651
21	0x3fd4eaf8	1.6634207
22	0x3f83aae3	1.0286525
23	0x3e42ceba	0.19024172

flows.0.layers.2.network.0.bias f4 [8]
0	0x3db97470	0.09055412
1	0x3f60fee4	0.8788893
2	0xbda0c0cf	-0.07849275
3	0xbf86dd5e	-1.0536306
4	0xbe30b47a	-0.17256346
5	0xbf0413b3	-0.5159256
6	0xbef77627	-0.4833233
7	0x3fbc7d25	1.4725691

flows.0.layers.2.network.2.weight f4 [8, 8]
0	0x3e91ab7c	0.28451145
1	0xbeadbed5	-0.33934656
2	0xbc9ba9ec	-0.019001924
3	0x3e137587	0.14400302
4	0x3eaec8ce	0.34137577
5	0x3ebedf03	0.3727952
6	0xbf10075c	-0.5626123
7	0x3f514e35	0.8175996
8	0x3c122169	0.008919098
9	0x3f67958b	0.9046256
10	0x3e193eb5	0.14965327
11	0x3ddb96e1	0.10722137
12	0x3e02661d	0.12734266
13	0xbdc71e10	-0.09722531
14	0xbdcfae87	-0.1014071
15	0x3e89d9ec	0.26924074
16	0x3eb222cf	0.34792182
17	0x3cfc0116	0.030762237
18	0xbd9db474	-0.07700434
19	0x3d3cf685	0.046133537
20	0xbefcbfcf	-0.49365088
21	0xbe68ee81	-0.22747232
22	0xbd1f037c	-0.038821682
23	0x3ea4b85f	0.32171914
24	0x3db21030	0.08694494
25	0xbfa1166d	-1.2584969
26	0xbe1d9981	-0.15390588
27	0x3ebe57c9	0.3717635
28	0xbe38af0f	-0.1803553
29	0x3f0c718e	0.5486077
30	0x3e66895d	0.22513337
31	0x3eb8fdba	0.36131078
32	0x3e324126	0.17407665
33	0x3f14508d	0.5793541
34	0x3c5b95b0	0.0134023875
35	0xbdc5eea1	-0.096646555
36	0x3f09797a	0.53700984
37	0xbe589d03	-0.21153645
38	0xbe7eaf48	-0.24871552
39	0xbd780d6f	-0.060559686
40	0x3e9f0247	0.31056425
41	0xbebb325a	-0.36561853
42	0xbe2227b0	-0.15835452
43	0xbc532db8	-0.012889318
44	0xbf282c33	-0.6569244
45	0xb9f625d3	-0.00046948958
46	0xbe0af409	-0.13569655
47	0x3ddc152f	0.10746228
48	0xbf6a7dc1	-0.91598135
49	0xbd9582fc	-0.07300374
50	0xbf29da3c	-0.66348624
51	0x3f32bfc4	0.6982386
52	0xbf1825a0	-0.5943241
53	0x3eff4c03	0.4986268
54	0x3dffb9ec	0.12486634
55	0xbe1e4c9b	-0.1545891
56	0x3f0f0432	0.55865777
57	0xbeb1b7aa	-0.34710437
58	0xbef54425	-0.47903553
59	0x3f4143d7	0.7549414
60	0xbf158340	-0.58403397
61	0x3f5f6807	0.8726811
62	0xbea1fc13	-0.3163763
63	0x3e48999f	0.19589852

flows.0.layers.2.network.2.bias f4 [8]
0	0xbe9aab7b	-0.30208954
1	0x3e058bdd	0.13041635
2	0x3d7f251d	0.062291253
3	0xbf863e68	-1.0487795
4	0x3ee8fab8	0.45503783
5	0x3daa401e	0.08313011
6	0xbd65c7ae	-0.056098633
7	0xbf7e3e43	-0.99313754

flows.0.layers.2.network.4.weight f4 [8, 8]
0	0xbd4fe021	-0.050750855
1	0xbeebc98f	-0.46052215
2	0xbdc4e815	-0.09614579
3	0x3f90d662	1.1315424
4	0xbf653bc2	-0.8954431
5	0xbea4986d	-0.32147542
6	0x3e912b26	0.28353232
7	0x3d0df50e	0.03465753
8	0x3ecfbcee	0.4057383
9	0xbd4ae419	-0.049533937
10	0xbcf5dc35	-0.03001223
11	0x3ee81ec4	0.45335972
12	0xbf0af6ef	-0.5428304
13	0xbebfb7ad	-0.3744482
14	0x3eccc65f	0.39995095
15	0x3f23dbdb	0.6400735
16	0xbe60e945	-0.21963985
17	0x3db4653a	0.0880837
18	0xbe8008bc	-0.25006664
19	0x3eaab603	0.3334199
20	0xbdc8c6aa	-0.09803517
21	0xbd1c04b1	-0.03809041
22	0xbeb6e961	-0.3572493
23	0xbe52fa2a	-0.20603243
24	0xbe4e18f7	-0.20126711
25	0x3e009c05	0.12559517
26	0x3e0b71a9	0.13617577
27	0xbf0f080c	-0.55871654
28	0x3e9f014c	0.31055677
29	0xbe533695	-0.2062629
30	0xbef035d6	-0.46916074
31	0xbea1c105	-0.31592575
32	0x3ef9bddd	0.48777667
33	0x3e0bd310	0.13654733
34	0x3da078ce	0.07835542
35	0x3f563dda	0.8368813
36	0xbdfddd5d	-0.12395737
37	0xbe62d981	-0.22153284
38	0x3fa3f524	1.2809186
39	0x3f778b0c	0.96696544
40	0xbdb7093e	-0.0893731
41	0x3c68245b	0.014168824
42	0xbe8dcb64	-0.27694237
43	0xbbed34b6	-0.0072389496
44	0xbe524ec7	-0.20537864
45	0x3d699a24	0.057031766
46	0x3d8ddc90	0.069268346
47	0x3e11414c	0.14185065
48	0xbe9b00b7	-0.30273983
49	0x3dd70e41	0.105007656
50	0xbdc0fb5a	-0.094229415
51	0x3e26bb66	0.16282424
52	0xbe2581c1	-0.16162778
53	0xbe8558d7	-0.26044342
54	0x3e2fe48b	0.17177026
55	0xbedfb21d	-0.43690577
56	0x3d2ad4a1	0.041706685
57	0x3e8c8215	0.27442995
58	0x3f0887d3	0.5333225
59	0xbf096faf	-0.5368604
60	0x3eb4cb08	0.3531115
61	0xbe3c2ff0	-0.18377662
62	0xbcbf1980	-0.023327589
63	0x3e893983	0.2680169

flows.0.layers.2.network.4.bias f4 [8]
0	0xbf270967	-0.6524872
1	0xbf462fc0	-0.7741661
2	0xbd8eee7e	-0.069790825
3	0x3eca8c7c	0.39560306
4	0xbf6df525	-0.92952186
5	0xbea5d2f2	-0.323875
6	0x3d32524a	0.04353551
7	0x3caae0ef	0.02085921

flows.0.layers.2.network.6.weight f4 [2, 8]
0	0xbe506944	-0.20352656
1	0x3e9c0e64	0.3047973
2	0xbca98bde	-0.020696577
3	0x3dac85f3	0.08423986
4	0x3ee73192	0.45155007
5	0x3d7a359d	0.061086286
6	0xbccb09af	-0.024784891
7	0x3da53e3f	0.08068513
8	0x3e4585ae	0.19289276
9	0x3f32e1c1	0.69875723
10	0xbf33a77a	-0.70177424
11	0xbf307660	-0.68930626
12	0x3f4f8888	0.81067705
13	0x3f0cc0eb	0.5498187
14	0xbf856e84	-1.0424352
15	0x3e9f5cd1	0.311255

flows.0.layers.2.network.6.bias f4 [2]
0	0xbed849ee	-0.42243904
1	0xbed5e8d3	-0.41779193

flows.1.initial_param f4 [2]
0	0xbf20e88c	-0.6285484
1	0xbf96b646	-1.1774375

flows.1.layers.0.network.0.weight f4 [8, 1]
0	0xbf7d6b0b	-0.9899146
1	0xbf5f969d	-0.8733919
2	0xbf26eb23	-0.6520254
3	0x3f075131	0.52858263
4	0xbf3d9daa	-0.740687
5	0x3faef511	1.3668538
6	0xbf07f815	-0.5311292
7	0x3ec22c72	0.37924534

flows.1.layers.0.network.0.bias f4 [8]
0	0x3d9c86df	0.07642912
1	0xbf1f3494	-0.621896
2	0xbed7f475	-0.42178693
3	0x3f72d423	0.94854945
4	0xbf475fc8	-0.77880526
5	0x3ea584e0	0.32327938
6	0xbf10f668	-0.56625986
7	0x3f8396a9	1.0280353

flows.1.layers.0.network.2.weight f4 [8, 8]
0	0x3c4374a6	0.011929667
1	0x3c79b76c	0.015241485
2	0x3ecfbc34	0.40573275
3	0xbe1e9a1c	-0.15488476
4	0x3f1c9943	0.6117136
5	0xbe94cd73	-0.29062995
6	0x3ea1f979	0.31635645
7	0xbb906a70	-0.0044072196
8	0x3faa325d	1.329662
9	0xbde9d4de	-0.11417554
10	0x3f029a04	0.5101626
11	0xbe8fca5d	-0.28084078
12	0x3f1ba2f5	0.6079553
13	0x3db81c05	0.08989719
14	0x3ee96ad6	0.45589322
15	0xbe5cc433	-0.21559219
16	0xbecb0477	-0.39651844
17	0x3f104481	0.5635453
18	0x3dd79354	0.105261475
19	0x3f033389	0.5125051
20	0xbf298812	-0.6622325
21	0xbed145da	-0.40873605
22	0x3dcdad59	0.10042829
23	0x3ed775cf	0.42082068
24	0xbf93cb00	-1.1546326
25	0xbc53a279	-0.0129171545
26	0xbedab58e	-0.4271664
27	0x3f27572a	0.65367377
28	0xbec02f33	-0.3753601
29	0xbea8c350	-0.32961512
30	0xbe38812e	-0.18018028
31	0xbd9b27d2	-0.075759545
32	0xbd359994	-0.044335917
33	0xbf197cf0	-0.59956264
34	0xbea8781b	-0.32904133
35	0x3f663d43	0.8993723
36	0xbf909764	-1.1296201
37	0xbe9855e1	-0.2975302
38	0xbfa59c06	-1.293824
39	0x3f4efdde	0.8085612
40	0x3efceee7	0.49401018
41	0x3dd2e8c8	0.10298306
42	0x3f00e4c2	0.50349057
43	0xbf483a67	-0.78214115
44	0x3ef4aeda	0.4778965
45	0xbd9cc264	-0.076542646
46	0x3f03fdbc	0.5155904
47	0xbef715a7	-0.48258707
48	0xbf9a2f31	-1.2045652
49	0xbf7660e0	-0.9624157
50	0xbf7ba79c	-0.98302627
51	0x3b8bca1b	0.004266036
52	0xbf3c4894	-0.73548245
53	0x3fe2c905	1.7717596
54	0xbee1acfb	-0.44077286
55	0x3dd15f0a	0.102232054
56	0x3d8d0898	0.06886405
57	0x3f9d0001	1.2265626
58	0x3fc59593	1.5436271
59	0xbf7fe51b	-0.9995896
60	0x3f97f2a3	1.1870922
61	0xbf136228	-0.5757165
62	0x3f640509	0.89070183
63	0xbed05e07	-0.40696737

flows.1.layers.0.network.2.bias f4 [8]
0	0xbec01c19	-0.37521437
1	0x3db00dd5	0.08596388
2	0x3e204325	0.15650614
3	0x3dc129b3	0.094317816
4	0x3e9c01bb	0.3047007
5	0x3e052cd9	0.1300539
6	0xbde4e540	-0.111765385
7	0xbe8847b1	-0.26617196

flows.1.layers.0.network.4.weight f4 [8, 8]
0	0x3f1f0a4b	0.6212508
1	0x3dfb68e9	0.122758694
2	0xbe42fead	-0.19042464
3	0xbeb9b31e	-0.36269468
4	0x3dff0f19	0.124540515
5	0xbdefdf30	-0.117124915
6	0xbe9dead3	-0.3084322
7	0xbf595540	-0.84895706
8	0xbf987d5b	-1.1913255
9	0x3d4d8c51	0.050182644
10	0x3e8fac4e	0.28061146
11	0x3eaa805c	0.33301055
12	0x3ebc8b5c	0.36825073
13	0xbeb7bada	-0.35884744
14	0xbe9cbf25	-0.30614582
15	0xbfe3b1fe	-1.7788694
16	0x3d86c562	0.065806165
17	0x3fb1bb40	1.3885269
18	0xbea8a306	-0.32936877
19	0xbee21efb	-0.4416426
20	0xbded0052	-0.11572327
21	0x3f23235b	0.63725823
22	0xbf7ac27f	-0.9795303
23	0xbe37e1d2	-0.17957237
24	0xbe7d1c3c	-0.24717802
25	0xbf248a1f	-0.64273256
26	0x3d4e521c	0.050371274
27	0x3ee743fa	0.4516905
28	0x3e1d192d	0.15341635
29	0xbece593d	-0.40302458
30	0x3ceb8ae3	0.02875275
31	0xbe0876f7	-0.13326631
32	0x39d021e1	0.00039698093
33	0xbfbd3c41	-1.4784013
34	0x3dc0bc3b	0.09410902
35	0x3f3b9688	0.7327657
36	0x3ea2aa8c	0.31770742
37	0xbe3c6859	-0.1839918
38	0xbde651a5	-0.11246041
39	0xbd96739f	-0.07346272
40	0x3e86db89	0.26339367
41	0x3fab69f5	1.339171
42	0x3eb198ed	0.34686986
43	0xbf489f16	-0.78367746
44	0x3e975b36	0.29561776
45	0x3f5ef6e7	0.87095493
46	0xbf9645dd	-1.174007
47	0xbf446717	-0.767198
48	0x3f1e8bae	0.61931884
49	0x3f4f3b0b	0.8094947
50	0xbf310fa7	-0.6916451
51	0xbed2eda2	-0.41196924
52	0xbf4323b6	-0.76226366
53	0x3f6e6ede	0.9313792
54	0x3ef2eb40	0.47445107
55	0xbd9a2e46	-0.07528357
56	0xbf77d551	-0.9680987
57	0x3cba9825	0.022777626
58	0xbc8943b4	-0.016755916
59	0x3de280ff	0.1105976
60	0xba73d475	-0.0009301373
61	0x3d9a94dd	0.07547925
62	0x3bdaaf05	0.006673696
63	0xbef74bc7	-0.483

flows.1.layers.0.network.4.bias f4 [8]
0	0xbf10f2b0	-0.5662031
1	0xbe5c5cf8	-0.2151984
2	0x3e251346	0.16120633
3	0x3d24452b	0.040105026
4	0x3d84e175	0.06488315
5	0xbd00c98c	-0.03144221
6	0xbdc817fb	-0.09770199
7	0x3eb334ce	0.35001224

flows.1.layers.0.network.6.weight f4 [2, 8]
0	0x3de3da0a	0.11125572
1	0xbf2ed7de	-0.6829814
2	0x3e84fe7c	0.25975406
3	0xbe3b048b	-0.18263452
4	0xbe683f67	-0.22680436
5	0x3f64e7dc	0.8941629
6	0x3ed6a78a	0.41924697
7	0xbf8eafdc	-1.1147418
8	0x3e74ba45	0.23899181
9	0xbe606bd5	-0.21916135
10	0xbdd692e0	-0.10477233
11	0x3e087807	0.13327037
12	0x3dd9cbf8	0.10634607
13	0xbda08c11	-0.078392155
14	0xbe9b0578	-0.3027761
15	0x3ebd3cb1	0.36960366

flows.1.layers.0.network.6.bias f4 [2]
0	0xbb992229	-0.0046732617
1	0xbec35781	-0.38152698

flows.1.layers.1.network.0.weight f4 [8, 2]
0	0x3e0eefb2	0.13958624
1	0xbf44e960	-0.769186
2	0xbde56ce1	-0.11202408
3	0x3d9fb6d4	0.077985436
4	0x3ef190e0	0.47180843
5	0xbf744b37	-0.9542727
6	0x3ea94afd	0.33065024
7	0x3f83739f	1.026966
8	0x3bb0ddb5	0.0053975233
9	0x3f14470e	0.5792092
10	0xbba1d360	-0.004938528
11	0xc0300114	-2.7500658
12	0x3c7327f9	0.014841073
13	0x3e158370	0.1460092
14	0x3fd72abf	1.680992
15	0x3e270d67	0.16313706

flows.1.layers.1.network.0.bias f4 [8]
0	0x3e8b2ab3	0.27181014
1	0x3f807bcf	1.0037783
2	0x3f2b9100	0.6701813
3	0x3f0a8d9c	0.5412233
4	0xbde42190	-0.11139214
5	0xbebcd057	-0.368777
6	0xbece4124	-0.40284073
7	0x3f0a0748	0.5391736

flows.1.layers.1.network.2.weight f4 [8, 8]
0	0xbf34cbce	-0.7062348
1	0x3efbcbcb	0.4917892
2	0x3e48af5c	0.19598144
3	0xbe9ad73d	-0.3024234
4	0x3ea08f71	0.31359437
5	0xbeb5c68a	-0.35503036
6	0xbe32cabd	-0.17460151
7	0xbe3db01e	-0.18524215
8	0x3f012e42	0.5046121
9	0xbf322188	-0.69582415
10	0x3f1cd8d9	0.61268383
11	0x3f245217	0.6418776
12	0x3ea91668	0.33024907
13	0xbdebbf46	-0.11511092
14	0x3eb577e3	0.3544303
15	0x3e642ac7	0.22281943
16	0xbeaee367	-0.3415787
17	0xbf110cc1	-0.56660086
18	0xbf93dc58	-1.1551619
19	0x3d71272e	0.058875255
20	0x3df5daf8	0.120046556
21	0xbe43d4cc	-0.19124144
22	0x3f6ea19a	0.93215334
23	0xbfaadf83	-1.334946
24	0xbe24186a	-0.16024938
25	0xbee456a5	-0.44597355
26	0x3e59e720	0.21279573
27	0xbd3d35a1	-0.046193723
28	0xbd9ee55c	-0.077585906
29	0x3f256053	0.64600104
30	0x3fcc4a89	1.5960246
31	0xbf3fae1c	-0.74875045
32	0xbee804c1	-0.45316127
33	0xbef5dd13	-0.4802023
34	0x3e5f2446	0.21791181
35	0xbeb77802	-0.35833746
36	0x3eb2447b	0.3481787
37	0xbf1cc6aa	-0.6124064
38	0x3fa6c3f9	1.3028556
39	0xbf93bfe8	-1.154294
40	0xbf52543b	-0.82159775
41	0xbfaac173	-1.3340286
42	0xbf463891	-0.77430063
43	0x3c056bda	0.00814339
44	0x3f619468	0.88117075
45	0xbf0d2e41	-0.551487
46	0x3f6a4dda	0.9152504
47	0x3d5ad451	0.053425137
48	0xbe9a2bc3	-0.30111513
49	0x3cc7e828	0.024402693
50	0xbc447a13	-0.011991995
51	0xbf1b2874	-0.606086
52	0xbf87370a	-1.0563672
53	0x3fc403ca	1.5313656
54	0x3ed96c59	0.42465475
55	0x3eb2e861	0.34942916
56	0x3e7cb1a3	0.24677138
57	0x3f315494	0.6926968
58	0x3ed0d4d7	0.40787384
59	0x3ef8a174	0.4856068
60	0x3e440961	0.19144203
61	0xbe065c9d	-0.13121267
62	0xbf5864f8	-0.84529066
63	0x3f8b5964	1.0886655

flows.1.layers.1.network.2.bias f4 [8]
0	0x3e6d9ef1	0.23205163
1	0xbe08b1ae	-0.1334903
2	0x3e50d222	0.2039266
3	0x3dff4816	0.12464921
4	0x3eabee0b	0.3358005
5	0xbe4305f1	-0.19045235
6	0x3bd87506	0.006605747
7	0x3cf95465	0.03043575

flows.1.layers.1.network.4.weight f4 [8, 8]
0	0xbd53d30d	-0.051714946
1	0xbc8dec1c	-0.0173245
2	0xbf90f089	-1.1323406
3	0xbf9a4a7b	-1.205398
4	0xbf650137	-0.8945498
5	0xbe3351e8	-0.17511714
6	0x3e665ada	0.22495595
7	0x3f6e3bf4	0.9306023
8	0xbf4396fd	-0.76402265
9	0x3f89cdfb	1.0765985
10	0x3f092272	0.53568184
11	0x3e8bf2cd	0.2733368
12	0xbf98f6ae	-1.1950281
13	0xbed0b693	-0.40764293
14	0x3f6a9c63	0.9164488
15	0xbe486b58	-0.19572198
16	0x3dbc7c05	0.09203342
17	0x3e3f6275	0.18689902
18	0xbe2abf6f	-0.16674589
19	0x3eb6f843	0.35736284
20	0x3f976de6	1.1830413
21	0x3dad8e6f	0.08474433
22	0x3f1b6206	0.60696447
23	0xbb95b9ec	-0.0045692828
24	0x3eb094b4	0.3448845
25	0xbf27738d	-0.6541069
26	0x3ecd7b04	0.40132916
27	0x3ef0f503	0.4706193
28	0xbe447ee8	-0.19189036
29	0xbe00c808	-0.12576306
30	0x3f6fd0a3	0.9367773
31	0xbe0440a6	-0.12915286
32	0xbe354a10	-0.17704034
33	0xbee099e4	-0.4386741
34	0xbd7cb2a1	-0.06169379
35	0xc00c0ef4	-2.1884127
36	0xbec720b3	-0.38892135
37	0x3cb3d7d7	0.021953506
38	0xbf0e2f24	-0.5554068
39	0x3ec7ff47	0.3906195
40	0xbe1980e6	-0.14990577
41	0x3f728d59	0.9474693
42	0x3e95a82b	0.29229864
43	0xbe55ea89	-0.2089025
44	0xbf74f34c	-0.9568374
45	0xbed9e7de	-0.42559713
46	0x3e2dddbd	0.16979118
47	0xbec2c009	-0.38037136
48	0xbef83f35	-0.48485723
49	0x3e9f8bb7	0.3116128
50	0x3e6ffdf9	0.23436727
51	0xbe50bf60	-0.20385504
52	0xbee26dfa	-0.4422453
53	0xbf1e121f	-0.617464
54	0x3f2d2e51	0.676488
55	0x3e239ea0	0.1597848
56	0xbf4668c2	-0.775036
57	0x3f958cba	1.1683571
58	0x3da2bb28	0.079458535
59	0x3e07c660	0.13259268
60	0x3d8266c7	0.063672595
61	0x3fd98cb1	1.6996061
62	0xbf7057bb	-0.93883866
63	0x3f01bed2	0.50681794

flows.1.layers.1.network.4.bias f4 [8]
0	0x3d385b2f	0.045008834
1	0xbeb27266	-0.34852904
2	0x3e99c17a	0.30030423
3	0x3ecbb9ee	0.3979029
4	0x3e8893a8	0.26675153
5	0xbe23ad6b	-0.15984122
6	0xbe62403c	-0.22094816
7	0xbcd0f0f3	-0.025505519

flows.1.layers.1.network.6.weight f4 [2, 8]
0	0xbe1c2a5d	-0.15250535
1	0x3f4ac135	0.7920106
2	0xbf0cada3	-0.5495245
3	0xbf60fc55	-0.8788503
4	0x3e9d4582	0.30717093
5	0x3f4dd7b4	0.8040726
6	0x3e9ed550	0.3102212
7	0x40118955	2.274007
8	0x3f23377f	0.63756555
9	0x3e875941	0.26435283
10	0xbf4d0bec	-0.80096316
11	0xbf193ef0	-0.5986166
12	0x3eb52f6a	0.35387737
13	0x3ebdf2c1	0.3709927
14	0x3e65829d	0.22413106
15	0xbe7a711d	-0.24457212

flows.1.layers.1.network.6.bias f4 [2]
0	0xbee911c6	-0.45521373
1	0xbcdf5257	-0.027260942

flows.1.layers.2.network.0.weight f4 [8, 3]
0	0xbe0e04db	-0.1386904
1	0xbbfb6656	-0.0076721115
2	0xbeec0271	-0.46095613
3	0x3c8b0a21	0.016972603
4	0x3ed25dcd	0.4108719
5	0x4023b57d	2.5579522
6	0x3d107fee	0.035278253
7	0x3fd734ce	1.681299
8	0xbe1b3603	-0.15157323
9	0x3b82eeb4	0.003995741
10	0x3eb8b540	0.36075783
11	0x40278c75	2.6179478
12	0xbcec0436	-0.028810602
13	0xbfa28f73	-1.2700027
14	0x3f635276	0.887977
15	0x3badb194	0.00530071
16	0xbd3a7131	-0.045518104
17	0xc053843a	-3.3049455
18	0xbd46c4d2	-0.048527546
19	0x3e4d7e03	0.20067601
20	0x3e3ecfef	0.18634008
21	0x3c26581e	0.010152845
22	0x3eab7449	0.33487156
23	0xbffca1c8	-1.9736872

flows.1.layers.2.network.0.bias f4 [8]
0	0xbf0e241e	-0.5552386
1	0x3d16c7b1	0.036811534
2	0xc04556e4	-3.0834284
3	0xc00f5acf	-2.2399175
4	0xbf953a3c	-1.1658397
5	0xbf43875e	-0.7637843
6	0xbeb1a048	-0.34692597
7	0xbfd970b0	-1.6987514

flows.1.layers.2.network.2.weight f4 [8, 8]
0	0x3d9590f4	0.07303038
1	0xbf443eea	-0.766585
2	0xbeb211f9	-0.34779337
3	0xbf612501	-0.8794709
4	0xbf498bcf	-0.78728956
5	0x3ed129c6	0.40852183
6	0x3f77edde	0.9684733
7	0xbe344efa	-0.17608252
8	0xbf3a4407	-0.7276005
9	0x3fb7c135	1.4355837
10	0x3f594eae	0.8488568
11	0x3f199f6d	0.6000889
12	0x3f0a66fb	0.54063386
13	0x3f3d7571	0.74007326
14	0xc01db23d	-2.4640038
15	0x3e132b04	0.14371878
16	0xbf057fc8	-0.52148104
17	0x3fcd5b7b	1.6043543
18	0x3e73ec64	0.23820645
19	0xc012b2ef	-2.2921712
20	0x3ef2dcc4	0.47434056
21	0x3f08adae	0.53390014
22	0x3f537a29	0.82608277
23	0x3f72f4d1	0.9490481
24	0x3e6e017b	0.23242752
25	0xbf6a4286	-0.91507757
26	0x3ef4c948	0.47809815
27	0xbfb9bf0e	-1.451143
28	0x3e2b0376	0.16700539
29	0xbf229a1b	-0.63516396
30	0xbf9dbc41	-1.2323076
31	0x3fbeaffe	1.4897459
32	0xbe686864	-0.22696072
33	0x3f36d4d1	0.7141848
34	0xbf31fbc9	-0.6952482
35	0xbea8eef2	-0.329948
36	0x3efbca67	0.49177858
37	0xbf4e4db0	-0.8058729
38	0x3e6c41b2	0.23071936
39	0xbd8e4dae	-0.0694841
40	0x3f3333c3	0.7000086
41	0xbfd3a983	-1.6536106
42	0xbfb7b4cd	-1.4352051
43	0x3f2d6dff	0.67745966
44	0x3f52b63b	0.8230931
45	0xbf00c3fe	-0.5029906
46	0xbee6d813	-0.45086727
47	0xbf1a7801	-0.6033936
48	0xbe161c98	-0.14659345
49	0x3cd8c2cf	0.02646008
50	0xbf870d91	-1.0551015
51	0xbe505165	-0.2034355
52	0xbf318c73	-0.69354934
53	0xbf8fdab6	-1.123862
54	0x3e9841aa	0.29737598
55	0xbf3551ee	-0.7082814
56	0xbd43abef	-0.04777139
57	0x3ea9ba6a	0.33150035
58	0x3e0ce45c	0.13758987
59	0x3fc9588d	1.5730149
60	0x400033db	2.003165
61	0xbf0e4745	-0.555775
62	0xbf2d7c5c	-0.6776788
63	0x3f2d7cc7	0.6776852

flows.1.layers.2.network.2.bias f4 [8]
0	0x3f355b9b	0.70842904
1	0xbf134e51	-0.57541376
2	0xbf850ba5	-1.0394179
3	0x3ed6caec	0.41951692
4	0x3d581dfd	0.052762974
5	0xbc7ab005	-0.015300755
6	0x3ea03625	0.3129131
7	0xbe0afcb8	-0.13572967

flows.1.layers.2.network.4.weight f4 [8, 8]
0	0x3dd17628	0.10227615
1	0xbf2c00ae	-0.6718854
2	0xbe047809	-0.12936415
3	0x3f7e15c5	0.9925197
4	0x3eb0d922	0.3454066
5	0x3e126c12	0.14299038
6	0x3ff4cfd4	1.9125924
7	0xbf35464c	-0.7081039
8	0xbecbebba	-0.39828283
9	0x3f734593	0.95028037
10	0xbf5e6c19	-0.86883694
11	0x3f9313f2	1.1490462
12	0xbf546497	-0.8296599
13	0x3f9464f1	1.1593305
14	0xbe70e49a	-0.23524705
15	0x3f408544	0.7520335
16	0x3d0b5cf5	0.034024198
17	0xbcaac82a	-0.020847399
18	0x3f373eb3	0.71580046
19	0x3f561188	0.836205
20	0xbf868b08	-1.0511179
21	0x3f25c75c	0.64757323
22	0x3d49f11c	0.049302205
23	0xbfaf216e	-1.3682077
24	0x3fe9987a	1.8249657
25	0xbeb0d7d7	-0.34539673
26	0xbff14b87	-1.8851174
27	0xbdc736a3	-0.09727218
28	0xbe257aaa	-0.16160074
29	0x3fc58bbb	1.5433267
30	0x3ef1779d	0.4716157
31	0x3bd8f118	0.0066205375
32	0xbfa00424	-1.2501264
33	0x3f42c032	0.76074517
34	0x3ef62c1a	0.48080522
35	0x3f32958b	0.69759434
36	0x3e8d6557	0.2761638
37	0xbf20b7fc	-0.6278074
38	0xbf74844a	-0.9551436
39	0x3da1cb38	0.07900089
40	0xbf286a7f	-0.657875
41	0xbedf7683	-0.43645105
42	0x3e4a396b	0.19748466
43	0x3dfb6e73	0.12276926
44	0x3f874a11	1.0569478
45	0xbea54f25	-0.32286945
46	0x3f3d62c4	0.7397883
47	0xbf817fea	-1.0117161
48	0xbf222ceb	-0.6334979
49	0xbed1c79f	-0.4097261
50	0x3eebd871	0.4606357
51	0x3dd74f2f	0.1051315
52	0x3f2bdc68	0.6713319
53	0xbc9db397	-0.019250674
54	0x3dd66048	0.10467583
55	0x3f4e9b50	0.8070574
56	0xbed264d3	-0.41092548
57	0x3ea10147	0.31446287
58	0xbe1c8d04	-0.15288168
59	0xbe5eb10b	-0.21747224
60	0x3f436fb3	0.76342314
61	0xbf9f0405	-1.2423102
62	0xbdb4cd0f	-0.08828174
63	0x3f9c8e00	1.2230835

flows.1.layers.2.network.4.bias f4 [8]
0	0x3e946f97	0.28991386
1	0x3ea8d2c3	0.32973298
2	0x3e1e1a65	0.15439756
3	0x3e98d572	0.29850346
4	0xbf49104b	-0.78540486
5	0xbf0974dc	-0.5369394
6	0x3e4d4154	0.20044452
7	0x3da9d62c	0.08292803

flows.1.layers.2.network.6.weight f4 [2, 8]
0	0xbeba57f2	-0.36395222
1	0xbe894ed2	-0.26817948
2	0x3ea4eec0	0.32213402
3	0x3e90678f	0.2820401
4	0xbf0606e6	-0.52354276
5	0x3d37e607	0.044897106
6	0xbea03242	-0.31288344
7	0xbf157fc0	-0.58398056
8	0x3e6d0372	0.23145846
9	0xbf23d04b	-0.63989705
10	0xbf521b24	-0.82072663
11	0xbf157d99	-0.5839477
12	0xbce9b5eb	-0.028529128
13	0x3f8489b0	1.0354519
14	0x3e8730b4	0.26404345
15	0xbf7e2dc6	-0.99288595

flows.1.layers.2.network.6.bias f4 [2]
0	0x3c91f90b	0.017818948
1	0xbf209b33	-0.62736815

flows.2.initial_param f4 [2]
0	0xbf2ebd5c	-0.6825769
1	0xbf4d8c2f	-0.8029203

flows.2.layers.0.network.0.weight f4 [8, 1]
0	0x3dad504e	0.084625825
1	0xbfed10c3	-1.852074
2	0xbff5f29a	-1.9214661
3	0x3ef19bb8	0.47189116
4	0xbf86806a	-1.0507939
5	0xbdc5c4cd	-0.096566774
6	0xbe4793c0	-0.19489956
7	0xbf980ae2	-1.1878321

flows.2.layers.0.network.0.bias f4 [8]
0	0x3ddf05e5	0.10889796
1	0xbfcfdd4c	-1.623941
2	0xbfb9d0db	-1.4516863
3	0x3ee6e25c	0.45094573
4	0x3f9c7ae3	1.2225002
5	0x3f91e909	1.1399242
6	0xbdcb68a9	-0.09932072
7	0xbf29bec8	-0.66306734

flows.2.layers.0.network.2.weight f4 [8, 8]
0	0x3c826538	0.015917405
1	0x3dd9018c	0.10595998
2	0x3f1722b1	0.5903731
3	0xbd98db8f	-0.074637525
4	0x3eb01e17	0.34397957
5	0x3ea615f3	0.3243862
6	0xbd97a0db	-0.074037276
7	0xbe7ddde0	-0.2479167
8	0x3f6c2072	0.9223701
9	0xbe003d17	-0.12523304
10	0xbdc5f184	-0.09665206
11	0x3ebecf02	0.3726731
12	0x3f4096fb	0.7523038
13	0x3ef38e80	0.47569656
14	0xbf16f5b5	-0.5896867
15	0xbd9e86fd	-0.07740591
16	0xbe76cee5	-0.24102362
17	0x3f62bcdb	0.8856942
18	0x3fba4a46	1.4553916
19	0xbeea6f21	-0.4578791
20	0xbef2d180	-0.4742546
21	0x3e9937d6	0.29925412
22	0x3e18fcd4	0.14940196
23	0x3f3a76c6	0.72837484
24	0xbeaf201b	-0.34204182
25	0xbfeb4228	-1.8379564
26	0xbff9f1b1	-1.9526883
27	0x3f08dadd	0.5345896
28	0x3f303240	0.68826675
29	0xbe246885	-0.16055496
30	0xbd798413	-0.06091697
31	0xbf75616f	-0.95851797
32	0xbf116dbc	-0.56808066
33	0xbd875645	-0.066082515
34	0x3dbe6dc1	0.09298278
35	0xbd965411	-0.07340253
36	0xbf92838a	-1.1446393
37	0xbf2826f1	-0.6568442
38	0xbd8badc9	-0.06820256
39	0x3e5d171a	0.21590844
40	0x3cd09c8a	0.025465269
41	0xbe71261b	-0.23549692
42	0xbe3f29d5	-0.18668301
43	0xbf5be99f	-0.8590335
44	0xbea84580	-0.32865524
45	0xbea96155	-0.3308207
46	0x3efc9cf4	0.49338496
47	0xbdb2416d	-0.08703885
48	0xbe385683	-0.18001752
49	0xbf817ddf	-1.0116538
50	0xbf064e82	-0.52463543
51	0x3f6fae05	0.9362491
52	0x3f8d4cda	1.1039078
53	0xbe0df471	-0.13862778
54	0xbdf207a7	-0.11817866
55	0x3c6938e6	0.014234757
56	0xbe3733e4	-0.17890888
57	0xbf25c59c	-0.6475465
58	0xbf9f4a6e	-1.2444589
59	0xbdf1980a	-0.11796577
60	0x3e75fd5a	0.24022427
61	0xbef73d58	-0.4828899
62	0xbe2a019e	-0.1660218
63	0xbfa6ae62	-1.3021967

flows.2.layers.0.network.2.bias f4 [8]
0	0x3e90ce54	0.28282416
1	0x3f7aba17	0.979402
2	0x3e5a7a1c	0.21335644
3	0xbe04ed39	-0.12981118
4	0xbf1add90	-0.6049433
5	0xbeb5f2d2	-0.3553682
6	0xbcdc96fd	-0.026927466
7	0x3e5e146e	0.21687481

flows.2.layers.0.network.4.weight f4 [8, 8]
0	0xbec7d12f	-0.39026782
1	0x3ecce032	0.40014797
2	0xbe883500	-0.26602936
3	0x3fa46c76	1.28456
4	0xbeefd04c	-0.46838605
5	0xbf11b6c9	-0.56919533
6	0xbf1b1864	-0.6058409
7	0x3f1a92ef	0.6038045
8	0x3f228cf0	0.63496304
9	0x3f458f49	0.7717176
10	0xbe24bf24	-0.1608854
11	0xbec844c2	-0.39114958
12	0xbf520325	-0.8203605
13	0xbf8fb180	-1.1226044
14	0x3e9e98d7	0.30975983
15	0x3eb73c1d	0.3578805
16	0x3e0f6b2f	0.14005731
17	0x3d26db88	0.040736705
18	0xbfee931e	-1.8638647
19	0x3e33e067	0.17566071
20	0x3e2e201a	0.17004433
21	0xbe9bdddc	-0.30442703
22	0x3e0965cf	0.13417743
23	0x3eeee425	0.46658435
24	0x3f030144	0.51173806
25	0xbf375bab	-0.7162425
26	0x400c5a23	2.1930015
27	0xc0789c5a	-3.884543
28	0x3e67ba36	0.22629628
29	0xbe0614e7	-0.13093911
30	0x3e2f01dd	0.17090555
31	0xbfd6ca96	-1.6780574
32	0x3e685d70	0.22691894
33	0xbe451d14	-0.19249374
34	0x4032ec9b	2.7956913
35	0xc04fef23	-3.2489707
36	0x3ef66af9	0.4812849
37	0x3d70c07e	0.058777325
38	0xbf6116e9	-0.87925583
39	0xc042f968	-3.0464725
40	0x3f113e4c	0.5673568
41	0x3e9bad83	0.30405816
42	0x3eb4eaff	0.35335538
43	0x3f21d619	0.6321731
44	0x3e7911cc	0.24323195
45	0x3c1c727d	0.0095487805
46	0x3e829cc8	0.2551024
47	0x3e4c6dab	0.1996371
48	0x3edcdb43	0.43136033
49	0x3e89e180	0.26929855
50	0x3ea2d661	0.31804183
51	0x3f1a93fd	0.6038206
52	0xbf4f6ab6	-0.810222
53	0xbe8a9267	-0.2706482
54	0x3eddf215	0.43348756
55	0xbf183a72	-0.5946418
56	0xbef8adb8	-0.48570037
57	0x3c2fc156	0.010727247
58	0xbeb3702d	-0.3504652
59	0x3ebb8b97	0.36629936
60	0x3f278e7b	0.6545178
61	0x3eb6e328	0.3572018
62	0xbe9b9559	-0.3038738
63	0x3fa8f594	1.3199944

flows.2.layers.0.network.4.bias f4 [8]
0	0x3e66840d	0.22511311
1	0x3eba9ad2	0.36446244
2	0xbe8131ee	-0.25233406
3	0xbe23afe0	-0.1598506
4	0x3d550d15	0.05201443
5	0x3df1e6ec	0.11811623
6	0x3f24c465	0.64362174
7	0x3dd25040	0.10269213

flows.2.layers.0.network.6.weight f4 [2, 8]
0	0x3f18efc0	0.5974083
1	0x3f1626da	0.5865303
2	0x3e0d4158	0.13794458
3	0x3f17fa98	0.5936675
4	0x3ed0ca2e	0.4077925
5	0x3db6f523	0.08933475
6	0xbe1da864	-0.15396267
7	0x3f072b5f	0.52800554
8	0xbe968da6	-0.29404944
9	0xbec1f8ea	-0.3788522
10	0x3e856d84	0.26060116
11	0x3ea4d116	0.3219077
12	0xbe7bd490	-0.24592805
13	0x3da88ee9	0.08230383
14	0xbe5fffe7	-0.21874963
15	0xbdda4fda	-0.10659762

flows.2.layers.0.network.6.bias f4 [2]
0	0x3f26ffb1	0.65233904
1	0xbeaed115	-0.34143892

flows.2.layers.1.network.0.weight f4 [8, 2]
0	0x3f5263e4	0.8218367
1	0xbfe2c860	-1.77174
2	0x3f886b9e	1.0657842
3	0xbdda9325	-0.10672597
4	0x3f69b56d	0.9129246
5	0x3f97b484	1.1851964
6	0x3e8e5c90	0.27804995
7	0xbe1f4568	-0.1555382
8	0xbf4edfc2	-0.8081018
9	0x3d61f8ae	0.0551688
10	0x3e226c6e	0.15861675
11	0x3f8ec251	1.1153051
12	0x4067032c	3.6095686
13	0xbf247c7c	-0.6425245
14	0xbec465da	-0.38358957
15	0xbf795d2c	-0.97407794

flows.2.layers.1.network.0.bias f4 [8]
0	0xbcaa8bf0	-0.02081868
1	0x3ee27c72	0.4423557
2	0xbf31c062	-0.6943418
3	0xbe748f2e	-0.23882744
4	0x3f8f637c	1.1202235
5	0x3faa41e3	1.3301357
6	0xbefc7496	-0.49307698
7	0x3f4ca9f0	0.79946804

flows.2.layers.1.network.2.weight f4 [8, 8]
0	0x3e69118d	0.22760601
1	0xbf3c9694	-0.73667264
2	0xbf81f08e	-1.0151536
3	0x3ee23737	0.4418275
4	0x3d9a0cfe	0.07522009
5	0xbda4af5c	-0.0804126
6	0xbeb5483f	-0.35406682
7	0x3ef69b3d	0.48165312
8	0x3ec7e591	0.39042333
9	0x3ef464c7	0.47733137
10	0x3ff15cbe	1.8856428
11	0x3f8a84bb	1.0821756
12	0xbf96df4c	-1.1786895
13	0xbf1a073d	-0.60167295
14	0x3faaab0c	1.3333449
15	0xbea6aa3d	-0.32551757
16	0xbe11c609	-0.142357
17	0xbf0e49f3	-0.5558159
18	0xbdcc657f	-0.09980296
19	0x3ed7443c	0.42044246
20	0xbe7e87ec	-0.24856538
21	0x3ea27892	0.31732613
22	0xbe71b33f	-0.23603533
23	0xbecf58b5	-0.40497366
24	0x3e171e0f	0.1475756
25	0x3ddb0131	0.106935866
26	0xbeaad846	-0.3336813
27	0xbe04cf43	-0.12969689
28	0x3e7e6855	0.24844487
29	0x3f6313f7	0.8870234
30	0x3dc4a483	0.096016906
31	0x3f81a3b6	1.0128086
32	0xbf15ac1f	-0.5846576
33	0x3f8bbcdc	1.091701
34	0x3d0e515d	0.034745563
35	0x3eeeeea9	0.46666458
36	0xbe064c19	-0.13114966
37	0x3e99413d	0.29932585
38	0xbeeff214	-0.46864378
39	0x3de52b5c	0.11189911
40	0x3f22a10e	0.63527
41	0x3e96ed3d	0.29477873
42	0xbf9e7578	-1.2379599
43	0x3f6f7c9a	0.935495
44	0x3e900776	0.28130692
45	0xbf283840	-0.6571083
46	0x3e926ae5	0.2859718
47	0x40100f0b	2.2509181
48	0xbf1810bb	-0.5940053
49	0x4014857b	2.320647
50	0xbdb8c20a	-0.09021385
51	0xbeb5f121	-0.3553553
52	0x3f23b2a1	0.6394444
53	0x4003e65a	2.0609345
54	0x3e83bf21	0.25731757
55	0x3e75fab4	0.24021417
56	0xbeddae4b	-0.43297037
57	0xbf0656af	-0.5247602
58	0x3f7d71a2	0.99001515
59	0x3eca85f8	0.39555335
60	0xbf8498fd	-1.0359188
61	0xbf977110	-1.1831379
62	0x3f3e0849	0.7423139
63	0xbf44af37	-0.76829857

flows.2.layers.1.network.2.bias f4 [8]
0	0x3bc30d51	0.005952515
1	0xbd5a35da	-0.053274013
2	0xbede6029	-0.4343274
3	0x3f57a219	0.84231716
4	0xbdbd02f0	-0.09229076
5	0x3e97ce1c	0.29649436
6	0x3f09a676	0.53769624
7	0xbeef01b6	-0.46680993

flows.2.layers.1.network.4.weight f4 [8, 8]
0	0xbf1b6ba1	-0.60711104
1	0xbeb0ca6b	-0.34529433
2	0x3e0fc3f6	0.14039597
3	0x3ccacb1e	0.024755057
4	0xbf51c006	-0.8193363
5	0xbf52bba1	-0.8231755
6	0x3e8ac17d	0.27100745
7	0xbf067900	-0.5252838
8	0xbe88a144	-0.26685536
9	0x3ee75380	0.45180893
10	0x3f00e494	0.5034878
11	0xbf6ce321	-0.9253407
12	0x3f4c93f6	0.7991327
13	0xbf6f0156	-0.93361413
14	0xbdaa6f93	-0.08322062
15	0xbe368426	-0.17823848
16	0xbe7ef6c5	-0.24898823
17	0xbf07d24e	-0.53055274
18	0x3e448f34	0.19195253
19	0x3ecda86f	0.40167567
20	0xbeea3534	-0.45743716
21	0xbe9eb2f0	-0.30995893
22	0x3f2dfbf9	0.67962605
23	0xbf83e639	-1.0304633
24	0x3e4647a7	0.1936327
25	0x3ea8d262	0.3297301
26	0xbe8195cf	-0.25309607
27	0xbeda918f	-0.42689177
28	0x3f1b55d7	0.60677856
29	0x3f30b323	0.6902334
30	0xbea71afc	-0.32637775
31	0x3e410100	0.18848038
32	0x3d05029a	0.032473184
33	0x3e6bf48a	0.23042503
34	0xbe5de101	-0.21667863
35	0xbddd82f5	-0.10815994
36	0xbf9301f6	-1.1484973
37	0xbc4e52c8	-0.012592979
38	0xbc9446ca	-0.018100161
39	0xbcc6ab20	-0.02425152
40	0xbf4f00a5	-0.8086036
41	0xbe6480f6	-0.2231482
42	0xbda55db6	-0.080745146
43	0x3d814652	0.06312241
44	0xbf99019d	-1.1953617
45	0x3eb11c52	0.3459192
46	0xbd942813	-0.07234206
47	0xbe824c78	-0.25448966
48	0xbe986986	-0.29768008
49	0xbf48b36a	-0.78398764
50	0xbe5270d5	-0.20550855
51	0x3eb55494	0.3541609
52	0xbee82fe2	-0.45349032
53	0x3e3dbe7c	0.18529695
54	0x3ef6078c	0.48052633
55	0xbf82b57c	-1.0211635
56	0x3ed3833d	0.41311064
57	0x3d8a39f3	0.06749334
58	0x3e072fcf	0.13201831
59	0x3bbcdea2	0.0057638446
60	0xbf8e18a8	-1.1101274
61	0xbebbccf0	-0.36679792
62	0x3d5ef0a9	0.05442873
63	0xbedd69da	-0.4324482

flows.2.layers.1.network.4.bias f4 [8]
0	0xbe179315	-0.14802201
1	0x3c7722c4	0.015083972
2	0x3dfcc7a9	0.1234277
3	0x3e430df5	0.19048293
4	0xbed36dab	-0.41294608
5	0xbebbedc7	-0.36704847
6	0x3bb4ccbd	0.005517571
7	0xbeeca8a2	-0.46222407

flows.2.layers.1.network.6.weight f4 [2, 8]
0	0x3f4e5fab	0.8061473
1	0x3d2cd2eb	0.042193335
2	0x3f5ee1e0	0.8706341
3	0xbed37c1e	-0.4130563
4	0x3ea03a23	0.31294355
5	0x3eec5aa9	0.46162918
6	0x3f806bc2	1.0032885
7	0x3ee6f472	0.45108372
8	0xbeb0b047	-0.3450949
9	0xbf1cfa78	-0.61319685
10	0xbe831aba	-0.25606328
11	0x3ec2287c	0.37921512
12	0x3f0b3d8f	0.54390806
13	0x3f088cae	0.5333966
14	0x3e9d615e	0.30738348
15	0x3e5695a3	0.2095552

flows.2.layers.1.network.6.bias f4 [2]
0	0x3e77c8f2	0.24197748
1	0xbf20f483	-0.62873095

flows.2.layers.2.network.0.weight f4 [8, 3]
0	0x3e2f2733	0.17104797
1	0x3ee8323d	0.4535083
2	0x3e54034f	0.20704387
3	0x3f13334b	0.5750014
4	0x3deca8eb	0.11555656
5	0xbed44669	-0.4145997
6	0x3ecc6b5b	0.39925656
7	0xbee072ea	-0.43837672
8	0x3e97d35e	0.29653448
9	0xbfb12d2b	-1.3841909
10	0x3dc088af	0.0940107
11	0x3f71f398	0.9451232
12	0xbec635e8	-0.38713002
13	0x3eed4a81	0.46345904
14	0x3fd24de5	1.6430022
15	0x3d642b37	0.055705275
16	0x3e3fe5a0	0.18739939
17	0xbf650dab	-0.8947398
18	0xbe7ec9fa	-0.24881735
19	0xc010dc25	-2.2634366
20	0xbe136265	-0.14393003
21	0xbea5692f	-0.3230681
22	0x3e4e06a2	0.20119718
23	0x3f4d077f	0.80089563

flows.2.layers.2.network.0.bias f4 [8]
0	0xbeea1f3e	-0.4572696
1	0x3ef94414	0.48684752
2	0xbead2103	-0.33814248
3	0xbeee13e4	-0.4649955
4	0x3f115853	0.567754
5	0xbf9dc8ed	-1.2326943
6	0xbea983de	-0.3310842
7	0xbdaf4386	-0.08557801

flows.2.layers.2.network.2.weight f4 [8, 8]
0	0x3da5b4c1	0.08091117
1	0xbea0ebe7	-0.3142998
2	0xbdd565ca	-0.10419805
3	0x3dfd76d5	0.12376181
4	0x3f0ea3fe	0.5571898
5	0xbf057454	-0.5213063
6	0xbe30b6b4	-0.17257196
7	0x3e8be8c7	0.27326033
8	0x3ed22008	0.41040063
9	0x3ecb0b8f	0.39657256
10	0x3ec340a2	0.38135248
11	0xbea5fb33	-0.32418212
12	0xbe57c8fb	-0.21072762
13	0x3cda52ab	0.026650747
14	0x3f45f069	0.7731996
15	0xbeaf5cac	-0.3425039
16	0xbecf9223	-0.4054118
17	0x3e9d60f0	0.3073802
18	0xbf8030b8	-1.0014868
19	0x3d2e1574	0.042500928
20	0xbea96ca1	-0.3309069
21	0xbdc9f544	-0.09861234
22	0xbf86dd5f	-1.0536307
23	0xbed65c2d	-0.418672
24	0x3f71da28	0.94473505
25	0xbeb42ac3	-0.35188875
26	0xbd80d438	-0.062904775
27	0x3edd1a58	0.4318416
28	0x3dfd62f3	0.12372389
29	0x3f2518f7	0.6449122
30	0xbe96c6b9	-0.29448488
31	0x3dd7490e	0.10511981
32	0x3f2767e6	0.6539291
33	0x3e00dac7	0.12583457
34	0x3d38d20e	0.0451222
35	0xbe933b38	-0.28756118
36	0x3e579986	0.21054658
37	0x3ea9f188	0.33192086
38	0xbe66c201	-0.22534944
39	0x3d64fad6	0.05590328
40	0x3ecbacf8	0.39780402
41	0x3d9c8fc2	0.07644607
42	0xbeeedc11	-0.46652272
43	0xbf04d223	-0.51883143
44	0xbed4bac8	-0.41548753
45	0x3f6aa937	0.9166445
46	0x3e76e024	0.2410894
47	0xbef4ab74	-0.47787058
48	0x3e9722ff	0.29518887
49	0x3f017234	0.50564885
50	0xbe87ef23	-0.26549634
51	0x3b6013c1	0.0034191462
52	0xbee5b547	-0.44864866
53	0x3dbf2db7	0.09334891
54	0xbf5c34cf	-0.8601808
55	0xbf0268bc	-0.5094106
56	0x3fb145e1	1.384945
57	0x3eb9040a	0.36135894
58	0xbe9b8203	-0.3037263
59	0xbebe4ea8	-0.37169385
60	0xbdb23568	-0.08701593
61	0x3e03719e	0.1283631
62	0xbebfe1cf	-0.37476966
63	0xbd75582c	-0.05989854

flows.2.layers.2.network.2.bias f4 [8]
0	0x3d87e692	0.06635775
1	0xbe57feab	-0.21093242
2	0x3e939c54	0.28830206
3	0x3d446025	0.047943253
4	0xbddfc309	-0.10925872
5	0xbed2e49f	-0.4119005
6	0x3d949c61	0.072563894
7	0xbd8270ba	-0.06369157

flows.2.layers.2.network.4.weight f4 [8, 8]
0	0x3e07f609	0.13277449
1	0xbe21d7ae	-0.15804932
2	0xbf4577ce	-0.7713593
3	0xbed28d90	-0.4112363
4	0xbebbc201	-0.3667145
5	0xbe89cff1	-0.2691646
6	0x3d36d749	0.044638906
7	0xbe13cca3	-0.14433531
8	0xbed5bbe9	-0.41744927
9	0x3f127fa5	0.5722602
10	0x3e474d9e	0.19463202
11	0xbda197d8	-0.0789029
12	0xbeb6f8e7	-0.35736772
13	0x3f11a679	0.5689464
14	0x3e8393ff	0.2569885
15	0xbefbe210	-0.4919591
16	0xbe0e57de	-0.13900706
17	0xbe449f95	-0.192015
18	0xbefa438c	-0.4887966
19	0xbe71b3d2	-0.23603752
20	0x3e20e180	0.15711021
21	0xbd0a3d59	-0.033749912
22	0xbea3f8c2	-0.32025725
23	0xbd947b88	-0.07250124
24	0xbe9b3c66	-0.30319518
25	0x3a9d0ed7	0.0011982572
26	0xbfa0fdb7	-1.2577428
27	0xbcaf7d8b	-0.021422168
28	0x3e45c737	0.19314276
29	0xbe44210a	-0.19153228
30	0xbf30f97f	-0.691307
31	0xbde59c18	-0.11211413
32	0x3e2e31f4	0.17011243
33	0xbedc96f4	-0.43083918
34	0x3e9a554d	0.30143204
35	0x3f23a3fd	0.639221
36	0x3e98e6df	0.2986364
37	0x3ed2bcb3	0.4115959
38	0x3ea5aa6f	0.32356593
39	0x3ee39353	0.44448337
40	0x3dd243ae	0.10266815
41	0x3cf62b71	0.030050011
42	0xbf2b7779	-0.66979176
43	0xbee34020	-0.4438486
44	0x3e48ac9f	0.195971
45	0xbdf99e24	-0.12188366
46	0xbf283356	-0.6570333
47	0x3baff24e	0.005369461
48	0x3e055809	0.13021864
49	0x3dd18d37	0.10232013
50	0xbd9b0826	-0.075699136
51	0xbb023e95	-0.0019873728
52	0xbe0ebc97	-0.13939129
53	0xbef316c1	-0.47478297
54	0xbec5f7a7	-0.38665506
55	0xbf3bcefe	-0.7336272
56	0x3ec5aa29	0.38606384
57	0xbe731610	-0.23738885
58	0xbe974382	-0.29543692
59	0xbde9bbf4	-0.11412802
60	0xbe6818b7	-0.22665678
61	0xbf029fc5	-0.5102504
62	0x3c68a1eb	0.0141987605
63	0x3e35eff1	0.17767312

flows.2.layers.2.network.4.bias f4 [8]
0	0xbeca202b	-0.39477667
1	0xbd619f57	-0.0550836
2	0x3e565b57	0.20933281
3	0xbe21a67d	-0.15786166
4	0x3dbb12c4	0.09134439
5	0xbf1168e5	-0.5680068
6	0x3e43b98b	0.19113748
7	0xbd878297	-0.06616705

flows.2.layers.2.network.6.weight f4 [2, 8]
0	0xbd0e342a	-0.034717716
1	0xbeb9bcba	-0.362768
2	0xbd6ea79b	-0.05826531
3	0x3dcd3bae	0.100211486
4	0xbc1e7389	-0.0096711
5	0x3e2e68cc	0.17032164
6	0x3e8036f4	0.25041926
7	0x3ea1b03e	0.31579775
8	0x3f4f2408	0.80914354
9	0xbe7bbd70	-0.24583983
10	0x3f098cb8	0.53730345
11	0x3fb15465	1.385388
12	0xbf787098	-0.97046804
13	0x3fa478dc	1.2849383
14	0x3ef4d464	0.4781829
15	0x3ec8df2c	0.39232767

flows.2.layers.2.network.6.bias f4 [2]
0	0x3e9f137b	0.3106955
1	0xbf45a717	-0.77208084

flows.3.initial_param f4 [2]
0	0x3fa7700e	1.3081071
1	0xbf17119c	-0.59011245

flows.3.layers.0.network.0.weight f4 [8, 1]
0	0xbf037ff0	-0.5136709
1	0x3f0ba9f1	0.54556185
2	0xbf4a2bbf	-0.78973
3	0xbfc38b74	-1.5276933
4	0xbfc7bb78	-1.5604086
5	0xbf099e7a	-0.5375744
6	0xbf4151b2	-0.7551528
7	0x3ec8d39f	0.39223954

flows.3.layers.0.network.0.bias f4 [8]
0	0xbf87811f	-1.058628
1	0x3eb8e14b	0.36109385
2	0x3f57771e	0.84166133
3	0xbf1630a9	-0.58668
4	0x3f366556	0.71248376
5	0xbf10d207	-0.56570476
6	0x3f996e07	1.1986703
7	0x3fa43f79	1.283187

flows.3.layers.0.network.2.weight f4 [8, 8]
0	0xbed5a76d	-0.41729298
1	0x3f173d31	0.59077746
2	0xbe906db8	-0.2820871
3	0x3bdb3b6c	0.0066904332
4	0x3f0ada72	0.5423957
5	0xbf371dfd	-0.71530133
6	0x3e963575	0.2933766
7	0x3eeeb0db	0.46619305
8	0xbe9f824b	-0.31154093
9	0xbdf4cc0c	-0.11952981
10	0x3fa9c56a	1.3263371
11	0xbec67e4e	-0.38768238
12	0xbe10edbd	-0.1415319
13	0x3bd6cf1d	0.0065554515
14	0x3ff5cda4	1.9203382
15	0x3e884afd	0.26619712
16	0x3cb226d9	0.02174704
17	0xbe90b9d4	-0.28266776
18	0x3fd82976	1.6887653
19	0xbdf5e257	-0.120060615
20	0x3f803382	1.0015719
21	0x3e990f15	0.2989432
22	0x3f9b518b	1.213426
23	0xbef4e560	-0.4783125
24	0x3eec0a68	0.4610169
25	0xbe4f72e5	-0.20258673
26	0x3c9ca623	0.019122189
27	0xbdb3cade	-0.08778928
28	0xbef48d7a	-0.47764188
29	0x3e316945	0.17325313
30	0x3ef77cc5	0.4833738
31	0xbef1633c	-0.47146022
32	0x3efbb377	0.49160358
33	0xbf38de2a	-0.72213995
34	0x3db09875	0.08622829
35	0x3f3b6e22	0.73214924
36	0x3fad74f6	1.3551319
37	0x3f356db3	0.7087051
38	0x3e13898d	0.1440794
39	0xbe97c54e	-0.2964272
40	0x3eaa692a	0.3328336
41	0xbe60738b	-0.21919076
42	0xbe57521c	-0.21027416
43	0x3e642176	0.2227839
44	0xbeeebbab	-0.46627554
45	0x3eda7338	0.4266603
46	0xbf031a31	-0.5121184
47	0xbeb6e65c	-0.35722625
48	0x3f03f94f	0.5155229
49	0xbf3f041f	-0.74615663
50	0xbd10977b	-0.035300713
51	0x3e1a6cb0	0.15080523
52	0xbdf33f4e	-0.11877309
53	0x3f016221	0.5054036
54	0xbe279ae0	-0.16367674
55	0xbe4b9a2a	-0.19883028
56	0xbecc8d25	-0.39951435
57	0x3ef85815	0.485047
58	0x3f379f58	0.71727514
59	0xbf2a5c2e	-0.66546905
60	0xbe9dd56f	-0.308269
61	0xbf43073d	-0.7618292
62	0x3f0edd69	0.55806595
63	0x3f3b2d36	0.7311586

flows.3.layers.0.network.2.bias f4 [8]
0	0x3ec9467e	0.39311594
1	0x3e9ddac1	0.30830958
2	0xbed65b43	-0.41866502
3	0xbebbe1bc	-0.3669566
4	0x3d31efa1	0.04344142
5	0xbf03cf39	-0.5148807
6	0xbedf870a	-0.43657714
7	0x3f5ad610	0.85482883

flows.3.layers.0.network.4.weight f4 [8, 8]
0	0x3e18da76	0.14927086
1	0xbf0c5e21	-0.5483113
2	0x3e890a63	0.26765737
3	0xbdb59f30	-0.08868253
4	0xbeddcddd	-0.43321124
5	0x3d8d6196	0.06903379
6	0xbdcc6ced	-0.099817134
7	0x3f050e2a	0.5197474
8	0xbf92b2bc	-1.1460795
9	0xbeddfb5b	-0.43355832
10	0x3d33d350	0.043902695
11	0x3f8dea85	1.1087195
12	0x3f0159ca	0.5052763
13	0x3f47b953	0.7801716
14	0x3d996d20	0.07491517
15	0xbdb932ca	-0.0904289
16	0x3e2997a4	0.16561753
17	0xbf7e9f90	-0.99462223
18	0x3f31a0a8	0.69385767
19	0xbdfc0876	-0.12306301
20	0xbe4d6ddc	-0.2006144
21	0x3f159c7f	0.5844192
22	0xbccaa256	-0.024735611
23	0x3f1dce5a	0.6164299
24	0xbe3e7046	-0.18597516
25	0x3e889a94	0.26680434
26	0xbdfae4f1	-0.12250698
27	0x3e22c6bf	0.15896128
28	0x3e9dbf48	0.3081
29	0x3e9807c3	0.29693422
30	0x3edb6d86	0.42856997
31	0xbe197146	-0.14984617
32	0xbea1afe7	-0.31579515
33	0x3e6f22c0	0.233531
34	0xbe260d29	-0.16215958
35	0x3ea7d241	0.32777599
36	0x3e692ac5	0.22770222
37	0x3ec5e7eb	0.38653502
38	0x3e464647	0.19362746
39	0xbf070ff6	-0.5275873
40	0xbf1d586e	-0.6146306
41	0x3ea2a5b4	0.31767046
42	0xbdf5a466	-0.11994247
43	0x3f07ee30	0.5309782
44	0x3ee4e068	0.44702458
45	0x3efe765e	0.49699682
46	0x3efa4be8	0.48886037
47	0x3bc3a9be	0.0059711626
48	0x3f121eba	0.57078135
49	0xbeb634d9	-0.35587195
50	0x3ebd6323	0.36989698
51	0xbed429f6	-0.41438264
52	0xbeffdee1	-0.4997473
53	0xbe38aa28	-0.1803366
54	0xbd9f68ec	-0.07783684
55	0x3e48d38a	0.19611946
56	0xbe8adfed	-0.27123967
57	0xbf8781ce	-1.0586488
58	0x3e965046	0.2935812
59	0x3e9017bd	0.2814311
60	0xbf3d0fca	-0.7385222
61	0x3e25b45b	0.16182081
62	0xbe2ec3a5	-0.1706682
63	0xbd9c41f0	-0.07629764

flows.3.layers.0.network.4.bias f4 [8]
0	0xbe81a4d8	-0.25321078
1	0xbf4007e5	-0.75012046
2	0x3d94e9ed	0.0727118
3	0xbf1d0bb0	-0.6134596
4	0xbd47ee2b	-0.04881112
5	0xbe9dd7f3	-0.3082882
6	0x3e7d4743	0.24734215
7	0x3e8eed43	0.2791539

flows.3.layers.0.network.6.weight f4 [2, 8]
0	0x3ddbb183	0.10727217
1	0xbf8918db	-1.071071
2	0x3f2d47d5	0.6768773
3	0xbedb5c70	-0.42843962
4	0xbe87fa15	-0.26557985
5	0xbf3bdd4b	-0.7338454
6	0x3f42d45a	0.7610527
7	0x3f363e36	0.71188676
8	0x3dbe1269	0.09280855
9	0x3dddb197	0.10824888
10	0x3d69291e	0.056923978
11	0xbe364195	-0.17798455
12	0xbdec039d	-0.11524127
13	0xbe7d5938	-0.24741066
14	0x3e4a5ed0	0.1976273
15	0x3ecd4850	0.40094233

flows.3.layers.0.network.6.bias f4 [2]
0	0x3f5dad9e	0.86593044
1	0xbe6b428e	-0.22974607

flows.3.layers.1.network.0.weight f4 [8, 2]
0	0xbfa45774	-1.2839189
1	0x3ea7b8b9	0.3275812
2	0xbfa4c8a0	-1.2873726
3	0x3f19fbcd	0.6014984
4	0x3f9de036	1.2334049
5	0x3e167248	0.14692032
6	0x3f89b8b0	1.0759487
7	0xbf43fadf	-0.76554674
8	0x3fa5f65b	1.2965807
9	0x3e463cfb	0.193592
10	0x3f81e694	1.0148492
11	0x3e79bef7	0.24389254
12	0xbf1a442c	-0.6026027
13	0xbecf36bc	-0.40471447
14	0x3ea6b1b2	0.32557446
15	0x3f389bc0	0.72112656

flows.3.layers.1.network.0.bias f4 [8]
0	0x3f0d9b39	0.55314976
1	0xbfabad87	-1.3412331
2	0xbfcd8bd2	-1.6058295
3	0xbf94e56b	-1.1632513
4	0xbda30a1f	-0.07960915
5	0xbeb2ba5d	-0.3490781
6	0x3fa52619	1.2902251
7	0xbf7eec39	-0.995792

flows.3.layers.1.network.2.weight f4 [8, 8]
0	0xbea355d4	-0.3190142
1	0x3e8f58b1	0.27997354
2	0x3f2e917a	0.6819073
3	0x3f5b1304	0.8557589
4	0xbfc44190	-1.5332508
5	0xc00be44c	-2.1858091
6	0x3f267c60	0.6503353
7	0xbf25abf0	-0.6471548
8	0xbe8d1b54	-0.27559912
9	0x3f94579a	1.1589234
10	0x40642190	3.5645485
11	0x3f1b0339	0.6055179
12	0x3ee14e3d	0.44005004
13	0x3eb3f4d4	0.35147727
14	0xc0090bf4	-2.1413546
15	0x3f5fc993	0.8741695
16	0xbe649175	-0.22321112
17	0x3fc849a4	1.5647473
18	0x3fefa74d	1.8722931
19	0xbf47466c	-0.7784183
20	0xbe6d0db5	-0.2314976
21	0xbd245251	-0.040117566
22	0xbf04a50b	-0.51814336
23	0xbf20e58a	-0.6285025
24	0x3f4ce91b	0.8004319
25	0xbea18ce4	-0.31552804
26	0xbf41aa20	-0.75650215
27	0xbe220ac7	-0.15824424
28	0xbfa7a4ad	-1.309713
29	0xbf95f144	-1.1714253
30	0x3fc05571	1.5026075
31	0xbe754cf0	-0.2395513
32	0x3feac74e	1.8342073
33	0x4002cd79	2.043791
34	0x3ebb3163	0.36561117
35	0x3fc1d7f0	1.5144024
36	0xbf7062b8	-0.9390063
37	0xbf1bf0e7	-0.6091446
38	0xbf15cbd2	-0.5851413
39	0xbe2e58a9	-0.17026009
40	0xbeb65ac5	-0.35616127
41	0xbe169555	-0.14705403
42	0x3f800402	1.0001223
43	0x3dc87bd9	0.09789247
44	0x3ed26507	0.41092703
45	0x3dbf97ca	0.09355123
46	0xbe560a3a	-0.20902339
47	0xbe600692	-0.21877506
48	0xbeac01e4	-0.33595192
49	0xbebe2906	-0.37140673
50	0xbeb193cb	-0.3468307
51	0xbeb5ea56	-0.35530347
52	0x3f7ce4e1	0.9878674
53	0x3f096ae3	0.5367872
54	0xbe76df77	-0.24108683
55	0x3f0e3cf1	0.5556174
56	0xbf07f833	-0.53113097
57	0xbf5a2a89	-0.85221153
58	0xbea95422	-0.33072
59	0xbe858799	-0.26080015
60	0xbf25212f	-0.6450376
61	0xbedbcd07	-0.4292986
62	0x3fc2385e	1.5173452
63	0xbfb06a55	-1.378245

flows.3.layers.1.network.2.bias f4 [8]
0	0xbf41e9ca	-0.7574736
1	0xbe51c51b	-0.20485346
2	0x3ebe72a6	0.37196845
3	0xbf2e2771	-0.6802893
4	0xbef854af	-0.48502108
5	0x3efde46a	0.4958833
6	0x3fa11a2e	1.2586114
7	0x3de436cd	0.11143265
