data/models/MAF_front_cut_in_with_two_npcs_best.pth (torch, 76731 bytes, 165 tensors)

flows.0.initial_param f4 [2]
0.080799766 -0.120454326
00000000: 597a a53d c2b0 f6bd

flows.0.layers.0.network.0.weight f4 [8, 1]
0.01052387 2.1656327 -0.4787794 -0.5107272 -0.7842247 0.63272095 -0.06861199 0.6112654
00000000: 4f6c 2c3c ba99 0a40 9322 f5be 05bf 02bf
00000010: f3c2 48bf 00fa 213f 7184 8cbd e47b 1c3f

flows.0.layers.0.network.0.bias f4 [8]
-0.0017315706 0.01513255 -0.0906214 -0.024697233 -0.8506915 -0.31916898 0.0016897189 -0.15954538
00000000: def5 e2ba 84ee 773c b697 b9bd da51 cabc
00000010: ebc6 59bf 1e6a a3be 8f79 dd3a dd5f 23be

flows.0.layers.0.network.2.weight f4 [8, 8]
-0.0114347655 0.14346647 -0.3025845 -0.3002542 0.09988328 0.48830628 0.09456422 0.5998342
-0.09904751 -0.21524706 0.34249058 -0.34968597 -0.08635947 0.16364321 0.24332634 0.34287682
-0.03635617 -0.34890312 -0.15912956 -0.2807581 -0.20513506 0.35813263 0.19718271 0.14863999
0.07394434 -0.12055788 0.14703117 -0.20148818 -0.32869017 -0.2896877 0.15748334 0.042840365
-0.054204646 0.06403712 0.34315783 0.5037199 0.2819165 -0.049849857 0.1425264 -0.3960507
0.043584183 -0.17954949 -0.2524356 -0.15664679 0.12455611 0.06091134 -0.20385486 0.012524132
0.16217901 0.10521894 -0.01510701 0.12402965 0.18261771 0.17463957 -0.38327312 -0.28727508
0.067877874 0.4348218 0.43507218 0.5287425 0.19222221 -0.44267273 -0.020546848 -0.5227393
00000000: e258 3bbc e0e8 123e 5bec 9abe ebba 99be
00000010: 9b8f cc3d 4803 fa3e e3aa c13d bc8e 193f
00000020: 6cd9 cabd ba69 5cbe ed5a af3e 0a0a b3be
00000030: 3cdd b0bd 1692 273e 8a2a 793e 8d8d af3e
00000040: 35ea 14bd 6ea3 b2be dcf2 22be 87bf 8fbe
00000050: ed0e 52be 295d b73e 44ea 493e 1535 183e
00000060: 2170 973d 0de7 f6bd 578f 163e eb52 4ebe
00000070: 144a a8be f251 94be 5043 213e 6179 2f3d
00000080: b105 5ebd e525 833d 62b2 af3e caf3 003f
00000090: 5c57 903e 5d2f 4cbd 71f2 113e 28c7 cabe
000000a0: 5485 323d d2db 37be 3d3f 81be 0468 20be
000000b0: 4617 ff3d 2b7e 793d 54bf 50be 0432 4d3c
000000c0: 4112 263e 077d d73d 6483 77bc 4203 fe3d
000000d0: 2300 3b3e b7d4 323e 603c c4be b815 93be
000000e0: 8e03 8b3d f7a0 de3e c8c1 de3e ab5b 073f
000000f0: e6d5 443e 00a6 e2be dd51 a8bc 3ed2 05bf

flows.0.layers.0.network.2.bias f4 [8]
-0.34827498 0.04144101 0.13212532 -0.26584595 0.07371399 0.06191536 0.13594848 -0.13354963
00000000: 1951 b2be 0cbe 293d dc4b 073e f61c 88be
00000010: 5cf7 963d f69a 7d3d 1436 0b3e 3cc1 08be

flows.0.layers.0.network.4.weight f4 [8, 8]
0.10178765 0.15296459 0.027367912 -0.29532564 0.3087866 0.19453236 -0.32679063 -0.11354765
0.14037412 -0.20164566 -0.24155414 0.20578289 0.26120853 0.044793334 -0.31491846 -0.25344527
0.024434648 -0.033887144 -0.1920521 0.0013762244 -0.11993532 -0.0063159824 -0.28243122 0.10849423
-0.27364412 0.15915507 0.24348058 -0.51847446 -0.1678901 -0.23484938 0.036021486 0.05715244
0.39022142 0.04828538 -0.053075273 0.1596805 -0.4549879 -0.027018862 0.0936133 -0.33264402
-0.18517931 -0.20862159 0.06853046 -0.070085704 -0.25205186 -0.0034363542 0.4077383 0.016596792
-0.2454766 -0.103508264 -0.033267472 0.13459927 0.46850586 -0.061784502 0.15093818 0.19133648
-0.22964549 -0.1415294 0.23845923 -0.050754566 -0.17391154 -0.025405018 -0.05964055 -0.3031009
00000000: 0b76 d03d c0a2 1c3e ac32 e03c ec34 97be
00000010: 4719 9e3e 7e33 473e 1a51 a7be ac8b e8bd
00000020: 3cbe 0f3e 337c 4ebe f859 77be c0b8 523e
00000030: 20bd 853e 3779 373d fe3c a1be 94c3 81be
00000040: 2c2b c83c 3fcd 0abd 4ea9 44be 6e62 b43a
00000050: a6a0 f5bd 4df6 cebb d39a 90be 3932 de3d
00000060: 151b 8cbe 8cf9 223e f952 793e beba 04bf
00000070: 62eb 2bbe 5b7c 70be 448b 133d ad18 6a3d
00000080: 1acb c73e e4c6 453d 7565 59bd 4983 233e
00000090: 2df4 e8be a956 ddbc 54b8 bf3d 5150 aabe
000000a0: a59f 3dbe e6a0 55be b359 8c3d 1889 8fbd
000000b0: f10c 81be 7534 61bb 13c3 d03e fff5 873c
000000c0: 385e 7bbe 24fc d3bd 7943 08bd 64d4 093e
000000d0: 00e0 ef3e bf11 7dbd 8a8f 1a3e b6ed 433e
000000e0: 3028 6bbe 15ed 10be a82e 743e 05e4 4fbd
000000f0: de15 32be 2f1e d0bc a649 74bd 0b30 9bbe

flows.0.layers.0.network.4.bias f4 [8]
0.04756463 0.08851434 0.05509378 -0.15493414 0.08928112 -0.10721503 0.04118232 -0.19637385
00000000: 21d3 423d 0247 b53d 04aa 613d 0ea7 1ebe
00000010: 05d9 b63d 8e93 dbbd cbae 283d 3a16 49be

flows.0.layers.0.network.6.weight f4 [2, 8]
0.0128719425 0.0034652508 -0.015646016 0.0028302486 0.06166843 -0.00824446 -0.078308344 0.065376684
-0.015137025 0.0019602038 -0.00025395537 -0.01088108 0.4226222 0.013091092 -0.40724912 0.18469472
00000000: d7e4 523c 4319 633b 132c 80bc b17b 393b
00000010: 0998 7c3d c613 07bc 2060 a0bd 36e4 853d
00000020: 4901 78bc c376 003b 5025 85b9 8f46 32bc
00000030: f061 d83e 057c 563c f582 d0be 9d20 3d3e

flows.0.layers.0.network.6.bias f4 [2]
-0.07906589 -0.537159
00000000: 4ced a1bd 4183 09bf

flows.0.layers.1.network.0.weight f4 [8, 2]
1.1522046 -0.35324553 0.21230328 0.18007347 0.3211467 0.19286683 0.5701671 0.4096598
-0.0071356497 -0.9613171 -1.3664505 1.1039014 1.1595652 1.4125031 -0.38167134 -0.27318567
00000000: 717b 933f 99dc b4be 0866 593e 2e65 383e
00000010: 576d a43e e27e 453e 79f6 113f eebe d13e
00000020: 2bd2 e9bb e118 76bf dae7 aebf a44c 8d3f
00000030: a26c 943f e7cc b43f 6d6a c3be fede 8bbe

flows.0.layers.1.network.0.bias f4 [8]
-0.57650733 -0.09111003 -0.20888354 0.49467587 -0.71657807 0.080219656 -0.41022193 0.49697903
00000000: fc95 13bf e597 babd 91e5 55be 2846 fd3e
00000010: a971 37bf 344a a43d 9c08 d2be 0974 fe3e

flows.0.layers.1.network.2.weight f4 [8, 8]
-0.67599374 -0.61982477 -0.5693919 0.31102392 -0.08931812 0.8549701 0.57695097 0.43235385
0.7012953 -0.07804913 0.1174299 0.24227013 0.27633852 0.65999365 -0.41306397 -0.06320954
0.51184154 -0.056307204 0.24051444 0.52609754 0.22511676 -0.42526785 -0.7377487 -0.11377892
0.061460853 -0.09348984 -0.17547734 -0.20641321 0.1418957 0.21099962 0.27101493 0.3464268
0.13574623 -0.4874098 -0.10068932 -0.30514598 -0.2093176 0.111490674 0.6137299 0.60791594
0.18527861 -0.0033672864 0.074402764 -0.69989276 1.0593851 -0.3438281 -0.40929565 -0.08910059
-0.51083595 0.24410406 0.4805432 -0.065827064 -0.47179502 -0.4466959 -0.33173728 -0.16812722
0.007183456 -0.19216187 -0.31081787 -0.4103461 0.4588728 0.05678158 -0.47885102 -0.08212721
00000000: ed0d 2dbf d6ac 1ebf abc3 11bf 873e 9f3e
00000010: 6bec b6bd 52df 5a3f 0fb3 133f 7c5d dd3e
00000020: 1788 333f 39d8 9fbd 167f f03d a915 783e
00000030: 3e7c 8d3e 58f5 283f 1f7d d3be 0174 81bd
00000040: 0c08 033f 62a2 66bd 6b49 763e 54ae 063f
00000050: 0285 663e b5bc d9be 19dd 3cbf ec04 e9bd
00000060: 60be 7b3d 9a77 bfbd 55b0 33be fc5d 53be
00000070: 1b4d 113e 4910 583e 78c2 8a3e db5e b13e
00000080: 0f01 0b3e c78d f9be 3436 cebd 183c 9cbe
00000090: 5a57 56be 3955 e43d 671d 1d3f 61a0 1b3f
000000a0: adb9 3d3e b1ad 5cbb 7a60 983d 2c2c 33bf
000000b0: ee99 873f 3d0a b0be 338f d1be 5f7a b6bd
000000c0: 25c6 02bf 6af6 793e c209 f63e 57d0 86bd
000000d0: 1e8f f1be 53b5 e4be 78d9 a9be 8b29 2cbe
000000e0: 3263 eb3b 15c6 44be 8523 9fbe e218 d2be
000000f0: 60f1 ea3e cd93 683d f62b f5be 5032 a8bd

flows.0.layers.1.network.2.bias f4 [8]
-0.33470368 0.23868032 0.3855256 -0.046221167 -0.21324256 -0.46775937 -0.24158132 0.007821749
00000000: 485e abbe 9d68 743e 9d63 c53e 6852 3dbd
00000010: 425c 5abe 287e efbe 1861 77be cb26 003c

flows.0.layers.1.network.4.weight f4 [8, 8]
-0.43960974 -0.22435842 0.5584229 -0.33907264 -0.3467671 0.007637855 0.23889063 -0.3809821
-0.08775694 0.7095008 -0.10176797 0.23474976 0.027090607 0.37086496 -0.2810341 0.10023455
-0.27481624 -0.11863792 -0.1508383 -0.11752106 0.1722211 -0.4728007 0.010901991 -0.5706536
0.13863315 -0.10013107 0.08076953 0.24023055 -0.25181586 0.09063896 0.2623324 -0.17741224
0.2114932 0.6577635 0.1942772 -0.052009344 -0.011049422 -0.557716 -0.17107183 -0.19698438
-0.08529333 0.12449863 -0.09507339 -0.077522494 0.18520835 0.18184239 0.29633108 -0.07508205
-0.0039065992 0.030889926 0.028908703 0.25022316 -0.06419662 -0.038475208 0.030080255 -0.035658516
-0.901195 -0.41795 0.37587857 -0.014494156 -0.37811428 0.20529616 0.14771959 0.22677702
00000000: 8714 e1be 37be 65be cef4 0e3f ee9a adbe
00000010: 758b b1be f946 fa3b bf9f 743e 1610 c3be
00000020: e9b9 b3bd d8a1 353f ba6b d0bd 3e62 703e
00000030: 1fed dd3c 03e2 bd3e b4e3 8fbe c647 cd3d
00000040: b7b4 8cbe 70f8 f2bd 5b75 1abe e2ae f0bd
00000050: ba5a 303e ef12 f2be 449e 323c 5b16 12bf
00000060: d9f5 0d3e 8511 cdbd 7f6a a53d fffe 753e
00000070: 02ee 80be eba0 b93d 6f50 863e 8eab 35be
00000080: ac91 583e 3063 283f 9af0 463e c007 55bd
00000090: a308 35bc 7ac6 0ebf 742d 2fbe 46b6 49be
000000a0: 45ae aebd 23f9 fe3d d6b5 c2bd 1dc4 9ebd
000000b0: 42a7 3d3e e434 3a3e b5b8 973e 9ec4 99bd
000000c0: ee02 80bb df0c fd3c f2d1 ec3c 401d 803e
000000d0: 8479 83bd 2e98 1dbd de6a f63c aa0e 12bd
000000e0: b7b4 66bf 8bfd d5be 2873 c03e e678 6dbc
000000f0: 3298 c1be 2839 523e ce43 173e 3c38 683e

flows.0.layers.1.network.4.bias f4 [8]
0.51962894 0.28197986 -0.13289946 -0.019184954 0.58986884 0.15962957 -0.03292575 0.5023947
00000000: 6706 053f aa5f 903e cc16 08be c429 9dbc
00000010: a501 173f ef75 233e 27dd 06bd f09c 003f

flows.0.layers.1.network.6.weight f4 [2, 8]
0.22958425 0.13084836 -0.19478293 -0.017977733 0.005442943 0.02827781 -0.012972531 0.121949814
-0.101282194 -0.08643991 -0.15619797 0.0057922676 -0.4004283 -0.0056062066 0.0012721091 -0.3764612
00000000: 2218 6b3e 1dfd 053e 2d75 47be 0a46 93bc
00000010: b75a b23b dea6 e73c bd8a 54bc d3c0 f93d
00000020: 0a6d cfbd 6807 b1bd 5cf2 1fbe 10cd bd3b
00000030: f004 cdbe 45b4 b7bb e6bc a63a 86bf c0be

flows.0.layers.1.network.6.bias f4 [2]
-0.13558973 -0.032404
00000000: 09d8 0abe 0fba 04bd

flows.0.layers.2.network.0.weight f4 [8, 3]
-1.4419395 1.3606949 1.383297 -0.32029015 -1.2640171 0.1514777 -0.53408575 0.4708228
-0.6607525 -0.5456478 -0.5377779 0.04273445 0.7092194 0.415256 0.7758496 1.8139508
0.88614976 -0.9958491 0.3358544 0.21849707 1.164923 0.92958456 0.65318614 0.79417264
00000000: 7991 b8bf 402b ae3f e00f b13f 12fd a3be
00000010: 50cb a1bf f81c 1b3e d8b9 08bf b00f f13e
00000020: 1327 29bf 93af 0bbf d0ab 09bf 520a 2f3d
00000030: 678f 353f 6f9c d43e 149e 463f 8a2f e83f
00000040: b6da 623f f7ef 7ebf 1cf5 ab3e b2bd 5f3e
00000050: 321c 953f 41f9 6d3f 3537 273f e64e 4b3f

flows.0.layers.2.network.0.bias f4 [8]
-0.26560104 -0.21029443 0.56839246 -0.4975017 -0.82781094 -0.4950386 -0.7497654 0.58361924
00000000: dcfc 87be 6c57 57be 2b82 113f 8bb8 febe
00000010: 6beb 53bf b375 fdbe a0f0 3fbf 1268 153f

flows.0.layers.2.network.2.weight f4 [8, 8]
0.43528697 -0.043139275 0.16602877 0.3643405 0.102353275 0.1383788 -0.4918422 0.17937976
-0.23585331 -0.40099356 0.9882945 0.14035635 -0.27359444 0.19739029 -0.7876166 0.3027102
0.46410733 0.13267183 -0.79928666 -0.23581979 -0.18640782 -0.18859784 0.24394114 0.31812176
-0.24419361 -0.27853012 0.67213625 -0.17346632 0.085460186 -1.2538986 -0.19133382 -0.0013892467
-0.26270166 0.37311372 -0.4372999 0.4833522 0.40087944 -0.05113329 -0.14530213 -0.35794044
1.0367669 -0.932419 0.31185123 -0.61000174 -0.30812266 -0.11488635 0.44348288 0.18615933
-0.36283007 0.000943186 -0.44056767 -0.10217583 0.37543532 -0.15891285 0.62771857 0.32267848
-0.39978522 0.6504722 0.08734283 1.1367959 0.22721827 0.3106788 -0.47375244 -1.545994
00000000: efdd de3e cfb2 30bd 7203 2a3e d78a ba3e
00000010: 989e d13d 2cb3 0d3e bed2 fbbe 54af 373e
00000020: 8883 71be 074f cdbe de00 7d3f 93b9 0f3e
00000030: 9214 8cbe ae20 4a3e 3ea1 49bf d5fc 9a3e
00000040: 7a9f ed3e 20db 073e 0d9e 4cbf be7a 71be
00000050: b1e1 3ebe cb1f 41be b5cb 793e dbe0 a23e
00000060: e40d 7abe 809b 8ebe 1f11 2c3f 28a1 31be
00000070: c005 af3d c07f a0bf 03ed 43be 6217 b6ba
00000080: d580 86be c308 bf3e c6e5 dfbe f179 f73e
00000090: 1240 cd3e 2471 51bd 15ca 14be f843 b7be
000000a0: c7b4 843f 03b3 6ebf f7aa 9f3e 1329 1cbf
000000b0: 41c2 9dbe 8949 ebbd 3010 e33e 8da0 3e3e
000000c0: ddc4 b9be 2440 773a 1692 e1be 9041 d1bd
000000d0: 0f39 c03e 0dba 22be 2ab2 203f 1d36 a53e
000000e0: a6b0 ccbe 5985 263f cce0 b23d 8782 913f
000000f0: e8ab 683e 4b11 9f3e ae8f f2be 22e3 c5bf

flows.0.layers.2.network.2.bias f4 [8]
-0.20457825 0.39497393 -0.007376599 -0.15185742 0.09543026 -0.19023816 -0.048174094 -0.5181113
00000000: f67c 51be 063a ca3e 66b7 f1bb 8380 1bbe
00000010: f170 c33d cbcd 42be 3352 45bd f1a2 04bf

flows.0.layers.2.network.4.weight f4 [8, 8]
-0.18339343 -0.46458364 0.54300624 0.32030585 0.3965049 -0.12406942 0.19798939 -0.20856854
-0.15970801 0.109790795 -0.23612042 0.21903284 -0.308459 -0.22495784 0.1913706 0.067430146
-0.06266361 0.1540368 0.3376569 -0.4486259 -0.08569866 0.22270615 -0.29890156 -0.07733755
0.022411872 -0.46591267 0.47922313 -0.26544785 -0.08071623 -0.4338516 0.4705979 0.41204357
-0.11207387 0.51257026 -0.033479724 0.33639625 0.1968305 -0.39447677 0.5725655 0.10256634
-0.05852472 0.0144493915 0.051160302 -0.024391582 -0.018350143 -0.0006403677 -0.02718701 0.014692883
-0.15814835 -0.09256615 0.3965933 -0.039939962 0.20181157 -0.19550504 0.24686101 -0.029335404
0.38813996 0.009160791 0.16575089 -0.3177216 0.54123557 -0.7397448 0.37648 0.891135
00000000: 7dcb 3bbe e8dd edbe 7502 0b3f 21ff a33e
00000010: b102 cb3e 1c18 febd bbbd 4a3e fe92 55be
00000020: 7f8a 23be ffd9 e03d 8dc9 71be 254a 603e
00000030: 57ee 9dbe 595b 66be a8f6 433e d118 8a3d
00000040: c755 80bd d3bb 1d3e 5de1 ac3e 4bb2 e5be
00000050: c782 afbd 150d 643e a009 99be 2663 9ebd
00000060: 1a99 b73c 1b8c eebe bc5c f53e c8e8 87be
00000070: 8d4e a5bd cc21 debe 35f2 f03e 60f7 d23e
00000080: fc86 e5bd ce37 033f 0922 09bd 213c ac3e
00000090: ef8d 493e dcf8 c9be a793 123f 4d0e d23d
000000a0: 9eb7 6fbd 24bd 6c3c 778d 513d dbd0 c7bc
000000b0: 0a53 96bc 59de 27ba 4bb7 debc 6bba 703c
000000c0: a4f1 21be 5293 bdbd 470e cb3e 1698 23bd
000000d0: b1a7 4e3e 7932 48be 22c9 7c3e cd50 f0bc
000000e0: 48ba c63e 2417 163c 9aba 293e 68ac a2be
000000f0: 6a8e 0a3f ea5f 3dbf fdc1 c03e 6c21 643f

flows.0.layers.2.network.4.bias f4 [8]
-0.34960598 -0.23741157 -0.08046772 -0.055557378 -0.05762934 -0.01185725 -0.18724884 -0.0027831946
00000000: 8eff b2be 051c 73be 43cc a4bd 2290 63bd
00000010: be0c 6cbd e944 42bc 29be 3fbe 4266 36bb

flows.0.layers.2.network.6.weight f4 [2, 8]
-0.17410924 -0.0071328506 -0.024915481 -0.40509486 -0.035573576 -0.0020182466 -0.20046087 -0.17981023
0.04403327 0.14884083 -0.15053767 -0.09558316 0.39107683 0.0014463132 0.22443499 0.36852247
00000000: b149 32be b0ba e9bb 8d1b ccbc 9868 cfbe
00000010: 99b5 11bd 8f44 04bb 9d45 4dbe 2c20 38be
00000020: 3b5c 343d bb69 183e 8c26 1abe 1bc1 c3bd
00000030: 393b c83e 3892 bd3a 49d2 653e faae bc3e

flows.0.layers.2.network.6.bias f4 [2]
-0.091830745 -0.38020658
00000000: c211 bcbd 70aa c2be

flows.0.layers.3.network.0.weight f4 [8, 4]
0.16995168 0.29125902 -0.3972003 0.25522298 0.0107994545 0.23526494 -0.52278495 0.8248241
-0.24916565 -1.3949866 1.8297153 -0.12298726 0.87613684 -0.16790903 -0.18980382 -0.45467982
-1.0651518 0.55824906 0.30227098 -0.5286975 0.69170636 1.7432224 0.002024868 -1.5052866
-0.5019359 0.7232425 0.12557833 -0.4309555 -0.5528683 0.08096333 1.0951351 0.35434234
00000000: d007 2e3e e71f 953e d65d cbbe 96ac 823e
00000010: 32f0 303c 4be9 703e 3cd5 05bf ac27 533f
00000020: 4825 7fbe ec8e b2bf 1c34 ea3f bfe0 fbbd
00000030: 814a 603f 58f0 2bbe ef5b 42be cbcb e8be
00000040: e556 88bf 69e9 0e3f 43c3 9a3e b858 07bf
00000050: ab13 313f e921 df3f a6b3 043b 3bad c0bf
00000060: df7e 00bf 6c26 393f 9b97 003e 33a6 dcbe
00000070: c788 0dbf 1ad0 a53d 632d 8c3f 5c6c b53e

flows.0.layers.3.network.0.bias f4 [8]
-0.34402582 -0.9263211 -0.7982556 0.720314 0.44887373 0.16665114 -0.65610504 0.7592247
00000000: 2724 b0be 6123 6dbf 7b5a 4cbf 8066 383f
00000010: c7d2 e53e 99a6 2a3e 80f6 27bf 8d5c 423f

flows.0.layers.3.network.2.weight f4 [8, 8]
0.247812 0.1694804 -0.5769103 0.076482184 0.08831668 0.4411331 -0.3096419 0.10770625
0.21590103 0.120484054 -0.4987321 0.6548708 0.0001179002 -0.59721667 0.06884324 -0.07909346
-0.6911629 0.09414291 0.19216752 -0.032084446 1.7820562 -0.28026342 0.3543665 0.88435495
0.35217744 -0.19297221 -0.4967149 -0.8940496 0.0775066 -0.28079665 -0.62385905 0.19292077
0.39921698 0.62972456 0.26357153 0.17365274 0.24063274 0.6954084 -0.2650832 -0.14558135
-0.5313467 -0.2917807 0.13287058 -0.26244363 -0.13527974 -0.18109117 0.052340183 0.98079336
0.39997593 0.4497999 -0.24033387 0.02513815 -0.2653066 0.21027803 0.191755 -0.22675684
-0.56533754 -0.85061353 0.4963923 0.29768342 -0.33024442 0.0535493 -0.09763839 -0.14664936
00000000: 6ec2 7d3e 458c 2d3e 65b0 13bf b1a2 9c3d
00000010: 60df b43d 33dc e13e 6289 9ebe 1895 dc3d
00000020: 2915 5d3e 58c0 f63d d059 ffbe 9da5 273f
00000030: 3041 f738 31e3 18bf affd 8c3d c1fb a1bd
00000040: 0df0 30bf ffcd c03d 90c7 443e fb6a 03bd
00000050: 6b1a e43f b07e 8fbe 876f b53e 1665 623f
00000060: 9a50 b43e 829a 45be 6a51 febe 6fe0 64bf
00000070: c8bb 9e3d 94c4 8fbe 3ab5 1fbf 068d 453e
00000080: 2b66 cc3e a135 213f d9f2 863e 06d2 313e
00000090: 6e68 763e 4906 323f fcb8 87be 4713 15be
000000a0: 5606 08bf 4864 95be 3a0f 083e 035f 86be
000000b0: c686 0abe f76f 39be a962 563d 4615 7b3f
000000c0: a5c9 cc3e 2c4c e63e 151a 76be 86ee cd3c
000000d0: 44d6 87be 2053 573e 6c5b 443e f232 68be
000000e0: f6b9 10bf cfc1 59bf 2227 fe3e f669 983e
000000f0: cc15 a9be 8356 5b3d a3f6 c7bd 402b 16be

flows.0.layers.3.network.2.bias f4 [8]
0.15331951 -0.20568633 0.100755855 0.2415038 -0.010092984 0.0985272 -0.29067442 0.30778503
00000000: caff 1c3e 709f 52be 1659 ce3d c64c 773e
00000010: 0b5d 25bc a1c8 c93d 47d3 94be 0096 9d3e

flows.0.layers.3.network.4.weight f4 [8, 8]
-0.39223462 -0.387893 -0.12024578 0.15101695 -0.08200436 0.4020898 -0.07257262 -0.093007
0.23524798 0.14642182 0.29815924 -0.5516441 0.0016217278 -0.026666965 0.17346467 0.22581315
-0.24624908 -0.20670326 0.24785629 0.5019698 0.14200228 -0.4485353 0.06706156 0.7391269
-0.31240988 -0.4709844 0.0133279255 0.022441678 0.13318515 -0.16953874 -0.20667191 0.5562033
-0.4755072 0.02291234 -0.26099974 -0.046399247 -0.108331695 0.28493196 -0.3182383 0.27521682
0.14977789 -0.256361 -0.030329708 -0.32087448 0.9135271 -0.1520925 0.27945626 -0.16450828
0.40738046 0.453806 0.4845869 -0.6214556 0.058128163 -0.061114207 -0.28033447 0.15060242
0.29953027 -0.035892602 0.10272354 -0.22399539 0.107491165 0.14927264 0.05311511 -0.021133114
00000000: fad2 c8be e999 c6be 6b43 f6bd 30a4 1a3e
00000010: e7f1 a7bd b7de cd3e f4a0 94bd 747a bebd
00000020: d9e4 703e 9aef 153e 54a8 983e 8c38 0dbf
00000030: 2890 d43a ae74 dabc b9a0 313e 903b 673e
00000040: b828 7cbe 05aa 53be 0ace 7d3e 1881 003f
00000050: 0c69 113e 6ba6 e5be 9257 893d 6c37 3d3f
00000060: 30f4 9fbe de24 f1be 5f5d 5a3c 9cd7 b73c
00000070: b061 083e 909b 2dbe cda1 53be 5763 0e3f
00000080: ae75 f3be a9b2 bb3c c2a1 85be 230d 3ebd
00000090: 02dd ddbd 9ae2 913e 21f0 a2be 38e9 8c3e
000000a0: 605f 193e c041 83be 0276 f8bc a949 a4be
000000b0: e9dc 693f 23be 1bbe e414 8f3e dc74 28be
000000c0: 2c94 d03e 4359 e83e c61b f83e b717 1fbf
000000d0: cc17 6e3d e452 7abd 0088 8fbe 8537 1a3e
000000e0: 085c 993e 1f04 13bd b860 d23d 0c5f 65be
000000f0: 5424 dc3d edda 183e 3b8f 593d 5a1f adbc

flows.0.layers.3.network.4.bias f4 [8]
-0.17142428 0.12388503 -0.08732496 -0.2423175 0.24095128 -0.27947474 -0.17115909 0.0068482053
00000000: d989 2fbe 6fb7 fd3d 6ed7 b2bd 1422 78be
00000010: efbb 763e 5017 8fbe 5444 2fbe e966 e03b

flows.0.layers.3.network.6.weight f4 [2, 8]
0.3430658 -0.087965064 0.17390895 0.28303963 0.34794834 -0.3448174 -0.16129133 -0.03934519
-0.22259796 -0.08153505 0.58716875 0.19309543 0.2291862 0.024962334 0.022227755 -0.06416835
00000000: 52a6 af3e 0727 b4bd 3015 323e 92ea 903e
00000010: 4926 b23e e88b b0be 8e29 25be 6c28 21bd
00000020: b8f0 63be d9fb a6bd b150 163f cfba 453e
00000030: caaf 6a3e cf7d cc3c fb16 b63c b26a 83bd

flows.0.layers.3.network.6.bias f4 [2]
-0.11604564 -0.5346232
00000000: 56a9 edbd 11dd 08bf

flows.1.initial_param f4 [2]
-0.24228832 -0.5681209
00000000: 6e1a 78be 5f70 11bf

flows.1.layers.0.network.0.weight f4 [8, 1]
-1.0134834 1.5004241 0.024262283 -0.45914823 -0.072089866 0.19301902 -0.58738524 0.13151538
00000000: d3b9 81bf e60d c03f b2c1 c63c 7a15 ebbe
00000010: daa3 93bd c7a6 453e e15e 16bf f8ab 063e

flows.1.layers.0.network.0.bias f4 [8]
0.14276327 -0.5486728 0.054491766 0.4042811 0.31909922 -0.0994513 0.64005744 -0.41891742
00000000: 8930 123e d275 0cbf c232 5f3d effd ce3e
00000010: f960 a33e 20ad cbbd ceda 233f 587c d6be

flows.1.layers.0.network.2.weight f4 [8, 8]
0.7529033 -0.59157985 -0.11413485 0.21554346 -0.09101848 -0.082966655 -0.08883477 -0.00421593
-0.16447988 -0.20573533 0.04836415 -0.09386281 -0.10974869 0.17101213 0.11246614 0.1441714
-0.039575025 -0.15784737 -0.2258196 -0.3114845 -0.16730547 -0.089823626 0.06768875 -0.07267902
0.043558232 -0.048065353 0.07148275 0.05466876 0.17339383 -0.002266806 -0.091131 -0.06101277
0.014374372 -0.23706338 0.0946614 -0.15304731 0.032135926 0.0019164127 -0.13102135 0.28876665
0.15923813 0.19462857 0.09460074 -0.0073963404 0.0394986 -0.14952461 -0.018539844 0.11594315
0.06782465 -0.028518971 0.19000986 -0.056607187 0.07335931 0.024331195 -0.083313674 -0.005484727
-0.1949187 0.036844846 -0.1504181 0.033216666 -0.12140095 -0.049496006 -0.018960414 0.19244042
00000000: 45be 403f c771 17bf 88bf e9bd 6db7 5c3e
00000010: e667 babd 6cea a9bd 01ef b5bd c925 8abb
00000020: 6a6d 28be 48ac 52be 7d19 463d 253b c0bd
00000030: ecc3 e0bd ce1d 2f3e a654 e63d aba1 133e
00000040: 6c19 22bd bea2 21be 413d 67be e57a 9fbe
00000050: 2052 2bbe 73f5 b7bd 66a0 8a3d bdd8 94bd
00000060: 1e6a 323d 2de0 44bd 8c65 923d 5aec 5f3d
00000070: 278e 313e b28e 14bb e4a2 babd 87e8 79bd
00000080: 7c82 6b3c bec0 72be d6dd c13d 6fb8 1cbe
00000090: f6a0 033d 2430 fb3a 762a 06be 39d9 933e
000000a0: 520f 233e b64c 473e 08be c13d 005d f2bb
000000b0: 49c9 213d fb1c 19be dfe0 97bc 9a73 ed3d
000000c0: a6e7 8a3d 9ea0 e9bc f291 423e f0dc 67bd
000000d0: 683d 963d 3752 c73c 5ca0 aabd 3ab9 b3bb
000000e0: c598 47be 9fea 163d 3407 1abe 330e 083d
000000f0: 10a1 f8bd 53bc 4abd df52 9bbc 1a0f 453e

flows.1.layers.0.network.2.bias f4 [8]
-0.05480311 0.033436857 0.049568336 -0.051488116 0.043829102 0.1205737 -0.07616732 -0.047867835
00000000: 3a79 60bd 16f5 083d 2b08 4b3d 34e5 52bd
00000010: 2586 333d 58ef f63d 9dfd 9bbd 1011 44bd

flows.1.layers.0.network.4.weight f4 [8, 8]
0.010825104 -0.12636553 -0.09225303 -0.1661129 0.28807333 -0.16491224 0.017068522 0.045649946
0.41058165 -0.015361026 0.07603874 0.1015757 0.05528868 -0.032935224 0.18097773 -0.070891805
0.17342773 0.034982063 -0.077631794 0.007072457 -0.11487318 0.06452686 -0.34854707 -0.093305565
-0.15226234 0.04176997 0.13452135 0.45184827 -0.16165209 0.02022816 -0.23359187 -0.37351233
0.0054155784 -0.10885223 0.011406019 0.16700849 0.15484625 -0.24562383 0.22149423 0.2397934
0.1397055 0.034059778 -0.021352232 0.059633654 -0.099992886 0.020765297 -0.18793976 -0.10778841
-0.002113113 -0.1883581 -0.1704454 0.002598599 0.28230098 0.07624557 0.11791223 0.051628835
-0.007472691 0.22079988 -0.061636545 -0.082448326 -0.12758718 0.33522603 0.12567066 -0.21678765
00000000: c75b 313c f765 01be 28ef bcbd 8019 2abe
00000010: 597e 933e c1de 28be 49d3 8b3c 70fb 3a3d
00000020: c237 d23e d0ac 7bbc 33ba 9b3d ec06 d03d
00000030: 6276 623d 16e7 06bd 3a52 393e b92f 91bd
00000040: 0a97 313e 5a49 0f3d 6bfd 9ebd 12c0 e73b
00000050: a142 ebbd a926 843d c374 b2be fd16 bfbd
00000060: a9ea 1bbe fd16 2b3d f7bf 093e a858 e73e
00000070: 2088 25be 87b5 a53c b532 6fbe 023d bfbe
00000080: 2a75 b13b ebed debd 50e0 3a3c 4604 2b3e
00000090: 0490 1e3e d084 7bbe 62cf 623e 678c 753e
000000a0: f50e 0f3e 4482 0b3d e0ea aebc 6b42 743d
000000b0: 12c9 ccbd fc1b aa3c 4873 40be 2bc0 dcbd
000000c0: 277c 0abb f2e0 40be 3d89 2ebe 424d 2a3b
000000d0: c189 903e a326 9c3d f87b f13d c278 533d
000000e0: 7add f4bb 5d19 623e 9a76 7cbd abda a8bd
000000f0: 37a6 02be bfa2 ab3e cfaf 003e 95fd 5dbe

flows.1.layers.0.network.4.bias f4 [8]
0.059520118 0.09471123 -0.20193852 -0.111134455 0.10317854 0.20068543 0.06207882 -0.07110642
00000000: 5ecb 733d f6f7 c13d f9c8 4ebe 769a e3bd
00000010: 454f d33d 7b80 4d3e 5c46 7e3d 3ea0 91bd

flows.1.layers.0.network.6.weight f4 [2, 8]
-0.004537742 0.09309638 0.10589273 0.009901487 -0.0033533992 -0.13803945 -0.0027007076 0.0008785234
-0.00723806 -0.32119894 -0.11221842 0.057403293 -0.00035435607 -0.16049598 -0.006853573 0.0020818885
00000000: 57b1 94bb 51a9 be3d 4ade d83d d939 223c
00000010: b4c4 5bbb 375a 0dbe 5bfe 30bb b54c 663a
00000020: 3f2d edbb 3074 a4be c5d2 e5bd b71f 6b3d
00000030: dec8 b9b9 0f59 24be f093 e0bb 4b70 083b

flows.1.layers.0.network.6.bias f4 [2]
0.08650036 -0.47627342
00000000: 1a27 b13d 1cda f3be

flows.1.layers.1.network.0.weight f4 [8, 2]
0.17701922 -0.5926092 0.14344537 0.14769265 -0.060745966 -0.10412388 -0.5740428 -0.8152067
-0.48656633 -0.3211416 -0.42155898 -0.43480554 -0.34550813 -0.7706939 0.44408998 0.7031117
00000000: 8744 353e 3db5 17bf 58e3 123e be3c 173e
00000010: c3d0 78bd e73e d5bd 78f4 12bf 63b1 50bf
00000020: 391f f9be ac6c a4be 94d6 d7be d59e debe
00000030: 71e6 b0be 324c 45bf c35f e33e 21ff 333f

flows.1.layers.1.network.0.bias f4 [8]
0.30795142 -0.017492397 0.02624204 -0.07836444 -0.097604655 0.11926155 0.6676148 -0.63315415
00000000: cfab 9d3e 374c 8fbc 8cf9 d63c 897d a0bd
00000010: f3e4 c7bd 663f f43d cee8 2a3f 6416 22bf

flows.1.layers.1.network.2.weight f4 [8, 8]
0.09937928 -0.060821626 0.12236794 -0.3190684 0.09334047 0.1227294 0.16706355 0.12184265
0.89941895 0.050508738 -0.07921547 0.2675356 0.15976316 0.39816332 -0.17680301 0.060752995
-0.52517235 -0.16535752 0.29036203 -0.43272042 0.13386256 -0.20594081 -0.3248168 0.028748529
0.4147427 0.05617939 -0.11050291 0.10834493 -0.010057909 -0.34405902 0.30954677 -0.06187207
-0.121298596 0.12167281 0.020345882 0.40940908 -0.76358503 -0.26414528 0.053870942 -0.27845028
-0.37765273 0.29463175 -0.26527104 -0.41137466 -0.14184576 -0.16910008 -0.04422089 0.14699624
0.34997097 -0.055464245 -0.032996047 0.07432189 0.18996322 0.022944931 -0.034067385 -0.05414144
-0.20104751 0.035415225 -0.20311655 0.21012302 0.07573075 -0.3284204 -0.45368838 0.41476953
00000000: 5d87 cb3d 1920 79bd 0b9c fa3d ef5c a3be
00000010: 4a29 bf3d 8d59 fb3d b512 2b3e a488 f93d
00000020: 5240 663f 40e2 4e3d b83b a2bd 6dfa 883e
00000030: f498 233e 10dc cb3e d90b 35be 22d8 783d
00000040: b271 06bf 7b53 29be 55aa 943e 888d ddbe
00000050: 4413 093e 26e2 52be 634e a6be 0982 eb3c
00000060: 2859 d43e 5c1c 663d 5a4f e2bd f2e3 dd3d
00000070: eec9 24bc 8128 b0be ea7c 9e3e 916d 7dbd
00000080: 666b f8bd 982f f93d 68ac a63c 119e d13e
00000090: 4f7a 43bf 0d3e 87be c7a7 5c3d 0991 8ebe
000000a0: b35b c1be f9d9 963e 9bd1 87be b39f d2be
000000b0: 0440 11be 9228 2dbe f720 35bd 2f86 163e
000000c0: 652f b33e 7a2e 63bd dd26 07bd 1336 983d
000000d0: b885 423e 02f7 bb3c 3e8a 0bbd 6ac3 5dbd
000000e0: 66df 4dbe 8e0f 113d c9fd 4fbe 7d2a 573e
000000f0: b918 9b3d b826 a8be d849 e8be ac5c d43e

flows.1.layers.1.network.2.bias f4 [8]
-0.098154396 0.21430825 0.28677613 0.013430225 -0.20625052 -0.030503534 -0.034455623 -0.016808445
00000000: 2c05 c9bd 9f73 5b3e 52d4 923e 720a 5c3c
00000010: 5633 53be 8ce2 f9bc 5721 0dbd ddb1 89bc

flows.1.layers.1.network.4.weight f4 [8, 8]
-0.29081848 -0.018950516 -0.21190903 0.051257435 -0.14361109 0.267819 0.0091849305 -0.092202015
0.17919013 0.01815273 0.36574873 0.038976017 -0.6502509 0.27840576 -0.11605147 -0.11743019
0.09679017 0.45632228 -0.5254322 0.012932471 0.09831355 -0.06530712 0.41857654 -0.24640833
-0.08033147 0.36765942 0.027819693 0.48962116 -0.34219396 -0.3820264 -0.015939578 -0.60213614
0.18374209 0.17843829 -0.045027073 -0.06815908 0.08091869 -0.3293209 0.22365355 -0.34540975
-0.034308124 -0.2991312 0.46747836 -0.10032708 -0.29302898 -0.13904457 0.12166206 0.037690844
0.17990237 0.36249897 -0.007871606 0.037252277 -0.22498737 -0.38378832 -0.11248556 0.11741029
-0.20880978 0.28508642 -0.43064374 -0.04852294 -0.20998418 -0.52528405 -0.06281597 -0.06564562
00000000: 29e6 94be 1d3e 9bbc aefe 58be 51f3 513d
00000010: c90e 13be 921f 893e 647c 163c 69d4 bcbd
00000020: 9e7d 373e 09b5 943c 6b43 bb3e 51a5 1f3d
00000030: d876 26bf 338b 8e3e 65ac edbd 3d7f f0bd
00000040: ed39 c63d 13a3 e93e ba82 06bf b7e2 533c
00000050: 9d58 c93d bdbf 85bd aa4f d63e 7752 7cbe
00000060: d384 a4bd db3d bc3e 20e6 e33c a0af fa3e
00000070: 0c34 afbe f798 c3be b893 82bc 9825 1abf
00000080: e326 3c3e 87b8 363e 4f6e 38bd fd96 8bbd
00000090: b3b8 a53d c09c a8be 7005 653e 8cd9 b0be
000000a0: ad86 0cbd ba27 99be 5359 ef3e 4978 cdbd
000000b0: e507 96be b361 0ebe f529 f93d b761 1a3d
000000c0: 5438 383e 7799 b93e e9f7 00bc d895 183d
000000d0: 1763 66be e77f c4be d45e e6bd ce74 f03d
000000e0: 3bd2 55be d9f6 913e 567d dcbe febf 46bd
000000f0: 1806 57be 0479 06bf a9a5 80bd 3671 86bd

flows.1.layers.1.network.4.bias f4 [8]
-0.013909066 0.16335501 0.34417018 0.36612302 -0.30863577 0.29513225 -0.27374327 -0.3951609
00000000: dae2 63bc 8946 273e 1337 b03e 7a74 bb3e
00000010: 8205 9ebe 931b 973e 1428 8cbe 8852 cabe

flows.1.layers.1.network.6.weight f4 [2, 8]
0.005453273 0.2643465 -0.370989 -0.59553736 -0.48259214 0.3241408 -0.3168471 -0.70717716
0.00055209687 -0.19979903 -0.21662349 -0.09349787 0.19454107 -0.16776197 0.0822614 0.22702844
00000000: 5fb1 b23b 6d58 873e 45f2 bdbe 2375 18bf
00000010: 5116 f7be c8f5 a53e c839 a2be 9009 35bf
00000020: 98ba 103a 1e98 4cbe 8cd2 5dbe d07b bfbd
00000030: c635 473e cbc9 2bbe aa78 a83d 257a 683e

flows.1.layers.1.network.6.bias f4 [2]
-0.22955184 -0.16394673
00000000: a30f 6bbe a7e1 27be

flows.1.layers.2.network.0.weight f4 [8, 3]
-0.3604933 0.31856748 0.32664472 -1.1990284 -0.7490187 -0.1858705 0.053321373 0.025928395
-0.28092387 -0.86301 -0.21955736 -0.01163622 -0.16963792 -1.2753723 0.6557381 1.2133625
0.7495985 -0.46201688 0.71347076 -0.564959 0.31609878 -0.6672988 0.59736377 -1.1813482
00000000: 9492 b8be 471b a33e fa3d a73e c379 99bf
00000010: b1bf 3fbf d654 3ebe 8367 5a3d c967 d43c
00000020: 41d5 8fbe 39ee 5cbf a5d3 60be d8a5 3ebc
00000030: 90b5 2dbe 663f a3bf 74de 273f 764f 9b3f
00000040: b0e5 3f3f 7a8d ecbe 05a6 363f 27a1 10bf
00000050: b3d7 a13e 18d4 2abf d5ec 183f 6b36 97bf

flows.1.layers.2.network.0.bias f4 [8]
1.0361799 -0.6334369 -0.8654021 -0.13987449 0.6821324 -0.4661294 -0.63457555 0.9692611
00000000: 8ba1 843f ec28 22bf fe8a 5dbf 423b 0fbe
00000010: 3ba0 2e3f 83a8 eebe 8b73 22bf 7f21 783f

flows.1.layers.2.network.2.weight f4 [8, 8]
-0.38117966 0.5005361 -0.4362014 0.13372818 -0.3240366 0.26056755 0.32554728 -1.8581504
0.7103422 0.30314735 -0.21698858 0.090408854 0.20075089 0.45897058 -0.23825733 -0.42554268
0.1698199 -0.05962735 0.29862818 -0.23207186 -0.55823755 -0.32881826 0.24696042 0.007209725
-0.09210477 -0.9612411 0.04460587 -0.76199293 -0.09255 0.26560226 0.14424399 -0.6750763
0.2480007 0.6727141 0.041888826 0.64084184 0.2043899 -0.73177856 0.81137955 0.19487187
0.95388365 -0.4669617 -0.07214609 0.4436285 1.0218285 -0.35032177 -0.047981404 -0.73815084
-0.7026053 0.8448455 0.27747294 -0.19901133 -0.17561673 -0.007568834 0.6854418 -0.549314
-0.7067611 -0.48688096 0.38045493 -0.34886658 -0.24070047 0.8614852 0.36370593 -0.29300433
00000000: fb29 c3be 2223 003f ca55 dfbe 0af0 083e
00000010: 20e8 a5be 1c69 853e 22ae a63e dfd7 edbf
00000020: fdd8 353f 2136 9b3e 4132 5ebe 4728 b93d
00000030: a491 4d3e 31fe ea3e bbf9 73be bbe0 d9be
00000040: 45e5 2d3e cf3b 74bd cbe5 983e 3fa4 6dbe
00000050: a8e8 0ebf de5a a8be 31e3 7c3e 8f3f ec3b
00000060: 6da1 bcbd e613 76bf a5b4 363d f811 43bf
00000070: db8a bdbd 05fd 873e b2b4 133e cdd1 2cbf
00000080: e5f3 7d3e fe36 2c3f 9e93 2b3d 360e 243f
00000090: 964b 513e d755 3bbf 92b6 4f3f 7e8c 473e
000000a0: b831 743f 9b15 efbe 54c1 93bd 4623 e33e
000000b0: 47cb 823f 605d b3be 2688 44bd 74f7 3cbf
000000c0: f1dd 33bf cb47 583f ef10 8e3e a0c9 4bbe
000000d0: dfd4 33be fb03 f8bb 1d79 2f3f d89f 0cbf
000000e0: 4cee 34bf 7648 f9be fdca c23e a49e b2be
000000f0: 2f7a 76be 4b8a 5c3f aa37 ba3e aa04 96be

flows.1.layers.2.network.2.bias f4 [8]
-0.24789508 -0.33196518 0.4316698 0.018574717 -0.38959166 0.23069784 0.2816749 -0.4123428
00000000: 35d8 7dbe 57f7 a9be d303 dd3e 012a 983c
00000010: 8f78 c7be 0e3c 6c3e b137 903e 981e d3be

flows.1.layers.2.network.4.weight f4 [8, 8]
-0.20210281 0.4877164 -0.07046465 -0.07171365 0.45210966 -0.6213483 0.44996777 0.19628885
0.08964197 -0.43838704 -0.016920026 0.07482951 -0.16464928 -0.073904924 -0.07027065 -0.28618497
-0.43059927 0.23200868 0.09937054 -0.2992056 0.44097197 0.38730487 -0.05584197 -0.60711986
0.20571725 -0.46929672 0.4653956 -0.51484215 0.39573893 0.34307125 -0.4072447 -0.16623622
0.44981265 -0.15134604 0.5582897 0.404728 0.07764411 0.15869766 0.7727103 0.6884324
-0.00882309 -0.47515848 -0.27567253 -0.12862034 -0.2291986 -0.29796144 0.75684536 0.5590425
0.9345066 0.024262179 0.08780106 -0.31093332 -0.006225119 0.3887027 0.38800177 -0.048563786
-0.0023576505 0.0856134 0.12881465 -0.44511306 0.3882971 0.2296556 -0.10227515 -0.16076054
00000000: 0af4 4ebe f7b5 f93e c54f 90bd 9bde 92bd
00000010: eb7a e73e af10 1fbf 2d62 e63e f2ff 483e
00000020: 3696 b73d 4474 e0be de9b 8abc 3740 993d
00000030: d299 28be 775b 97bd 0fea 8fbd d686 92be
00000040: 8277 dcbe af93 6d3e c882 cb3d 7a31 99be
00000050: 14c7 e13e d34c c63e 8dba 64bd 356c 1bbf
00000060: 8ba7 523e a947 f0be 5548 ee3e b2cc 03bf
00000070: 4b9e ca3e 09a7 af3e 6182 d0be d439 2abe
00000080: d84d e63e 75fa 1abe 13ec 0e3f 8238 cf3e
00000090: e003 9f3d a481 223e 58d0 453f 1b3d 303f
000000a0: b98e 10bc f947 f3be f324 8dbe 0db5 03be
000000b0: 0ab3 6abe 678e 98be 9ec0 413f 691d 0f3f
000000c0: d33b 6f3f 7ac1 c63c 0bd1 b33d a732 9fbe
000000d0: 15fc cbbb 0a04 c73e 2ba8 c63e d2ea 46bd
000000e0: d082 1abb 1456 af3d fde7 033e dce5 e3be
000000f0: e1ce c63e d62a 6b3e a275 d1bd 699e 24be

flows.1.layers.2.network.4.bias f4 [8]
-0.33848765 -0.13193579 0.10115361 -0.03922997 0.34037757 -0.35850087 0.040496413 0.014294738
00000000: 414e adbe 2d1a 07be a029 cf3d 9baf 20bd
00000010: f845 ae3e 6d8d b7be 91df 253d 7a34 6a3c

flows.1.layers.2.network.6.weight f4 [2, 8]
0.16892351 0.03806159 0.29853165 0.13792054 -0.2195261 -0.2977118 -0.20635955 0.14282143
0.20767576 0.022577824 -0.040858913 -0.26981074 0.31476265 0.25392812 -0.18822242 -0.15293393
00000000: 49fa 2c3e 78e6 1b3d 24d9 983e 0b3b 0d3e
00000010: 73cb 60be ae6d 98be eb4f 53be c83f 123e
00000020: f4a8 543e 21f5 b83c ad5b 27bd a224 8abe
00000030: 9228 a13e de02 823e 61bd 40be b69a 1cbe

flows.1.layers.2.network.6.bias f4 [2]
0.22252159 0.096789636
00000000: b3dc 633e a539 c63d

flows.1.layers.3.network.0.weight f4 [8, 4]
1.4354534 -0.18436153 0.15655632 -0.8030511 -0.57862115 0.5552006 1.0676469 0.7568557
0.21684155 -0.12028904 1.3802108 -0.4050948 -0.5285145 0.47919834 -1.188018 -2.4335465
0.6557072 -0.41084972 -2.3647034 -0.5505008 -0.74931574 -0.6945157 -0.1930447 1.2111437
-1.1406004 -0.06662884 1.1320223 0.17488886 0.5417836 1.0942694 0.048611436 0.74099493
00000000: f0bc b73f 45c9 3cbe 4d50 203e c294 4dbf
00000010: 8420 14bf a021 0e3f a7a8 883f 4cc1 413f
00000020: b60b 5e3e 1a5a f6bd bfaa b03f 9668 cfbe
00000030: ba4c 07bf 7c59 f53e f910 98bf 3abf 1bc0
00000040: 6ddc 273f e55a d2be 4d57 17c0 9fed 0cbf
00000050: 28d3 3fbf c8cb 31bf 83ad 45be c206 9b3f
00000060: 32ff 91bf b474 88bd 1be6 903f 1116 333e
00000070: 54b2 0a3f 0511 8c3f c91c 473d d8b1 3d3f

flows.1.layers.3.network.0.bias f4 [8]
0.8505042 1.2551816 -0.87583673 -0.28626052 0.27305046 -0.007486748 0.4147448 -0.11433607
00000000: a5ba 593f caa9 a03f d636 60bf bd90 92be
00000010: 45cd 8b3e 6553 f5bb 6e59 d43e 0829 eabd

flows.1.layers.3.network.2.weight f4 [8, 8]
0.87233394 0.3744914 0.45995766 0.07572275 0.040295362 0.35518375 -0.23184475 0.20971386
-1.5944219 0.0745244 0.13834627 0.37637332 -1.559754 0.77709395 -0.533411 -0.81108207
0.6300202 0.22531414 0.05762872 0.4885882 0.07086086 -0.6925364 0.790576 -0.50884324
0.37727457 1.1938912 -1.0334473 0.10525932 -0.18257351 0.33178544 -0.4340017 0.51369447
0.2376473 -0.14442398 -0.26595247 -0.4748784 0.555817 -0.20384364 0.96395856 -0.5668628
0.099327914 -0.28268364 0.24519707 0.37530798 -0.007865154 0.22113295 1.1754321 -0.34689793
0.5954646 -0.14207214 0.4483952 0.23298486 1.0070935 0.52512234 0.57769656 0.15760723
0.45319822 -1.7617497 0.17796242 0.9233471 0.3262796 -0.68581027 -0.05547845 0.030345328
00000000: 4751 5f3f 56bd bf3e 927f eb3e 8714 9b3d
00000010: c00c 253d a5da b53e b668 6dbe 3bbf 563e
00000020: 0416 ccbf 40a0 983d a5aa 0d3e 01b4 c03e
00000030: 05a6 c7bf a1ef 463f a08d 08bf 13a3 4fbf
00000040: 0149 213f c0b8 663e 180c 6c3d 3c28 fa3e
00000050: 801f 913d 114a 31bf 3063 4a3f 8d43 02bf
00000060: 222a c13e 6dd1 983f 0048 84bf 3392 d73d
00000070: 8df4 3abe c8df a93e 7935 debe 7b81 033f
00000080: d059 733e e1e3 13be ec2a 88be 4323 f3be
00000090: 064a 0e3f 63bc 50be fdc5 763f ec1d 11bf
000000a0: 6f6c cb3d e9bb 90be f114 7b3e 5e28 c03e
000000b0: d9dc 00bc ad70 623e 8f74 963f 9b9c b1be
000000c0: 5e70 183f 5c7b 11be 0e94 e53e 9593 6e3e
000000d0: 71e8 803f 6b6e 063f ece3 133f ca63 213e
000000e0: 9909 e83e 0481 e1bf c83b 363e 7a60 6c3f
000000f0: 1f0e a73e 4391 2fbf 5f3d 63bd c496 f83c

flows.1.layers.3.network.2.bias f4 [8]
-0.7247221 -0.039878223 0.25099748 0.36928907 -0.16454187 -0.7564738 -0.58154577 -0.016535109
00000000: 6387 39bf 5957 23bd be82 803e 7513 bd3e
00000010: aa7d 28be 44a8 41bf 2fe0 14bf a374 87bc

flows.1.layers.3.network.4.weight f4 [8, 8]
0.16308658 0.13879417 -0.42360654 -0.48006505 0.22985859 -0.46894762 -0.5620854 0.6766113
-0.49461716 0.2887524 0.5568443 -0.4653222 0.18722041 0.6781509 -0.32466376 1.10469
-0.021871211 -0.5025751 0.34840927 0.1293309 0.95573604 -0.044015776 0.47471353 0.17999616
-0.3043954 -0.6676455 -0.3446669 0.79168653 -0.36688647 -0.5138877 -0.18449542 -0.15543325
0.12465844 0.100401916 -0.030317033 0.0060500368 0.1948435 -0.113860525 -0.10804777 0.13146652
0.83548516 0.39769056 -0.39340192 -0.61524975 -0.34136555 0.04388716 0.61965114 -0.5034106
0.10703936 -0.15485889 0.3381283 -0.27671733 0.52263045 0.13034073 0.47057176 0.20232564
-0.28752014 -0.09702987 0.06871766 -0.018569048 0.15013066 -0.27815592 -0.14555721 0.18268293
00000000: 2b00 273e 0f20 0e3e f5e2 d8be 16cb f5be
00000010: 0d60 6b3e e719 f0be d4e4 0fbf 6636 2d3f
00000020: 763e fdbe 5bd7 933e 598d 0e3f b63e eebe
00000030: b5b6 3f3e 4c9b 2d3f 543a a6be 7b66 8d3f
00000040: 412b b3bc c3a8 00bf b362 b23e 526f 043e
00000050: 1eab 743f e349 34bd a70d f33e ea50 383e
00000060: b7d9 9bbe d1ea 2abf 2e78 b0be f8ab 4a3f
00000070: 8bd8 bbbe 258e 03bf 5eec 3cbe e529 1fbe
00000080: ed4c ff3d 859f cd3d 6d5b f8bc 633f c63b
00000090: 0e85 473e b52f e9bd 2648 ddbd 299f 063e
000000a0: 5be2 553f 199e cb3e fa6b c9be 0281 1dbf
000000b0: 77c7 aebe 06c3 333d 75a1 1e3f 84df 00bf
000000c0: 7437 db3d 5493 1ebe 271f ad3e e5ad 8dbe
000000d0: 1ccb 053f 0a78 053e c8ee f03e 742e 4f3e
000000e0: d735 93be 99b7 c6bd d8bb 8c3d 1e1e 98bc
000000f0: dabb 193e 746a 8ebe f30c 15be 3c11 3b3e

flows.1.layers.3.network.4.bias f4 [8]
0.14823416 -0.35480615 0.32690918 0.23077911 -0.014486274 -0.3575389 0.12904423 -0.27296478
00000000: b2ca 173e 27a9 b5be a460 a73e 5c51 6c3e
00000010: d657 6dbc 570f b7be 2c24 043e 0ac2 8bbe

flows.1.layers.3.network.6.weight f4 [2, 8]
-0.039475247 -0.11355493 -0.21619238 0.40132666 0.0056123855 0.41126174 -0.046798654 -0.058075376
-0.29318288 -0.25225627 0.0017717108 -0.33052927 0.011554268 -0.015758755 0.13364667 0.01155661
00000000: ccb0 21bd 7d8f e8bd 8961 5dbe b07a cd3e
00000010: 1ae8 b73b e690 d23e f2af 3fbd 72e0 6dbd
00000020: 111c 96be bc27 81be c038 e83a 223b a9be
00000030: 1d4e 3d3c 8118 81bc acda 083e f057 3d3c

flows.1.layers.3.network.6.bias f4 [2]
0.21371995 -0.014717029
00000000: 67d9 5a3e b21f 71bc

flows.2.initial_param f4 [2]
0.16812058 -0.43777445
00000000: cd27 2c3e f923 e0be

flows.2.layers.0.network.0.weight f4 [8, 1]
-0.44351882 0.41299647 -0.4449574 -0.34932268 0.1498109 -0.3692684 0.020040996 0.0052814363
00000000: e614 e3be 4674 d33e 75d1 e3be 6cda b2be
00000010: 0768 193e bf10 bdbe 042d a43c e60f ad3b

flows.2.layers.0.network.0.bias f4 [8]
0.6898061 -0.038997132 -0.11182104 -0.32379848 -0.049238708 0.13626568 -0.014271946 0.0025980198
00000000: 2297 303f 75bb 1fbd 6e02 e5bd eac8 a5be
00000010: 87ae 49bd 3b89 0b3e e1d4 69bc 8a43 2a3b

flows.2.layers.0.network.2.weight f4 [8, 8]
0.3405112 -0.42993924 0.36006558 0.3057126 -0.028458912 0.35884157 -0.12956478 0.03407418
-0.082641855 0.06770349 -0.05636618 0.047559075 0.12588228 0.22527641 -0.012173841 0.39970437
-0.21806513 -0.19726568 -0.32308426 -0.29087755 0.040471684 0.09324811 0.016637836 -0.07185339
0.023587594 -0.18202807 -0.0490299 -0.10620148 -0.026125142 -0.07112193 -0.37698632 -0.11431229
0.2835816 -0.16546024 -0.1279642 -0.15750688 0.08758359 -0.16304973 0.07232673 -0.14976904
-0.05233408 0.21685007 -0.41299295 0.0910863 0.15451261 -0.15803237 -0.20750381 0.10881157
0.1424463 0.018961703 0.1172569 0.07168014 0.1116814 -0.23593535 0.30128586 -0.25701338
-0.23230529 0.054317236 0.009208128 -0.114434026 -0.17908771 0.27499804 0.18595397 -0.087260984
00000000: 7c57 ae3e ff20 dcbe 845a b83e 5d86 9c3e
00000010: aa22 e9bc 15ba b73e a1ac 04be 5e91 0b3d
00000020: 2240 a9bd 21a8 8a3d 39e0 66bd 4ecd 423d
00000030: 49e7 003e dcae 663e ca74 47bc 0da6 cc3e
00000040: 774c 5fbe 0400 4abe 4d6b a5be e7ed 94be
00000050: a3c5 253d ddf8 be3d 124c 883c df27 93bd
00000060: c53a c13c 9165 3abe 94d3 48bd 2980 d9bd
00000070: 6504 d6bc 60a8 91bd 5a04 c1be 901c eabd
00000080: 9c31 913e 696e 29be 0c09 03be 7c49 21be
00000090: 065f b33d 82f6 26be 0920 943d 0e5d 19be
000000a0: 435c 56bd f20d 5e3e d073 d3be 748b ba3d
000000b0: 8e38 1e3e 3dd3 21be e17b 54be 9ad8 de3d
000000c0: 71dd 113e 9355 9b3c 6324 f03d 0acd 923d
000000d0: 38b9 e43d 0999 71be 2442 9a3e 4297 83be
000000e0: 70e1 6dbe c07b 5e3d b0dd 163c 635c eabd
000000f0: c562 37be 8bcc 8c3e b86a 3e3e e3b5 b2bd

flows.2.layers.0.network.2.bias f4 [8]
0.061003838 0.038605027 0.03624897 -0.05061685 -0.19723155 0.00744412 -0.0030075372 0.03924955
00000000: 29df 793d 4e20 1e3d cd79 143d 9d53 4fbd
00000010: 11f7 49be ceed f33b 1a1a 45bb 23c4 203d

flows.2.layers.0.network.4.weight f4 [8, 8]
0.1486928 0.044861995 -0.44674855 0.071854904 0.056691468 -0.05143924 -0.36633304 0.1818153
-0.018793844 -0.019721888 -0.07097256 0.2587856 0.15913989 0.03695364 0.073449336 0.052291434
0.38037926 0.06749783 0.09742381 0.08873952 -0.028103705 0.018477894 -0.12954539 -0.06489166
0.045126848 0.09368472 0.30591387 -0.052116126 0.07204176 -0.100491695 -0.043234136 -0.017677272
0.32331237 -0.119976714 0.16548318 0.2110581 -0.13333286 -0.23014404 0.20809789 0.17127131
0.009921819 -0.043692634 0.056928236 0.17950183 -0.08779027 -0.19884579 0.11678353 0.006229897
-0.5941305 -0.021931585 0.064437084 0.19257365 -0.043082036 0.23604997 -0.061769195 0.089070365
0.05168221 0.18050954 0.36841285 -0.011469179 -0.08813917 -0.11478473 0.035051946 -0.008484073
00000000: ed42 183e 36c1 373d 3abc e4be aa28 933d
00000010: 5035 683d f4b1 52bd 0190 bbbe ca2d 3a3e
00000020: 8cf5 99bc cc8f a1bc 105a 91bd 8c7f 843e
00000030: 91f5 223e b35c 173d 9b6c 963d 8b2f 563d
00000040: 12c1 c23e 4d3c 8a3d 2286 c73d 11bd b53d
00000050: be39 e6bc f45e 973c 8ca7 04be ebe5 84bd
00000060: eed6 383d c6dd bf3d bea0 9c3e b877 55bd
00000070: a18a 933d 97ce cdbd 4716 31bd edcf 90bc
00000080: 3389 a53e 5ab6 f5bd 6c74 293e 9d1f 583e
00000090: 6988 08be e1aa 6bbe 9d17 553e bf61 2f3e
000000a0: 208f 223c 0cf7 32bd 952d 693d 54cf 373e
000000b0: 63cb b3bd 3b9e 4bbe 342c ef3d 2a24 cc3b
000000c0: f018 18bf dea9 b3bc 97f7 833d 0732 453e
000000d0: ca76 30bd 15b7 713e b201 7dbd 866a b63d
000000e0: bab0 533d 7ed7 383e 9ca0 bc3e 39e9 3bbc
000000f0: 4f82 b4bd 4214 ebbd a192 0f3d c800 0bbc

flows.2.layers.0.network.4.bias f4 [8]
0.2899372 0.000723218 -0.07021442 -0.027616838 -0.09939835 0.3851859 -0.22283697 -0.032490794
00000000: a672 943e 5796 3d3a 94cc 8fbd b53c e2bc
00000010: 5d91 cbbd 1637 c53e 602f 64be 1115 05bd

flows.2.layers.0.network.6.weight f4 [2, 8]
-0.05602517 -0.009664604 -0.24164355 0.0021642796 -0.24235192 0.17334203 0.39063668 0.0019337898
0.12870742 0.0028422077 0.015284706 0.0122200055 0.0018922652 0.26068953 -0.30417603 0.0054473244
00000000: a67a 65bd 4a58 1ebc 6871 77be 96d6 0d3b
00000010: 1a2b 78be 9380 313e 8801 c83e 3877 fd3a
00000020: e1cb 033e 5544 3a3b b46c 7a3c 6b36 483c
00000030: e205 f83a 1979 853e f6bc 9bbe 787f b23b

flows.2.layers.0.network.6.bias f4 [2]
0.09923585 -0.113656804
00000000: 2a3c cb3d e6c4 e8bd

flows.2.layers.1.network.0.weight f4 [8, 2]
1.2560927 -0.7252228 -0.3244618 -0.3005433 -0.16621037 -0.22293484 -0.39021012 0.23699395
1.2650944 0.561731 0.39236403 -0.30562228 2.714647 -0.2169343 0.689343 1.9236997
00000000: a5c7 a03f 34a8 39bf db1f a6be d0e0 99be
00000010: 0d33 2abe 0849 64be 9fc9 c7be 8bae 723e
00000020: 9dee a13f 9acd 0f3f f0e3 c83e 867a 9cbe
00000030: c7bc 2d40 0624 5ebe c878 303f cb3b f63f

flows.2.layers.1.network.0.bias f4 [8]
2.1006913 -1.8338223 1.8272909 -0.24059504 -0.9602143 0.012941285 -0.07132708 -0.2982977
00000000: ba71 0640 b0ba eabf abe4 e93f 8c5e 76be
00000010: 9bd0 75bf af07 543c ef13 92bd 7aba 98be

flows.2.layers.1.network.2.weight f4 [8, 8]
0.2273148 0.3401865 0.23919322 -0.6188493 -0.76260626 0.8132559 -0.20259292 0.9208277
0.32066947 -0.3693931 -0.39715308 0.3030011 2.1848583 -0.10945494 0.33596918 1.96402
0.25239775 -0.07627886 -0.10070063 -0.06262883 -0.3645916 -0.39165646 -0.91542584 -0.49278423
-0.20577121 0.78589433 0.44504407 -0.44118902 0.12107881 0.14204246 -0.75365055 0.6464469
-0.03639706 0.29644758 -0.3418683 0.48597357 -0.6110614 -0.6412146 0.38172403 -0.34697556
0.018653966 0.3786852 0.3117212 -0.37196767 -0.53619814 0.16702211 -0.2457222 0.8718685
-0.7498723 0.951607 -0.18693346 -0.090004355 0.37309125 0.35173658 0.8184546 0.45976114
-0.1596633 0.087153144 0.9505339 -0.5288527 -0.23303623 0.21575542 -0.9353513 0.58706146
00000000: 36c5 683e ed2c ae3e 11ef 743e e86c 1ebf
00000010: 2a3a 43bf 8a31 503f 8574 4fbe 5dbb 6b3f
00000020: ca2e a43e 1821 bdbe a657 cbbe f622 9b3e
00000030: b8d4 0b40 e929 e0bd 2704 ac3e 0265 fb3f
00000040: 473a 813e 1738 9cbd 223c cebd 8b43 80bd
00000050: c0ab babe 3287 c8be 5959 6abf 374e fcbe
00000060: b0b5 52be 5f30 493f d1dc e33e 87e3 e1be
00000070: 2bf8 f73d 9473 113e 3eef 40bf 8b7d 253f
00000080: 1515 15bd fac7 973e 5d09 afbe 87d1 f83e
00000090: 856e 1cbf a426 24bf 5571 c33e c8a6 b1be
000000a0: 34d0 983c 07e3 c13e ec99 9f3e 8c72 bebe
000000b0: 4844 09bf d807 2b3e 9a9e 7bbe c632 5f3f
000000c0: a2f7 3fbf 849c 733f 7c6b 3fbe 3454 b8bd
000000d0: d105 bf3e d116 b43e 3e86 513f d065 eb3e
000000e0: c77e 23be 597d b23d 3156 733f e462 07bf
000000f0: 0da1 6ebe fdee 5c3e 2f73 6fbf a949 163f

flows.2.layers.1.network.2.bias f4 [8]
-0.38006017 -0.023566885 0.2957856 0.24753852 0.22373572 -0.120015904 0.44878137 0.32647496
00000000: 3f97 c2be 570f c1bc 3671 973e bd7a 7d3e
00000010: fa1a 653e e6ca f5bd acc6 e53e ba27 a73e

flows.2.layers.1.network.4.weight f4 [8, 8]
1.8190662 -0.9755907 0.22214755 -0.06628601 -0.2746139 0.91524357 -0.6633226 0.39771953
-0.1579016 -0.30412737 -0.103751376 0.10448344 -0.01175457 0.19574247 0.45205584 0.11659529
0.18486345 0.36488435 0.22933313 -0.01752475 -0.045541517 -0.19094718 -0.38806623 -0.05084366
-0.030955479 -0.122381195 -0.31153128 -0.033541515 0.08292734 0.08721204 0.06935617 0.3193205
-0.18695202 -0.57103366 -0.118164934 0.19211128 0.1785329 -0.3257673 0.7479533 0.35384434
-0.1560317 0.1758374 -0.7121735 -0.6499196 -0.24407467 -0.6965725 0.5014286 -0.38659853
0.08132663 0.056870606 0.08946534 -0.049281076 0.034736242 0.04122362 0.03961278 -0.13666892
0.47891554 0.5314988 0.09808602 0.93273664 -0.7477679 0.43404073 0.21870025 0.5262364
00000000: 29d7 e83f 50c0 79bf a67a 633e f6c0 87bd
00000010: 319a 8cbe 674d 6a3f 83cf 29bf e5a1 cb3e
00000020: f5b0 21be 95b6 9bbe 9a7b d4bd 6afb d53d
00000030: 3d96 40bc b770 483e dd73 e73e 83c9 ee3d
00000040: d84c 3d3e 1fd2 ba3e 4ed6 6a3e 1190 8fbc
00000050: be89 3abd a887 43be 9eb0 c6be 7141 50bd
00000060: 5896 fdbc fea2 fabd 0781 9fbe d462 09bd
00000070: cfd5 a93d 3a9c b23d 9c0a 8e3d fa7d a33e
00000080: 5a70 3fbe 432f 12bf 7500 f2bd d2b8 443e
00000090: 54d1 363e f9ca a6be de79 3f3f 162b b53e
000000a0: c6c6 1fbe b80e 343e 0151 36bf 2261 26bf
000000b0: b6ee 79be 9352 32bf a05d 003f 3ef0 c5be
000000c0: 948e a63d 27f1 683d 9b39 b73d f4da 49bd
000000d0: 9747 0e3d 19da 283d 0341 223d f0f2 0bbe
000000e0: 6b34 f53e 4e10 083f 53e1 c83d d4c7 6e3f
000000f0: b86d 3fbf 963a de3e f5f2 5f3e 6eb7 063f

flows.2.layers.1.network.4.bias f4 [8]
0.3326096 0.13213341 -0.17782123 -0.07940945 0.027556235 -0.12335683 0.069412574 0.14027075
00000000: ce4b aa3e fb4d 073e c516 36be 6ca1 a2bd
00000010: 9dbd e13c 81a2 fcbd 2e28 8e3d 23a3 0f3e

flows.2.layers.1.network.6.weight f4 [2, 8]
0.40620318 0.03481346 -0.08240751 -0.0006966739 0.26893985 -0.3771573 -0.013558414 -0.09565567
-0.17141998 -0.049423896 0.09737613 -0.011731485 -0.30051404 -0.072181866 -0.011974575 -0.21914858
00000000: ddf9 cf3e 8f98 0e3d 45c5 a8bd fea0 36ba
00000010: 7cb2 893e c31a c1be 1c24 5ebc 1fe7 c3bd
00000020: b888 2fbe b670 4abd 236d c73d 6a35 40bc
00000030: fadc 99be 16d4 93bd 0231 44bc 7c68 60be

flows.2.layers.1.network.6.bias f4 [2]
0.27987888 -0.18438305
00000000: 494c 8f3e e9ce 3cbe

flows.2.layers.2.network.0.weight f4 [8, 3]
1.993289 -0.91808987 1.080622 1.0295471 0.94852716 0.30150923 -0.99693817 -0.03506375
-0.4310229 -1.1407964 -0.10221123 0.7997618 0.4359077 0.09379044 -0.4652175 0.026740724
-0.5024819 -0.57736146 0.7515652 -0.49069378 -0.20859142 -0.48610333 -0.13117813 -1.8380536
00000000: 1824 ff3f f007 6bbf d251 8a3f 33c8 833f
00000010: add2 723f 6b5f 9a3e 5737 7fbf 029f 0fbd
00000020: 09af dcbe 9e05 92bf 1f54 d1bd 30bd 4c3f
00000030: 4b2f df3e 3415 c03d fd30 eebe 5d0f db3c
00000040: a7a2 00bf f6cd 13bf 9466 403f 373c fbbe
00000050: fd98 55be 89e2 f8be 8f53 06be 5745 ebbf

flows.2.layers.2.network.0.bias f4 [8]
0.27303156 -0.9217414 -0.2522105 0.8693453 1.0457329 -0.5261624 0.14991188 -0.074573554
00000000: cbca 8b3e 3ff7 6bbf bc21 81be 6a8d 5e3f
00000010: 93da 853f 94b2 06bf 8082 193e 05ba 98bd

flows.2.layers.2.network.2.weight f4 [8, 8]
-0.41567102 -0.03758055 -0.96752113 0.36764002 -0.26354584 0.4935622 -0.29685646 -0.010063615
0.24057232 -0.56409025 -0.21011528 0.51706666 -0.58685863 -0.30025864 1.1339457 -0.5201967
0.50602853 0.033425085 -0.71057385 -0.37266323 -0.311354 -0.23752907 -0.48417997 0.20270129
0.8118856 0.1005916 0.57002467 0.14502595 -0.10466822 -0.20895486 -0.13257776 0.51863545
0.61565924 0.4191496 -0.5096258 -0.44102785 0.029455828 -0.021631539 -0.65807486 0.38216436
-0.14436658 -0.24453004 -0.6269645 0.56404155 0.75271535 -0.6635153 -0.35726264 0.17220262
0.14380796 -0.8697852 -0.57970166 0.06333059 -0.035023026 -1.3117139 -0.7467987 -1.1982011
0.017680839 0.54376596 -0.1287961 -0.48829302 -0.58760226 -0.16854544 -0.41854295 -0.2879173
00000000: d5d2 d4be 10ee 19bd 77af 77bf 503b bc3e
00000010: 7bef 86be 2fb4 fc3e 92fd 97be dce1 24bc
00000020: 9758 763e 3868 10bf 7628 57be 7b5e 043f
00000030: 5e3c 16bf 80bb 99be 2225 913f 9c2b 05bf
00000040: 168b 013f bee8 083d 2be8 35bf b7cd bebe
00000050: cb69 9fbe d23a 73be 70e6 f7be ed90 4f3e
00000060: bcd7 4f3f f802 ce3d 23ed 113f af81 143e
00000070: 4b5c d6bd 43f8 55be 77c2 07be 4bc5 043f
00000080: d89b 1d3f c79a d63e d676 02bf 67ce e1be
00000090: 594d f13c a034 b1bc 9877 28bf 0cab c33e
000000a0: d5d4 13be 1566 7abe bf80 20bf 0765 103f
000000b0: f4b1 403f 24dc 29bf 21eb b6be e255 303e
000000c0: 6542 133e 3eaa 5ebf 5467 14bf 78b3 813d
000000d0: 4e74 0fbd 3ee6 a7bf 332e 3fbf a75e 99bf
000000e0: 68d7 903c 3f34 0b3f 20e3 03be 8b01 fabe
000000f0: 1a6d 16bf 2d97 2cbe 434b d6be e569 93be

flows.2.layers.2.network.2.bias f4 [8]
-0.16386312 0.31500062 0.3288504 -0.0074894633 -0.051548775 0.44146267 -0.19143109 -0.4942127
00000000: bccb 27be c347 a13e 145f a83e 2c6a f5bb
00000010: cf24 53bd 6507 e23e 8306 44be 7209 fdbe

flows.2.layers.2.network.4.weight f4 [8, 8]
0.046418563 0.04148153 -0.18382156 0.40448543 0.03958456 -0.008540978 -0.0008500574 0.2783296
-0.27741253 0.20212254 0.036211938 -0.049235784 0.28372124 -0.19739585 -0.009420038 0.16038221
-0.19709472 0.38430005 0.13073382 -0.13932851 -0.22283244 0.39933068 0.7040968 0.23055524
-0.4997175 0.45097905 -0.5790126 0.4488394 -1.1438946 -0.05309356 -0.005840229 -0.68020386
0.3237155 0.10781351 0.46237367 -0.3438373 -0.19482623 0.57863337 0.37013403 0.28788516
0.2076069 -0.17927015 -0.16834012 0.18444255 -0.06071436 -0.09240932 0.17991748 0.03629533
-0.5377125 0.36875963 0.6192135 0.88928807 0.795811 0.10561997 0.096602365 -0.019746548
0.03240424 -0.23857602 -0.638245 -0.028709508 -0.19137853 -0.36417255 -0.27235702 -0.12316494
00000000: 6421 3e3d 89e8 293d b83b 3cbe b718 cf3e
00000010: 6b23 223d 75ef 0bbc 63d6 5eba 3881 8e3e
00000020: 0409 8ebe 36f9 4e3e f852 143d 76ab 49bd
00000030: e943 913e 2322 4abe 8156 1abc 3c3b 243e
00000040: 33d3 49be fac2 c43e 16df 053e 22ac 0ebe
00000050: 302e 64be 1275 cc3e b03f 343f ac16 6c3e
00000060: f9da ffbe bae6 e63e 2b3a 14bf 47ce e53e
00000070: 236b 92bf a278 59bd 645f bfbb d721 2ebf
00000080: 0abe a53e 54cd dc3d 3ebc ec3e 710b b0be
00000090: 8780 47be 5121 143f 3582 bd3e af65 933e
000000a0: e796 543e 9892 37be 5a61 2cbe 82de 3c3e
000000b0: 9faf 78bd 1941 bdbd 4a3c 383e 69aa 143d
000000c0: 87a7 09bf 10ce bc3e c784 1e3f 62a8 633f
000000d0: 45ba 4b3f 484f d83d 76d7 c53d 83c3 a1bc
000000e0: 4fba 043d 464d 74be 0664 23bf 3430 ebbc
000000f0: bcf8 43be d374 babe 6172 8bbe e63d fcbd

flows.2.layers.2.network.4.bias f4 [8]
0.17231406 0.21814041 -0.16606097 0.12422354 0.09181209 0.11493033 0.24498093 -0.018580062
00000000: 1973 303e 3360 5f3e e30b 2abe e968 fe3d
00000010: fa07 bc3d 9860 eb3d 48dc 7a3e 3735 98bc

flows.2.layers.2.network.6.weight f4 [2, 8]
0.0076263216 0.011677879 -0.36206573 0.011004198 -0.26939657 0.009481582 -0.07321816 0.29156625
0.0037431677 0.035215694 0.3215909 -0.4567492 0.014231485 -0.02212822 0.26469353 -0.32346645
00000000: 39e6 f93b 9354 3f3c ae60 b9be f44a 343c
00000010: 59ee 89be a358 1b3c 67f3 95bd 2c48 953e
00000020: ef4f 753b 553e 103d 90a7 a43e 08db e9be
00000030: 2d2b 693c 3e46 b5bc e985 873e 659d a5be

flows.2.layers.2.network.6.bias f4 [2]
-0.24752113 -0.31869906
00000000: 2e76 7dbe 862c a3be
