data/models/MAF_crossroads_ego_right_turn_bv_on_left_best.pth (torch, 49949 bytes, 100 tensors)

flows.0.initial_param f4 [2]
00000000: 82dc f03e b626 24be
0.47043234 -0.16030392

flows.0.layers.0.network.0.weight f4 [8, 1]
00000000: ff93 19bd 6c8b d9bd 4d57 75bf 93be 36bf
00000010: 3593 38bf f4fe d33e 490c abbd 4f41 313f
-0.037494656 -0.10622296 -0.95836335 -0.71384543 -0.7209962 0.4140545 -0.083519526 0.6924028

flows.0.layers.0.network.0.bias f4 [8]
00000000: 79dd 8bbe bcc4 e4bd c9ea cfbe 87f2 cbbd
00000010: de5a 44bf d907 ffbe 5a6a e5bd 4654 f0bd
-0.27317408 -0.111703366 -0.40608814 -0.09958368 -0.7670115 -0.49810675 -0.112019256 -0.11734824

flows.0.layers.0.network.2.weight f4 [8, 8]
00000000: 82ba 06bf 0b4e a7bc 147b b3bc 88a9 0a3d
00000010: b969 8b3d ba22 ab3d 4c74 2cbe 4a0b cf3d
00000020: 8990 493c d5bd 0fbe 4123 063f d242 0abe
00000030: 8fc2 d4bd dd52 1cbd 7c6d 8dbc 3616 2a3e
00000040: 39eb 05bf 428b 04bf 2e72 883e f969 bfbc
00000050: 5155 233d 31e3 123f 05b7 0f3e c96f 9e3d
00000060: 4251 a9be fe89 8cbe 731c 1c3e 37fd 4ebe
00000070: e21b f6bd 9266 83be 7978 5c3e a2d1 c13d
00000080: 1106 8abe 0f7d cdbd 364d 943e efba ea3e
00000090: bb74 80bd 867e 97be cb28 b6bb 6dcf cebe
000000a0: 4d75 afbd 261a 87be 2ae5 2abe 9bec aabb
000000b0: e989 ec3d 59a1 87bd 7cef e6bd 6d23 4bbe
000000c0: aae8 1d3d 8431 693d b594 d1bd 2085 e53c
000000d0: 8614 ec3b 231b 6f3e d55d b2be 2bfe 61be
000000e0: 0f1a 243f 08b6 e33e f900 7e3f c405 303f
000000f0: a902 d43e 6518 76be d4dd dd3e 30eb d9be
-0.5262834 -0.020422956 -0.021909274 0.033853084 0.06807274 0.08356233 -0.16841239 0.10109575
0.012302526 -0.14037259 0.52397543 -0.13502052 -0.103886716 -0.038164962 -0.01726412 0.16610035
-0.52312046 -0.5177499 0.26649612 -0.023365961 0.039876286 0.57377917 0.1403466 0.07736165
-0.33069807 -0.2744903 0.15245228 -0.20213781 -0.12017037 -0.25664192 0.21530332 0.094638124
-0.26957753 -0.10033619 0.28965157 0.45845744 -0.062722646 -0.29588717 -0.005559062 -0.40392628
-0.08567295 -0.26387137 -0.16688982 -0.005216194 0.11549742 -0.066225715 -0.11276147 -0.19837733
0.038551964 0.056931987 -0.10233442 0.02801758 0.007204595 0.23350196 -0.34837213 -0.22069614
0.6410226 0.44474816 0.99220234 0.687588 0.4140828 -0.24032743 0.43333304 -0.42562246

flows.0.layers.0.network.2.bias f4 [8]
00000000: face 2cbe cfa2 513e a993 fc3d b2c4 a2be
00000010: 1e7c 9d3e c124 63bd fa8c 383d 1785 aebe
-0.1687583 0.20472263 0.123328514 -0.31790692 0.30758756 -0.055454973 0.04505632 -0.34085914

flows.0.layers.0.network.4.weight f4 [8, 8]
00000000: eadc b13d 33af 8cbe bb96 61bc 1a36 d33d
00000010: 7ab3 c23e c1d3 dabd 4b2c d6be e574 62be
00000020: db93 1f3e 39a7 fbbd 7489 d6be 0979 5fbe
00000030: 4349 d63e a838 7a3d 7b03 2ebe 85bd f5bd
00000040: 7f28 a6bd 1e71 f8bd 1b97 6cbe 573b 13be
00000050: bb36 51be d0e9 1a3e 1dfa dcbd 3cae 23bc
00000060: fa44 f63d 8367 35bd f5b7 57bd 3234 62bb
00000070: 00a9 82be 8e76 3e3c 0036 55be 4660 66bc
00000080: 72aa a23e 67eb 15bd b5ee 5dbe b670 2b3e
00000090: fcfe fabe a12a bb3d 6f66 923d 76d5 ffbe
000000a0: 5d2d 8b3e a8b5 76be 173b 803e f1e6 873e
000000b0: ff60 fbbe 7098 3fbd a9ba 293d 9f61 9cbe
000000c0: 640d 713d b9c7 20be 06b6 00be 1a21 a23e
000000d0: e7e2 ba3e ef19 ed3d ff80 943e 64f4 2fbe
000000e0: c88c a0be 3391 13bd ee47 e73e d89c 48bd
000000f0: b8da 86be a93e 27be fffa 9cbe f38d 78be
0.08684714 -0.27477416 -0.013768847 0.103130534 0.38027555 -0.1068492 -0.41830668 -0.22114904
0.15583746 -0.122877546 -0.41901743 -0.21823515 0.4185277 0.061089188 -0.16993515 -0.119990386
-0.08113193 -0.121309504 -0.23104517 -0.14378105 -0.20431034 0.15128255 -0.10789893 -0.009990271
0.12024875 -0.04428817 -0.05266567 -0.0034515974 -0.25519562 0.011624945 -0.2082138 -0.014061039
0.31770664 -0.03660145 -0.21673091 0.16742215 -0.49022663 0.0913899 0.07148444 -0.49967545
0.27183047 -0.24092734 0.25045082 0.26543382 -0.4909744 -0.046776235 0.04143778 -0.3054323
0.05885066 -0.15701188 -0.12569436 0.3166588 0.36501238 0.11577212 0.29004666 -0.17183071
-0.31357408 -0.036027145 0.45172065 -0.048977703 -0.26338744 -0.16332497 -0.30660245 -0.242729

flows.0.layers.0.network.4.bias f4 [8]
00000000: 4d1f 40bd 859f 0c3e 3d4b 7fbd 8d00 17bf
00000010: 0548 b23d 3e58 debe 53b7 5dbd a100 23be
-0.04690485 0.13732727 -0.062327612 -0.58985215 0.08705143 -0.43426698 -0.05412991 -0.15918209

flows.0.layers.0.network.6.weight f4 [2, 8]
00000000: 9b7b 9b3e 06c4 523e be60 25be 719a 8cbe
00000010: 6b6e 56be 6d2c c3be cdf8 803e 26d2 24be
00000020: 3fc9 b7bd 155b 63bd c14d 803d dd4e 24be
00000030: d972 b13e e545 5c3e 7b2f 01be 22c2 293e
0.3036774 0.2058259 -0.16150185 -0.2746158 -0.20940559 -0.38119832 0.2518982 -0.1609579
-0.089739315 -0.055506784 0.062648304 -0.16045709 0.34657934 0.21511038 -0.12615769 0.16577962

flows.0.layers.0.network.6.bias f4 [2]
00000000: 0d79 a53e c95e f4bd
0.32318917 -0.11932141

flows.0.layers.1.network.0.weight f4 [8, 2]
00000000: 8165 af3f 5af3 09bf 3752 0c3f 84b1 fcbe
00000010: 410c 653f e4d0 6ebe 4a62 643e 7f15 0e3f
00000020: 1a59 bbbf e72a 12bf f78b 29bf b475 883f
00000030: 6ba2 2c40 2530 023f ce6f 37bf d96b bcbc
1.3702852 -0.5388695 0.5481295 -0.49354184 0.8947182 -0.23321873 0.2230312 0.5550155
-1.4636567 -0.57096714 -0.66229194 1.066092 2.6974132 0.5085471 -0.71654975 -0.023000645

flows.0.layers.1.network.0.bias f4 [8]
00000000: ef7a ecbd 8b63 df3d 993d 0d3f 79a3 103f
00000010: ee0d 61bf 9309 b83d 9d16 8d3e cc4e a63e
-0.11546885 0.10907658 0.55172116 0.5649944 -0.8791188 0.08986201 0.27556315 0.32481992

flows.0.layers.1.network.2.weight f4 [8, 8]
00000000: 550e 54bf 89b8 debe b54a fdbe 4627 e03d
00000010: 47e9 203c ef26 b23f 4724 e43d 3ff3 a93e
00000020: 2d73 e6be 70b9 923e 279f 443e bc4a 13bf
00000030: 56ee e43e b5cb b83e 4b15 cfbf 6321 483e
00000040: 580e 1a3f aaa1 0dbf f18f 4ebe b6ed 573f
00000050: 3d02 a03d 903e b53e 6b37 cbbe e0ab c1bc
00000060: 86b1 47bf 24fa cabe d430 9fbf b5cd 05bf
00000070: fb4e 263f f6fd 973e 0086 47bf 50ce 073f
00000080: 969b 02bc 03f7 9bbe cbad 593e 90c2 ecbe
00000090: b2d2 33be 8171 90be 9f72 a83d 5526 f73e
000000a0: e9e8 4ebf a505 5f3e 922c 463e 8617 76bf
000000b0: 70bb 483f 5213 03be e92a ebbe 3cae d13d
000000c0: 2915 abbe 40b3 23bc 4ecd d63e c314 9dbe
000000d0: 33b5 cbbe f824 4ebf d507 04bf ea80 7b3e
000000e0: c921 39bd d646 8dbe d46c 1c3f e29a 6e3f
000000f0: 2f93 143e 9a43 923f 706e 23be 47c6 5bbd
-0.8283437 -0.43500164 -0.4947106 0.10944991 0.009821243 1.3918132 0.11139732 0.33193395
-0.45009747 0.28657103 0.19201337 -0.5753591 0.44713086 0.36092916 -1.6178373 0.19543986
0.60178137 -0.55324805 -0.20172097 0.84347093 0.07812927 0.35399294 -0.39690718 -0.023641527
-0.78005254 -0.39643967 -1.2436776 -0.5226701 0.64964265 0.29685944 -0.7793884 0.5304918
-0.007971665 -0.30461892 0.21257703 -0.4624219 -0.17560843 -0.28211597 0.08224987 0.48271433
-0.8082414 0.21779497 0.1935294 -0.96129644 0.78411007 -0.12800339 -0.45931175 0.10238311
-0.3341458 -0.009991467 0.4195351 -0.30679902 -0.39786682 -0.8052516 -0.5157445 0.24560896
-0.045198236 -0.27593106 0.6110356 0.9320508 0.14509271 1.142688 -0.15960097 -0.05365589

flows.0.layers.1.network.2.bias f4 [8]
00000000: 8585 2abe c721 493e ee70 923e 119d 6cbc
00000010: cf0e 81bd 64c4 62be 000d bebe 1669 0f3f
-0.16652496 0.19641791 0.28601784 -0.014441744 -0.06301653 -0.2214523 -0.37119293 0.56019723

flows.0.layers.1.network.4.weight f4 [8, 8]
00000000: f7cc 423e 8f80 fdbd a4f9 68be 1a12 31be
00000010: 3968 723e 7789 c73e c590 abbe b0fd 05bf
00000020: 0c82 0f3e d7db 693f 902c 08be a396 2e3f
00000030: 1527 633e 826f 4e3f c589 163f 5c98 3fbf
00000040: 8dcc 39bf 344f d2bd 05f6 99bd d964 b9be
00000050: 658c aa3a 1f8b 05bf 46dc a43e 001a 04bf
00000060: 0bf1 7fbd 1625 34be 2d18 38bf 0c3e 5dbc
00000070: b767 c93e 6723 a23c cf73 ff3e 1ecb 40bf
00000080: 5786 013e 135b 683e 164d 85be adba 703d
00000090: cda5 493e bac7 e0bd e8ab 10be 6529 0bbe
000000a0: 1cdf b7bd 375c 183f 90c0 9fbd 12f6 1e3e
000000b0: 771b fc3e 0b17 bf3e c6d2 ca3e 9fe3 77bd
000000c0: 9305 67be dc41 15bd fa82 093f a716 8b3e
000000d0: 8922 c3be 55b7 613d 961d 89bd c9a7 1dbc
000000e0: 0fdf b7bf 5fa8 70bd a9c2 aa3f ef4d 873e
000000f0: 9fa1 1ebf db91 0e3f ec4d a0be 4cc1 f63e
0.190235 -0.12378036 -0.2275148 -0.17292061 0.2367257 0.38972065 -0.33508888 -0.5234022
0.14014453 0.91351074 -0.13298249 0.68198603 0.22182877 0.806389 0.5880397 -0.74841857
-0.72577745 -0.10269013 -0.075176276 -0.36209753 0.0013011812 -0.52165407 0.32199305 -0.5160217
-0.062485736 -0.17592272 -0.7191189 -0.013503563 0.3933694 0.019792272 0.49893042 -0.7530993
0.12648903 0.22690992 -0.26035374 0.058771778 0.19692154 -0.10975595 -0.14128077 -0.1359001
-0.089781016 0.5951571 -0.078004 0.15523556 0.49239704 0.37322268 0.39613932 -0.06051981
-0.2256072 -0.03643976 0.5371548 0.2716572 -0.38112286 0.05510648 -0.06695096 -0.009622523
-1.4364947 -0.05875432 1.3340656 0.26426646 -0.61965364 0.5569131 -0.3130945 0.4819435

flows.0.layers.1.network.4.bias f4 [8]
00000000: 63db 783e 9c6e 7a3e 61cc 04be e41a 30bd
00000010: f573 d03e 4bbc b43e 6d3e 9ebe 5afa ce3e
0.2430244 0.24456257 -0.1296859 -0.042994395 0.40713468 0.35299906 -0.30907002 0.40425378

flows.0.layers.1.network.6.weight f4 [2, 8]
00000000: f408 62bc 9242 d13e 4e5d 87be f153 2f3e
00000010: 32e3 4d3d 12a5 a53e aeab e9bd bd85 973b
00000020: f503 9dbe 333d 893d d04a 9b3d deeb ecbb
00000030: aba8 59be e50f f2bd 114c 4d3e 4588 37bf
-0.01379608 0.40871102 -0.26438373 0.17121865 0.0502655 0.323525 -0.114096984 0.004624097
-0.3066708 0.06701126 0.07582629 -0.007230266 -0.21255748 -0.11819438 0.20048548 -0.71692306

flows.0.layers.1.network.6.bias f4 [2]
00000000: 121f 6ebe 7278 c23d
-0.2325404 0.09495629

flows.0.layers.2.network.0.weight f4 [8, 3]
00000000: a92d a13e 9ad7 833f ee5f 913f 9f3b d0bf
00000010: 9e7f c23d cb6f 2d3e 4647 b3be 76f3 083f
00000020: b77a 23bf b421 c9bf 527e 82bf 5b30 86bf
00000030: 7125 1d3f edac 633f ff7b 3fbe ad02 4a3f
00000040: 189d e23e 9127 d5be acf7 543f ac5b eb3e
00000050: 00fe 04bf 824b 653f 86e5 88bd 6228 ad3e
0.31480148 1.0300171 1.13574 -1.6268195 0.09496997 0.16937177 -0.35015315 0.5349649
-0.63859123 -1.571341 -1.01948 -1.0483507 0.61385256 0.8893574 -0.18699645 0.7891033
0.44260478 -0.4163175 0.8319042 0.45968378 -0.51950073 0.8956834 -0.06684403 0.33819872

flows.0.layers.2.network.0.bias f4 [8]
00000000: 5947 c0be 6a8a a13e 8ab6 29bd bbeb e93e
00000010: a71f 9dbf a644 27bf 5972 20bf bf83 a23e
-0.37554434 0.31550914 -0.04143385 0.4568766 -1.2275285 -0.65339124 -0.6267448 0.3174114

flows.0.layers.2.network.2.weight f4 [8, 8]
00000000: 292e 723e e666 a4be 50b5 b1be f60f ba3e
00000010: 8be5 023e 9d7c a83e 0b49 713d 87b3 b23e
00000020: 89f4 dc3e ed64 90bd d2c5 793f 994b 753e
00000030: ebbb b9bd 1334 7f3d 3e96 9cbe fcfe 87be
00000040: fcf5 093f 53bf 55bd 635b 38bf 5fe0 afbd
00000050: 3038 83be e72e 01be 21ed 78bd e9bf 093f
00000060: aec8 1bbf e6e2 23be b532 35bd f68f 143e
00000070: 12a9 ca3e 4843 a7be ed6c c4bb fdef 45bd
00000080: ba74 ac3e 9959 393f 8575 b7be e441 933e
00000090: ea0a 2d3d 05a2 1dbf dbbd 30bf 3c38 82be
000000a0: 7475 6bbe 6fa5 bfbc 1cb2 cf3e 34e3 07be
000000b0: 8077 fcbe fd89 0fbf 84a8 adbe b14f 2e3e
000000c0: 3cb4 a3be f935 493e f1b2 73be 33cf 553e
000000d0: 538c 213e f746 cbbd ebff ed3e fbe8 7a3e
000000e0: b37a 4a3f 0724 203f 6a84 b3bf 26c4 ef3e
000000f0: de68 403f a6dd 793d 878e 4dbe 442b babe
0.23650421 -0.32109755 -0.34708643 0.36340302 0.12782876 0.32907572 0.05890755 0.34902593
0.43155316 -0.070505 0.97567475 0.2395462 -0.09069046 0.06230552 -0.30583376 -0.26561725
0.5389097 -0.052184414 -0.72014445 -0.08587717 -0.25628805 -0.12615548 -0.06077302 0.53808457
-0.6085309 -0.16004524 -0.04423781 0.14508042 0.39582115 -0.3266852 -0.0059944303 -0.048324574
0.33682805 0.7240234 -0.35831848 0.28761208 0.042246737 -0.6157535 -0.69039696 -0.25433528
-0.22994024 -0.023394315 0.40565574 -0.13270265 -0.4930992 -0.5606993 -0.3391763 0.17022587
-0.31973445 0.19649495 -0.2379873 0.20879821 0.15776186 -0.09925645 0.46484312 0.24502937
0.79093474 0.62554973 -1.4024785 0.46829337 0.75160015 0.061002396 -0.20073901 -0.36361134

flows.0.layers.2.network.2.bias f4 [8]
00000000: 5dd7 07bf 940f 68bd 0124 923d 5781 13be
00000010: 418b 193e b13f 713e 2d35 b8bd bb6e dbbe
-0.53062993 -0.05665548 0.071357735 -0.14404808 0.14994527 0.23559453 -0.089945175 -0.42857918

flows.0.layers.2.network.4.weight f4 [8, 8]
00000000: 14a1 2ebf 81b6 20bc a3de a53d b932 813e
00000010: 9504 aa3e 66b7 46bb eee0 5fbd 06ab 20bf
00000020: b913 14bf 7ae0 ec3e 5cb4 8dbe a5e0 b63e
00000030: 8783 d43e 8225 8dbe 0add 69be b142 b63e
00000040: f66c 30bd 468d 813d aa3d 7c3e 6e3b a0bc
00000050: 8835 a6be 2afc 783e 4b3f d0bd e41b 9cbe
00000060: b0ae 083e bd13 5a3d b4f0 6cbb 70c7 27be
00000070: 0445 46be f991 d03e e261 0fbe 68fd 193e
00000080: 7999 cebb ac7a d73e bd12 e0bc 727b 253f
00000090: a474 343f ae70 19bf c910 ef3e 6d98 013f
000000a0: a3de fcbd b030 343c c9d8 34bd 4a20 2f3d
000000b0: 9914 84be a5bc 5bbc 319e c6bd ecad 263e
000000c0: 0ad5 f6be 354d 8d3d c107 1b3e 0701 ed3b
000000d0: 17ad 5f3e 7128 1cbd df07 7c3c db1b d4be
000000e0: 8993 54bd 0ed8 17be f44e 453e 74ce 81bd
000000f0: c5fb 9bbe dd16 35be 4b79 c23e 0adb b23e
-0.68214536 -0.009809137 0.08099105 0.2523401 0.3320662 -0.0030321716 -0.05465787 -0.6276096
-0.57842594 0.46265012 -0.27676666 0.35718265 0.41506597 -0.2756768 -0.22838226 0.35597757
-0.043072663 0.06325774 0.24632898 -0.019559588 -0.32462716 0.24314943 -0.10168322 -0.3049003
0.13347888 0.05324148 -0.0036154212 -0.16384673 -0.19362265 0.40736368 -0.14002183 0.15038073
-0.0063049165 0.4208578 -0.027352685 0.6464149 0.7049048 -0.5993756 0.46692494 0.5062321
-0.12347152 0.010997936 -0.044152055 0.042755403 -0.25796965 -0.013411676 -0.09698141 0.16277283
-0.4820941 0.06899492 0.15139677 0.0072327885 0.21843372 -0.038124505 0.015382736 -0.41427502
-0.051898513 -0.14828512 0.192684 -0.06338206 -0.30465522 -0.17684503 0.37983164 0.3493274

flows.0.layers.2.network.4.bias f4 [8]
00000000: 518d c93c 7279 e6be a7ab 2abe d845 0d3d
00000010: 5da7 c9be bf80 aabe 2b02 993d 91e0 b5bd
0.024603518 -0.4501453 -0.16667043 0.034490436 -0.393855 -0.3330135 0.07471117 -0.08880723

flows.0.layers.2.network.6.weight f4 [2, 8]
00000000: c9d2 fdbd aa29 f83d b1e3 dfbd da90 6cbd
00000010: b9b6 203e b86b 1d3e 1b5d ebbd 8bee be3d
00000020: 464a 07bf 8b99 0f3f bc81 0ebf 293a 9bbe
00000030: 0c64 223f 08e1 e43e 17db 09bf 57c3 d33e
-0.1239372 0.12117322 -0.109321006 -0.05775533 0.15694703 0.15373123 -0.11492368 0.09322842
-0.5284771 0.5609366 -0.5566671 -0.3031781 0.6343391 0.44702935 -0.5384993 0.4135997

flows.0.layers.2.network.6.bias f4 [2]
00000000: 137e a7be f360 44be
-0.32713374 -0.19177608

flows.1.initial_param f4 [2]
00000000: 16d1 56bf 232f 18bf
-0.8391279 -0.59446925

flows.1.layers.0.network.0.weight f4 [8, 1]
00000000: 1bff c83d 2bf5 11be 31c6 edbe 12e5 1f3f
00000010: c66c 2dbf d5ef 0cbe 7427 17be cb25 0ebe
0.098142825 -0.1425368 -0.4644027 0.6245891 -0.677441 -0.13763364 -0.14761144 -0.13881604

flows.1.layers.0.network.0.bias f4 [8]
00000000: ce91 593f 6aa7 823f 3bd2 003f ea30 3d3f
00000010: f1ef 17bf 860b 1fbf 7dca 2ebe 748f 773f
0.84988105 1.0207341 0.50320786 0.7390276 -0.59350497 -0.6212696 -0.1706943 0.9670327

flows.1.layers.0.network.2.weight f4 [8, 8]
00000000: 8e57 e4bc eab2 1bbe a08c b23e af66 4bbe
00000010: dee9 a43e ece9 ccbe 2e0e e33d a26d 023e
00000020: 61e3 653c 5e0c ebbd 5e65 033e 1b85 b1bf
00000030: 53a8 533f dd98 5f3e 82fe 6a3e ae4e 99be
00000040: e1be 9ebe 4aee e23e ef3b 7c3e 0f4b 1d3f
00000050: e6a7 15bf 7b4c a03e 8243 ac3e 2965 bb3e
00000060: d43a 4dbe a293 e0bd bff1 85be 4f4d 813f
00000070: a6e1 bfbe 498c 78be 5b48 923d 419f e8bd
00000080: 439a 89be 4854 7dbc 8203 22bc be0e bdbf
00000090: d188 2a3f 6f40 a9bd e906 a73e a7dc 813e
000000a0: ba6a 443e 8e8e 163e 5f4f ee3e 45df 1cbf
000000b0: 494a a43e aef3 953e 5ded b53e 1839 9fbe
000000c0: 0b6b f5bc 4fcb b1bd 801f f53e fee8 c3be
000000d0: 4af9 24be dbc1 f8bd 5a40 cd3e c20e 683e
000000e0: 41b0 92bd e9aa 6bbe ca4b 13bd 774e 92be
000000f0: 8fa8 41bd a050 e2bd d101 30bc 2a6a 8c3b
-0.02787378 -0.15204969 0.34872913 -0.1986339 0.32209677 -0.40022218 0.11086689 0.12737134
0.014031262 -0.11476968 0.12831637 -1.3868746 0.8267872 0.21835656 0.2294865 -0.2994284
-0.31005004 0.44322425 0.24632238 0.61442655 -0.5845932 0.3130835 0.33645254 0.36600617
-0.20041972 -0.10965659 -0.26161 1.0101718 -0.37476844 -0.24272265 0.07142707 -0.113585
-0.26875505 -0.015461989 -0.009888532 -1.4770124 0.66615015 -0.08264243 0.3262246 0.25363657
0.19181338 0.14702818 0.4654493 -0.6127818 0.32087925 0.29287475 0.35532656 -0.31098247
-0.029958269 -0.08681356 0.47875595 -0.38263696 -0.16110721 -0.1214635 0.4008816 0.2266188
-0.07162524 -0.23014416 -0.03596095 -0.2857549 -0.04727989 -0.11050534 -0.010742621 0.0042851167

flows.1.layers.0.network.2.bias f4 [8]
00000000: 8236 81be 0627 273d 011c a73c 70e2 d33d
00000010: 8db1 a2be 0efa 8c3e c4bc 10be 7e9e 6b3e
-0.252369 0.0408087 0.020399095 0.10345924 -0.31776085 0.27534527 -0.14134508 0.23009679

flows.1.layers.0.network.4.weight f4 [8, 8]
00000000: 3f14 c5bc a9d7 703e bb06 e23d 15c3 a4be
00000010: 5a10 d63e 2c40 e13d 3666 843d 067a 9ebd
00000020: f562 86be b3a4 703d dedf 7cbe 1fe8 a23e
00000030: 9b9c f4bd 9d30 dbbe 64e5 5abe 0ccf ebbd
00000040: f1ad a6be 9cbb 003f 49cd 40bf 2363 493e
00000050: 5c60 103e d95b 4c3e 0fae 08bf 8948 323d
00000060: 848e c03d 47b7 53be 3aaa 893f bf9d ba3e
00000070: 7015 5ebe 3720 bdbd 8ee0 0a3e b059 b1bd
00000080: 0d82 483e a477 abbe 5b1b 0bbc f003 34bd
00000090: da1c 8e3e 1644 513d 2e67 67be e48f 2ebe
000000a0: 53a9 763e 9e20 823e 2360 c33d 5228 7fbe
000000b0: 44dd 363d 24d9 113f 7aed 913e 3a44 0abe
000000c0: 0ade 743e 9ce0 b83e da14 46bf 63b6 c5bd
000000d0: 7386 8f3e 92e3 983e fa83 b5bd 9fb5 09be
000000e0: 6824 86be 3318 7ebf 78e4 a63e 51e5 f73e
000000f0: 4dba 87bf 70cc 4a3d 1842 94be 60b7 38be
-0.024057506 0.23519768 0.1103644 -0.32180086 0.4180935 0.10998568 0.06464808 -0.07738118
-0.26247373 0.05875082 -0.24694774 0.3181772 -0.119439326 -0.42810526 -0.21376568 -0.115141004
-0.32554582 0.5028627 -0.7531324 0.19666724 0.14099258 0.19956912 -0.5339059 0.043526206
0.09402183 -0.20675384 1.0755074 0.36448476 -0.21687865 -0.0923466 0.13562223 -0.08659685
0.1958086 -0.33489716 -0.008490409 -0.043949068 0.27756387 0.051090322 -0.22597954 -0.17047077
0.2408803 0.2541551 0.09539821 -0.24917725 0.04464461 0.56971955 0.28501493 -0.13502589
0.23912826 0.36108863 -0.77375567 -0.09653928 0.28032264 0.29861122 -0.08863063 -0.13448189
-0.2619965 -0.99255675 0.32596183 0.48417142 -1.060373 0.049511373 -0.28956676 -0.18038702

flows.1.layers.0.network.4.bias f4 [8]
00000000: cd5e bcbe dfb0 9abe ee09 bf3e dd36 f4bd
00000010: 6bc4 b53a 6c52 0b3d ec4c 303e ac8f 943e
-0.36791077 -0.30213067 0.37312263 -0.11924527 0.0013867741 0.03401415 0.17216843 0.29015863

flows.1.layers.0.network.6.weight f4 [2, 8]
00000000: dfe5 623e 0427 5dbe 16fd 603e 7ee6 89be
00000010: 6f5d ba3c 050d da3e 8bb0 903e 3ecd b9be
00000020: 1145 3d3e ba12 6fbe 30a5 58be bad8 d53e
00000030: fb64 45bc 8619 713d e3d5 82be 65fb 503e
0.22158001 -0.21596915 0.21971545 -0.26933664 0.02274963 0.42588058 0.28259692 -0.362894
0.18483378 -0.23346987 -0.21156764 0.41766912 -0.012048001 0.05886223 -0.25553808 0.204084

flows.1.layers.0.network.6.bias f4 [2]
00000000: da94 febd 2fed 90be
-0.12430735 -0.28305957

flows.1.layers.1.network.0.weight f4 [8, 2]
00000000: 5e93 df3c ac83 69bf f17d 32bf 61d7 18be
00000010: 2639 c73e 12b4 39bf f42e 513f 8e0e 733d
00000020: 9278 523e ec12 02c0 bb61 48be e2fb 77bf
00000030: a25c 22bf 8240 abbf 2d54 503f 5e7f 43be
0.02729195 -0.9121654 -0.6972342 -0.1492591 0.38910788 -0.7254039 0.8171227 0.059340052
0.20553806 -2.032405 -0.19568531 -0.9686872 -0.63422596 -1.3379061 0.8137844 -0.19091555

flows.1.layers.1.network.0.bias f4 [8]
00000000: 3306 023d 7dd7 54bf fcf2 c93e 6838 703f
00000010: 4668 f33c f841 0cbf 7f8f 253f f704 8d3f
0.031744193 -0.8314131 0.39443195 0.9383607 0.029712807 -0.5478816 0.6467208 1.101714

flows.1.layers.1.network.2.weight f4 [8, 8]
00000000: 5c8f 08bf ff09 e83e 3c56 babd 4979 e5be
00000010: 6b27 4fbe 468c fd3e 9033 0ebf 4176 09bf
00000020: 020a a3bd 9481 81bf 2904 563e 38f4 da3f
00000030: 181f 8f38 cc2f 72bf 3586 143e 7307 4c3f
00000040: db5a 123f 04f7 4cbe a148 60bf 3ceb eb3c
00000050: f635 9cbe e438 e73e e00c 95be c692 99be
00000060: 656d f8be 5a0d 23bf ab4f 943e 63f6 8e3e
00000070: ac06 35bf 3aa9 853e 48bc fcbc 8245 f63e
00000080: 3286 85bf 904c 9abd f760 eebd ec49 eabd
00000090: ff1e ed3d 967f d5be 0174 703e 3d45 96be
000000a0: 8be8 123f a3e6 e1bf 8bcf 1e3e 7ea5 7340
000000b0: 0110 a03e 08d9 8abf 6b69 0c3c 2513 5740
000000c0: 9f7a 90be 7605 1c3c 4b45 e0be 306f 8bbe
000000d0: 37bd 89bf c934 7d3e 3da0 9ebe 822e 8c3e
000000e0: 3f7a aabe 2e6a b1bf 6b90 2b3f 24d3 863f
000000f0: 5663 abbb b5e9 02bf 482c 6c3d 5ae7 c73f
-0.5334375 0.45320126 -0.09098479 -0.44819096 -0.2022988 0.49521083 -0.5554743 -0.53696066
-0.07960893 -1.0117669 0.20900024 1.710578 6.824563e-05 -0.9460418 0.14504321 0.79698867
0.57169884 -0.20016104 -0.8761082 0.028798692 -0.3050992 0.45160592 -0.29111385 -0.29994792
-0.4852096 -0.6369225 0.28967032 0.27922353 -0.70713305 0.26105672 -0.030851498 0.48099905
-1.0431578 -0.075341344 -0.11639588 -0.11439881 0.11578178 -0.41698903 0.23481752 -0.293497
0.5738608 -1.764851 0.15508859 3.8069758 0.3126221 -1.0847483 0.0085700555 3.3605435
-0.28218552 0.009522786 -0.43802866 -0.27233267 -1.0760869 0.24727167 -0.30981627 0.27379233
-0.3329639 -1.3860528 0.6701724 1.0533185 -0.0052303476 -0.5113786 0.057659417 1.5617478

flows.1.layers.1.network.2.bias f4 [8]
00000000: aac1 2d3d 1c03 94bd 39c2 ac3c 4047 73be
00000010: 9c03 cb3e 7569 323f 7e52 0d3b 1f71 64bd
0.04242102 -0.072271556 0.021088706 -0.23757648 0.3965119 0.69692165 0.0021564062 -0.055771943

flows.1.layers.1.network.4.weight f4 [8, 8]
00000000: dcac 6abf 0c89 fc3e 951a 6abe 34e7 c83b
00000010: b27c f5be 197a 0d40 25ae 6c3e f950 343f
00000020: b167 c43d cbd4 ea3d 3874 283f feb1 b63e
00000030: 2c2b b4be b7fd 413f 19dd f43e 09fe 1dbe
00000040: 61dc ea3c c085 223e 48a9 b7be 5a9f c9be
00000050: 30d8 f43e ca39 2abf 5116 47be 6c3c f33b
00000060: c54e 783e b2a2 f9be 0221 f43e 7116 193f
00000070: 1d54 873e 889b 8ebf f2b4 e83e 0d6f eebd
00000080: a5d4 d6be 34cd 193e 76de 24bf 3bab 74bd
00000090: ab50 273e fb1a bebe ff77 f2bd f628 b73e
000000a0: aa84 a13d e2fe 013e de5f 3a3f 3e6d 05bf
000000b0: c860 45be 22ef 2a3e 522d 91be 78fa fbbe
000000c0: bd42 c6bd 1184 823f 7a19 b9bd e019 ac3e
000000d0: 513c 7d3e 9f20 1ebf 39e0 103f dafc 113f
000000e0: 0dea ecbe 1744 8c3e 38e2 cabe 451e a73e
000000f0: ecf4 043e 3575 a2be adab e6be 1ec9 bd3e
-0.9167001 0.49323308 -0.22861703 0.006131077 -0.47946697 2.2105772 0.23113306 0.70436054
0.0959009 0.11466368 0.65802336 0.35682672 -0.35189188 0.75777763 0.47824934 -0.15428938
0.028669538 0.15871334 -0.3587134 -0.39379388 0.47821188 -0.6649443 -0.19442107 0.0074229743
0.24248798 -0.4875694 0.47681433 0.5979987 0.2643136 -1.1141214 0.4545055 -0.11642275
-0.4195911 0.15019685 -0.6440195 -0.05973361 0.16339366 -0.3712996 -0.11839294 0.35773438
0.07886632 0.12694886 0.7280253 -0.52119815 -0.192752 0.16692784 -0.2835489 -0.4921453
-0.09680698 1.0196553 -0.090380624 0.3361349 0.2473004 -0.61768526 0.56592137 0.57026446
-0.46272317 0.27395698 -0.39625716 0.3264028 0.12984055 -0.31730047 -0.45052853 0.37067503

flows.1.layers.1.network.4.bias f4 [8]
00000000: 01ef 833d 9b28 53bd 2445 a43e b589 f13e
00000010: 31b6 3a3e 5b9e 823e 1001 6e3e 6fd2 07bd
0.06442071 -0.051552396 0.32084 0.47175375 0.18233563 0.2551144 0.23242593 -0.03315967

flows.1.layers.1.network.6.weight f4 [2, 8]
00000000: 0c84 2abf 72a8 3fbf 9cec 0c3e 0755 10bf
00000010: da3b ce3e 8edd bcbe f467 233f 68f8 f53e
00000020: 60e1 1c3f 929e f03d ad4c e6be 68bc f8be
00000030: 40a4 e0bd 2ba0 803d 64d4 943d 74ae 46be
-0.6660774 -0.748664 0.13762134 -0.5637974 0.40280038 -0.36887783 0.63830495 0.4804108
0.61281395 0.11748995 -0.44980374 -0.48581243 -0.10968828 0.062805496 0.07267073 -0.19402486

flows.1.layers.1.network.6.bias f4 [2]
00000000: c123 67be 6b76 253c
-0.22572233 0.010099034

flows.1.layers.2.network.0.weight f4 [8, 3]
00000000: 38a1 ef3d 96ea 07bf 4771 f83e 4060 88be
00000010: f703 cb3e 986a 4d3d e2b4 b93e 4a85 17be
00000020: 117e cfbe 7e7c 343f 06b9 2e3f 74ba c1be
00000030: 152e ee3e 7b90 91bd 7878 0f3e 7049 adbe
00000040: 6a9d 113e 740b 68bf 11d6 d5be fd5d 813d
00000050: 2745 f73e 0eb9 36be 5c65 10bf 8328 02bf
0.11700672 -0.53092325 0.48523924 -0.26635933 0.39651462 0.050150484 0.36270815 -0.1479694
-0.4052587 0.7050246 0.68251073 -0.37837565 0.46519533 -0.071076356 0.14010799 -0.3384509
0.14220205 -0.90642476 -0.41764882 0.06316755 0.48294947 -0.1784403 -0.5640466 -0.50843066

flows.1.layers.2.network.0.bias f4 [8]
00000000: 2e3f cfbb 10f1 8dbd c4f0 03c0 7c4c 463f
00000010: 1f49 24c0 1566 65bf ae73 1b3e b55a 933e
-0.0063246703 -0.06930745 -2.0615702 0.77460456 -2.566963 -0.8960889 0.15180847 0.2878014

flows.1.layers.2.network.2.weight f4 [8, 8]
00000000: 7524 be3b 8985 7cbe ace1 8abd 2ab3 babc
00000010: c8c9 5d3d d39f bb3d 5c6a 8c3e a24c 2fbf
00000020: 8173 00bf 27d9 623f c0e0 d03e d86f a2bf
00000030: bf88 553d 1ce4 573f 7239 0e3f cbad bcbe
00000040: 1305 413e 10c2 eb3e 139c 603d 6b77 babe
00000050: 18ad 31be db80 ea3e 7dad 63bd 0cab 573f
00000060: acd2 353e 7d0c 1dbe 1c20 9d3e 0074 4dbe
00000070: 3b70 59be f06a 14bf 9c24 1f3d 6ae2 2a3f
00000080: 6b97 01bf 8fb2 763d b3ed b33f 1809 03bf
00000090: 8e27 aabd 661e 013f 63f4 2f3d 86df d0be
000000a0: 17ae 063e 12b8 3ebe 7e33 18be 00f6 1abe
000000b0: 6e95 d83e b05a bcbd 08f0 5ebe 29bf 543d
000000c0: 2458 82be d0bb d93e da2a 3bbf 9aa7 07bf
000000d0: b744 a8bc 3a49 6dbf 504b f03d 0e23 b93e
000000e0: 5c8c a53e f960 c8be 57af eb3e 71f0 eb3e
000000f0: d117 823e b81f 083e d6b3 0abf b894 c83e
0.005802686 -0.24660315 -0.06781325 -0.02279051 0.05414751 0.091613434 0.27424896 -0.6847631
-0.50176245 0.886126 0.4079647 -1.2690382 0.052132364 0.8433244 0.55556405 -0.36851344
0.18849592 0.46046495 0.054836344 -0.36419234 -0.17351186 0.45801434 -0.055585373 0.8424537
0.17756146 -0.15336795 0.3068856 -0.20063782 -0.21234219 -0.57975674 0.038853273 0.6675173
-0.5062167 0.06022888 1.4056915 -0.5118575 -0.08308326 0.5043701 0.042957675 -0.40795535
0.13152348 -0.18624905 -0.14863393 -0.15132904 0.42301506 -0.09196985 -0.21771252 0.051940117
-0.2545787 0.42526102 -0.7311226 -0.52990115 -0.020540578 -0.9268986 0.11733115 0.36159557
0.32333648 -0.39136484 0.4603221 0.4608188 0.25408795 0.1329335 -0.5418066 0.39175963

flows.1.layers.2.network.2.bias f4 [8]
00000000: 3dc0 2c3e 3cd2 e3be 6c8e adbb de5e 863e
00000010: 1ce6 53bf 7a04 8ebe a476 803e e21c 6cbd
0.16870208 -0.44496334 -0.005296519 0.26244253 -0.82772994 -0.2773779 0.25090516 -0.057644732

flows.1.layers.2.network.4.weight f4 [8, 8]
00000000: 3466 0e3e c5f2 e03d ef37 a03e 5404 983e
00000010: 9107 e03e 4031 aa3e 5cf2 92be a64d a33e
00000020: 3dd0 5cbf ff8c 96bd 5198 f03e 94dd 753f
00000030: c772 a0be b9eb 0b3e fa70 cbbe 91ed c0bd
00000040: 0e49 1bbe b437 55b7 c3b5 973e e3ed 823d
00000050: f10b 4cbf a888 8b3e dbfe e23e a678 08bf
00000060: b0cd 533b 62dd 093f 30d2 52bd 5170 3a3c
00000070: 388a bb3d ba82 053e 43c4 323f 775f eabe
00000080: 2b3e d2bc 33ff c63e dffa ac3d 504e fc3e
00000090: 70bb 58bd c228 1fbf 7c53 0cbe 86cb 6abe
000000a0: 7008 13be 3766 3c3f 1116 ab3e 0cf8 8ebe
000000b0: d4f5 a03e 1ef4 8dbe 4468 d63e 6128 b5be
000000c0: b7a4 4dbe be28 473c 5f66 b03d eec1 433e
000000d0: 7f5c 4e3e b7ae 10bf ca27 0f3e 7529 633c
000000e0: d18b 89bd 6e0d f53e 4422 f43e 8c2f 9d3e
000000f0: 5f25 893e c63e c1be 877c 7abe eb63 b13e
0.13906175 0.109838046 0.31292674 0.29690802 0.43755773 0.332407 -0.2870053 0.3189518
-0.86255246 -0.073511116 0.46991208 0.96041226 -0.31337568 0.1366414 -0.39734632 -0.09420312
-0.15164587 -1.2708759e-05 0.2963086 0.063930295 -0.7970572 0.27252698 0.44335064 -0.53309095
0.0032318644 0.5385343 -0.05146998 0.011379317 0.091572225 0.1303815 0.6983072 -0.4577596
-0.02566441 0.38866577 0.08446287 0.49278498 -0.05291313 -0.62171566 -0.13703722 -0.229292
-0.14358687 0.7359347 0.33415273 -0.2792362 0.31437552 -0.2772531 0.41876423 -0.3538237
-0.20082365 0.01215571 0.08613276 0.19116947 0.20152472 -0.56516594 0.13980022 0.013864865
-0.06716121 0.4786181 0.47682393 0.30700338 0.26786324 -0.37743205 -0.24461566 0.34646544

flows.1.layers.2.network.4.bias f4 [8]
00000000: e906 e2be d56b 183e 21f7 773c 9a91 2dbd
00000010: 0968 533e 9445 efbe 4141 473e 5f45 c3bd
-0.44145897 0.14884885 0.015134604 -0.042375185 0.20645155 -0.4673277 0.19458486 -0.09534716

flows.1.layers.2.network.6.weight f4 [2, 8]
00000000: 00fd f7bd 6825 ecbd d005 f03e 5410 ad3e
00000010: e6bf 67be 0454 a33e 6915 bbbd a05c 99be
00000020: dfad c43d e93f d73e 1d29 82bd 183a e3be
00000030: ae82 d1be b755 57be fd7d 20bf 2128 20bf
-0.12108803 -0.11530572 0.46879435 0.3380152 -0.22631797 0.31900036 -0.09134943 -0.2995348
0.09603476 0.42040947 -0.06355498 -0.4438026 -0.40920013 -0.21028791 -0.6269224 -0.6256123

flows.1.layers.2.network.6.bias f4 [2]
00000000: e260 5a3d b1b6 1bbf
0.05331505 -0.6082564

flows.2.initial_param f4 [2]
00000000: aef3 4fbf 2f32 03be
-0.812312 -0.12812112

flows.2.layers.0.network.0.weight f4 [8, 1]
00000000: 1304 4cbf 5cfc f4bf df86 aebf 3d5d e73e
00000010: 55ff 9dbf c77d 9ebf 8ebd b3be 4fed a2bf
-0.79693717 -1.9139514 -1.3634909 0.45188323 -1.2343546 -1.2382134 -0.35105556 -1.2728671

flows.2.layers.0.network.0.bias f4 [8]
00000000: 8c62 e33e 8551 acbe 3660 2bbe e6c9 2d3f
00000010: c0fc 2ebf 8d06 573f 1e13 7bbe 530c 8ebe
0.44411123 -0.33655944 -0.1673592 0.678862 -0.68354416 0.8399437 -0.24519011 -0.27743778

flows.2.layers.0.network.2.weight f4 [8, 8]
00000000: e3ea 93bf 7073 c93c c4e4 1ebd 18b1 5bbe
00000010: b488 12be c0e4 30bf 1cca 03bf f275 d5be
00000020: ebf8 9f3e e0de 06bf 501d b8bc b1ee 45bf
00000030: 42f0 613c 00f0 8ebe 472b 1e3f 30e7 e8be
00000040: 5b63 2dbf 04da 1cbf 248b f0be 2fee 9e3e
00000050: afbc e2bf 7770 ae3e ca03 99bf 3982 62bf
00000060: 7507 f2bf b25b bbbd 63ac 95be 4397 a13e
00000070: 392e 843d f0db 74bf f2ae 42be 6101 3bbe
00000080: 38db 54bf a387 70c0 4b32 33c0 e2f3 e93e
00000090: f913 10c0 2001 00bf 1513 91bf 8ac6 31c0
000000a0: c302 6f3e f692 8bbe 68c5 8abe 1810 cebe
000000b0: 2c6f 86be 4228 8bbd 4044 c03e ae9f 0abf
000000c0: 0b30 b8be c9d0 d9bc 3936 283e 6ab4 473f
000000d0: 000c 333f ee34 edbe aa8e fabe 3d2f 013f
000000e0: 3617 19bf 05e0 903e fac6 dabd 2f5a 3abe
000000f0: b9dc 993e c9be 12bf 6b39 143d f70b 05be
-1.1556057 0.024591178 -0.038792387 -0.21454275 -0.1430996 -0.69099045 -0.5148027 -0.41691548
0.31244597 -0.5268383 -0.022474915 -0.7731734 0.013790192 -0.2791748 0.61784786 -0.45488882
-0.6772973 -0.61270165 -0.46981156 0.31041095 -1.7713832 0.3407018 -1.1954281 -0.88479954
-1.8908526 -0.09148349 -0.29233083 0.31560716 0.06454129 -0.956481 -0.19012049 -0.18262245
-0.83147 -3.7582786 -2.7999446 0.4569388 -2.251219 -0.50001717 -1.1333948 -2.7777429
0.23340897 -0.2726056 -0.27103734 -0.40246654 -0.26256692 -0.06794788 0.3755207 -0.541499
-0.35974154 -0.026588814 0.16426934 0.78009665 0.69940186 -0.46329445 -0.4893697 0.50462705
-0.5980104 0.28295913 -0.10682483 -0.18198465 0.3005121 -0.57322365 0.03618757 -0.12992845

flows.2.layers.0.network.2.bias f4 [8]
00000000: a513 2e3e cf47 2b3e 6ac9 193f 1346 bfbe
00000010: 5f1c 8ebe da90 5ebe 6f63 64bd 1d55 b13e
0.16999681 0.16726612 0.6007296 -0.3735815 -0.2775602 -0.21734944 -0.05575889 0.3463525

flows.2.layers.0.network.4.weight f4 [8, 8]
00000000: 0c30 d7be 489a cebe 0bb4 dfbe f139 2abf
00000010: f684 333e 4b12 f4be e392 a4be 6806 23bf
00000020: e9f1 083d 260e 753e fd75 a7be 88f9 31bc
00000030: c1e5 b23d 4f2a 233d 1576 2fbf 6784 49be
00000040: 6cb3 f4bd 5ba2 24be 2355 11bf 9447 b4bd
00000050: 0aae 643e 8df3 0fbf f97a f23e 1991 633e
00000060: ed4a 173e b750 ffbe a921 6a3d 89eb 96be
00000070: 7a72 1a3f 8a96 03bd ee8f 003f a994 69be
00000080: 8225 02bf c0ba 8b3e 7113 6c3e 8a80 cdbe
00000090: ff8a 833e feb6 4bbc 5d56 d4bf 2c2d 3ebf
000000a0: cbbf f73d fd55 cebe 1333 063e 3fe7 da3e
000000b0: 0299 e1be 25b0 08bf 1420 283f 889c 963e
000000c0: 2d8f 963e 2081 a9be 2bd7 af3e a871 b43e
000000d0: f232 55bf 9806 3b3c 8a5c b13e 4bdf ab3d
000000e0: 853b f03e f476 483e a422 ae3e 6dd8 3f3f
000000f0: bfdb 023c 0919 9c3e 8b3d 403d 8747 333f
-0.42028844 -0.40352082 -0.4369205 -0.6649466 0.1753119 -0.47670206 -0.32143316 -0.6368165
0.03343383 0.23931178 -0.32707205 -0.010862716 0.08735228 0.03983527 -0.68539554 -0.19679414
-0.119482845 -0.16077559 -0.56770533 -0.08802715 0.22332016 -0.56231004 0.47359446 0.22223319
0.14774676 -0.49866268 0.057161007 -0.29476574 0.6033093 -0.032125987 0.5021962 -0.22810616
-0.5083848 0.27290916 0.23054291 -0.4013713 0.25691983 -0.012433765 -1.6588856 -0.74287677
0.120971285 -0.4029998 0.13105421 0.42754552 -0.44062048 -0.53393775 0.6567395 0.294163
0.2940611 -0.33106327 0.34343848 0.35242963 -0.8328086 0.011415146 0.34640914 0.08392199
0.4692041 0.19576627 0.34010804 0.74939615 0.007986962 0.3048785 0.046933692 0.7003102

flows.2.layers.0.network.4.bias f4 [8]
00000000: e42f b2be f32f 58be 7bd5 34bd 9276 7bbe
00000010: 8de0 053f fec6 5f3e 87a9 cf3e 716e 923e
-0.34802163 -0.21112041 -0.044148903 -0.2455695 0.5229576 0.21853253 0.40559027 0.28599885

flows.2.layers.0.network.6.weight f4 [2, 8]
00000000: e193 1fbe 06a3 5d3d 9559 823e 0954 663e
00000010: afa1 5c3e 851d 87be e524 10bf 448d 0a3f
00000020: 90f6 e0ba db21 c6bd 0a1c 813e c484 c43e
00000030: c049 cfbe 1c17 193e b242 25be b8bd debd
-0.15583755 0.05411055 0.2545897 0.22492994 0.21546052 -0.2638971 -0.56306297 0.54121804
-0.0017163325 -0.09674426 0.25216705 0.38382542 -0.40485954 0.14950222 -0.16138723 -0.1087603

flows.2.layers.0.network.6.bias f4 [2]
00000000: 242f babc 43bf 93be
-0.022727557 -0.2885686

flows.2.layers.1.network.0.weight f4 [8, 2]
00000000: 2281 223f 1626 28bf dd3e adbe 9813 863e
00000010: 9caa 463f a38f 1e3f 8f62 293f 6d27 d93e
00000020: b2e9 7dbf c891 6fbf ec68 6fbf 70ef e43d
00000030: be43 e53e 54b6 dfbe ce66 b03d 2d7e 12bf
0.6347829 -0.65683115 -0.33837023 0.26186824 0.7760408 0.6193792 0.66166013 0.42412892
-0.99184716 -0.9358182 -0.93519473 0.111784816 0.44778246 -0.43693793 0.086133584 -0.5722378

flows.2.layers.1.network.0.bias f4 [8]
00000000: adcf e63e 61bd d83e 95d1 46bf a080 36bf
00000010: ce5d f83e e29a b23e 1d39 413e 1563 90bf
0.4508032 0.42331985 -0.77663547 -0.71290016 0.48509067 0.3488379 0.18869443 -1.1280237

flows.2.layers.1.network.2.weight f4 [8, 8]
00000000: 1af2 21bf 5944 47be 5d03 e8be a6b5 373e
00000010: fd91 203e c0c8 22be 0ea6 fdbe 89b6 f6be
00000020: d5a9 99bc dd96 edbe b730 9c3f 2d19 9e3f
00000030: 4610 51bf 778a a1bf c800 b13e 0fe6 5dbe
00000040: 90b0 a1be 50da 3b3e c631 6dbe f7a5 ee3d
00000050: 3357 eb3d 87ad 943f 7b7c c0be 618c a2bd
00000060: d094 893f 3717 32bf 291f 4c3f 0e85 353f
00000070: 133d 6ebf 7a88 3f3e f6bd 543f 29b9 783f
00000080: 8f58 7dbe d210 a13e 5b10 19be 0d83 7ebe
00000090: 4bdc bc3c c14e a03f 347f 8f3d 6b40 7a3e
000000a0: 9810 bbbe d422 3a3e 7315 b2bc 8e89 e43e
000000b0: ffdf e73d 1042 b0bf 2997 18be 519e b63e
000000c0: 858d c2be c483 9a3e 0434 14bf e107 d4be
000000d0: 6db6 a43d 5e70 433f 64ff 87bd 0b04 013e
000000e0: 60ea fb3e 55ef a5bd a659 cf3e efbb 3bbe
000000f0: 0a68 84bd bd92 bfbe 5d2b 1f3f dfca d13e
-0.6326004 -0.19459666 -0.45315066 0.17940387 0.1568069 -0.15896893 -0.49540752 -0.48186138
-0.01875774 -0.46404162 1.2202367 1.2351433 -0.81665456 -1.2620381 0.3457091 -0.21669792
-0.3158002 0.18344998 -0.23163518 0.11652749 0.11491241 1.1615456 -0.3759497 -0.079369314
1.0748539 -0.69566673 0.79735047 0.7090615 -0.9306194 0.18704405 0.8310236 0.9715753
-0.24740814 0.31458145 -0.14947645 -0.2485468 0.023054263 1.2524034 0.07006684 0.24438636
-0.36536098 0.18177348 -0.021738743 0.44636196 0.11322021 -1.3770161 -0.14901413 0.3566766
-0.37998596 0.30178654 -0.5789187 -0.4141226 0.080426075 0.76343334 -0.06640509 0.12599199
0.4920225 -0.081022896 0.40498084 -0.1833341 -0.064651564 -0.3741664 0.6217554 0.4097509

flows.2.layers.1.network.2.bias f4 [8]
00000000: d308 023c f24f 98be fd1a 8cbe f6d5 dd3e
00000010: feb7 f33d 9cb1 b13e c279 ce3e 2f96 b23e
0.007936674 -0.29748493 -0.2736434 0.43327302 0.11900328 0.34705818 0.4032727 0.34880206

flows.2.layers.1.network.4.weight f4 [8, 8]
00000000: 2e18 36be 21b2 39bf f658 993e 5909 01bc
00000010: cf03 263f 4736 09bf 566b 783f 8ccd dc3e
00000020: b9e0 e6bd 4f37 b33d 212a 543f eef1 043f
00000030: 4d54 183f d23d 40bf ed40 863e ebbb dbbe
00000040: 86dc 993e aea8 90bd ee97 383f fc9e 383f
00000050: 488b 403f 21ab e3be d280 033f c90c febe
00000060: 0d18 b0be 6f4f 023e 7d60 dd3e 33ce b9be
00000070: ce7a 183c f6e6 f3be 99c7 bebe 7c07 e93b
00000080: b415 623f 6c3e 1dbe b362 923e 6713 d6bf
00000090: 8e07 2abe c69c 693c 1ac0 d13e e9bd 8bbf
000000a0: 442e a13e 4879 26bf 0525 123f 88a7 03c0
000000b0: ed95 14be ed57 0d3f 418f 443e 3b84 56bf
000000c0: 199b 7fbe 03d5 dcbe 6e16 f6be e323 a53e
000000d0: 9c8f 90be 2e62 193f d645 20bc acb7 05bd
000000e0: 03db 703f bd34 833e 7b6f 143d c214 f9be
000000f0: 3960 a5bd 0852 babc f2cb 33bd 3e93 09bf
-0.17782661 -0.7253743 0.29950684 -0.007875764 0.6484956 -0.53598446 0.9703878 0.4312557
-0.11273331 0.08750784 0.82876784 0.51931655 0.5950363 -0.7509433 0.2622141 -0.42916808
0.3005106 -0.07063423 0.72106826 0.7211759 0.75212526 -0.44466498 0.5136844 -0.4961913
-0.3439335 0.12725614 0.43237677 -0.3629013 0.009306623 -0.47637147 -0.37261656 0.007111488
0.88314366 -0.15355843 0.28590927 -1.6724671 -0.16604444 0.014258569 0.40966874 -1.0917331
0.3148061 -0.6502881 0.5708774 -2.0571003 -0.14510317 0.5521229 0.19195272 -0.8379552
-0.24961509 -0.43131265 -0.48063987 0.32253942 -0.28234565 0.59915435 -0.009782275 -0.032645866
0.94084185 0.25626174 0.03623913 -0.4864865 -0.08074994 -0.022744194 -0.04389567 -0.537403

flows.2.layers.1.network.4.bias f4 [8]
00000000: 222b aa3e abfd 173e 4c7a b6bd db1a b2bd
00000010: c0c7 7abe ab36 6fbe 2d38 e1bd d3f9 adbe
0.33236033 0.1484286 -0.08910045 -0.086965285 -0.24490261 -0.23360698 -0.10997043 -0.33979663

flows.2.layers.1.network.6.weight f4 [2, 8]
00000000: 2d7e d53e bc5a df3e 0854 043f 0591 8bbe
00000010: 6574 a5bd f06a 3d3d 93b4 193f d46d 483e
00000020: 35e0 a0bc cd70 ecbe e938 1ebf f76d 0a3e
00000030: 49cf 7e3f b883 2c3f 91c0 823e 87c2 34be
0.41697827 0.43623912 0.5169072 -0.2725908 -0.08078841 0.04624456 0.6004116 0.19573146
-0.01963816 -0.4617981 -0.6180559 0.13518511 0.9953504 0.67388487 0.25537542 -0.17652331

flows.2.layers.1.network.6.bias f4 [2]
00000000: f335 e03d 0092 8ebe
0.1094779 -0.27845764

flows.2.layers.2.network.0.weight f4 [8, 3]
00000000: 3443 733f ab02 f63e a47d 86be cd04 e4bd
00000010: a1c4 a33e 7d63 e83e 58b1 0740 2f84 d53e
00000020: ea08 743f 12db a4bf ed92 aabf 23c4 423f
00000030: 4996 5b3f 91f1 50bf f2af 823e ab98 35bf
00000040: 9f37 803e c09b 9abe c343 0abf 7cdf 8abf
00000050: 3af5 1c3e 13c9 d83e d717 e33e d4c5 ed3e
0.9502442 0.4804891 -0.2626773 -0.11133728 0.31985953 0.45388404 2.1201992 0.4170241
0.953261 -1.2879355 -1.3326088 0.7608053 0.8577619 -0.816186 0.2552486 -0.7093608
0.25042436 -0.30196953 -0.54009646 -1.0849452 0.15327922 0.42340907 0.44354126 0.46439993

flows.2.layers.2.network.0.bias f4 [8]
00000000: 5997 ccbe 7367 953e 3eba 243f da20 0c3f
00000010: 46a5 423e 855e e4bf 9f98 a3bf 632b b9be
-0.3995922 0.29180488 0.64346683 0.5473763 0.1900836 -1.7841345 -1.2780951 -0.36165914

flows.2.layers.2.network.2.weight f4 [8, 8]
00000000: 49c3 33be 90d6 003e 272d 093f 87ed 03bf
00000010: 9174 eb3e ac2d e5be 69d7 d5be 509a 33be
00000020: 75ea 9c3e 66ee 3b3f b1f4 1f3d 1e3c 263e
00000030: 0c9d c1bd c4c5 f6be 1f02 5b3d 7e7a af3b
00000040: 3176 3040 0bab 933f 9006 eb3f 5d70 e6bf
00000050: 532a 6d3e 7450 25bf e8b7 8ebf 5f7f 0abf
00000060: 7bc9 ea3e 35fb 7cbe ed64 483f fcde 383f
00000070: cfeb 97bd 5d2c c93f b142 893f 794e c8be
00000080: 9d09 0bbf 8e47 c73d ff73 86be 92f8 8c3e
00000090: aa30 833f 4b8b 9239 5363 3c3f a730 413f
000000a0: 4e7a a33e 6532 9abe 9583 a7be b266 a2be
000000b0: ce07 7ebd 9077 9b3f 308f ef3e 946d cbbe
000000c0: 2295 773f 10bd b0be f197 083f 1187 4fbf
000000d0: 8db0 89bf eab4 9d3e 4b53 edbd e66a 13bd
000000e0: d332 f93d b8ab d5be f8f2 bbbe 865a e2be
000000f0: cb27 69bd bbba 8bbe 03bb 153e 78c5 6abe
-0.17554964 0.12581849 0.5358452 -0.5153431 0.4598737 -0.44761407 -0.41765907 -0.17539334
0.30647627 0.7341064 0.039051715 0.1623387 -0.094537824 -0.48197758 0.05346882 0.0053551784
2.7572138 1.1536573 1.8361378 -1.800304 0.23160677 -0.64575887 -1.1149874 -0.541006
0.45856842 -0.24705203 0.78279 0.7221525 -0.07418024 1.5716664 1.0723478 -0.3912237
-0.54311544 0.09730445 -0.26260373 0.27533394 1.0249226 0.0002795107 0.73589057 0.7546486
0.3192925 -0.30116573 -0.32717577 -0.31718975 -0.062019162 1.2145863 0.4678893 -0.3973204
0.96711934 -0.34519243 0.53356844 -0.8106547 -1.0757004 0.3080209 -0.115881525 -0.03599062
0.12167897 -0.41732574 -0.36708808 -0.4420969 -0.056922715 -0.27290902 0.1462212 -0.22926891

flows.2.layers.2.network.2.bias f4 [8]
00000000: b51b f0be 257d a73e 13df a23e 1ab6 d93c
00000010: f1e5 bdbe 1d4b 0b3e 4991 dabe ec94 953e
-0.4689614 0.32712665 0.31810817 0.02657609 -0.37089494 0.13602872 -0.4268897 0.2921518

flows.2.layers.2.network.4.weight f4 [8, 8]
00000000: f558 ae3e 0cf1 a9bd 9ccc 01be 73d7 f7bd
00000010: 9acf 5cbd e261 b1be 9b4b adbe e01d 12bf
00000020: 5d10 38bf f2ea f73e 1554 613f 0235 3e3f
00000030: 4b40 193e cf2b 3f3f fd85 b4be 33e4 f5bd
00000040: b05a f83d 08ba aabe 4775 873c 95ea a3be
00000050: 5054 81be 17b1 35bd c5e7 cbbe 9e9e e3be
00000060: 05aa 553e 04d4 2f3d 1a97 a4bf e9c9 1bbe
00000070: 493f 883f 21fa 65be aa97 2abf 9c9a 9fbd
00000080: b700 e63c a507 a73d 6239 4f3d 1e94 4c3f
00000090: 5c24 903c 7a86 2f3e ccf0 833f 11fe cd3d
000000a0: d778 bb3e ce37 d7be 1be6 a9bf 0a78 72bf
000000b0: e4d8 783f 896a 76be bbbb 63bd fb44 40be
000000c0: 7943 14be 6ab2 ad3e 5df4 513e 3a3d f43c
000000d0: 1dd0 153e caad 82be f805 b2be 55f6 5ebf
000000e0: ad34 ee3e ad8f 22bf 3653 79bf 708a 053d
000000f0: 0826 c83e 03b2 afbe 0f81 8d3d 34b4 ff3d
0.34052244 -0.08297929 -0.12675709 -0.121016406 -0.05390892 -0.3464499 -0.33846745 -0.57076836
-0.7189997 0.48421437 0.88018924 0.74299634 0.14965932 0.7467622 -0.35258475 -0.12006416
0.12126672 -0.33345056 0.016535414 -0.3201491 -0.25259638 -0.04435834 -0.39825264 -0.44456953
0.20865639 0.042926803 -1.2858613 -0.15213741 1.0644313 -0.22458698 -0.6663767 -0.07793161
0.028076513 0.08155755 0.050591834 0.7991351 0.017595463 0.17141142 1.030786 0.10058225
0.3661563 -0.42034763 -1.3273348 -0.94714415 0.9720595 -0.24064077 -0.055598956 -0.18776314
-0.14478864 0.33925182 0.20503373 0.029814351 0.1463017 -0.25523216 -0.3477018 -0.8709462
0.46524563 -0.6350048 -0.97392595 0.032602727 0.39091516 -0.343155 0.069093816 0.12485543

flows.2.layers.2.network.4.bias f4 [8]
00000000: 79a1 18bf b955 d33e 7f13 a8bd 783e 6cbc
00000010: ff4c 963e b476 7fbf 420c 2dbc 2327 1fbf
-0.5962139 0.4127634 -0.082068436 -0.014419191 0.29355618 -0.997905 -0.0105620045 -0.6216909

flows.2.layers.2.network.6.weight f4 [2, 8]
00000000: 9a5c 91bd 7bc5 96be 1dd1 ce3b 4d97 a43e
00000010: f016 e0ba cdac 023f b8da fb3c b24e 0e3f
00000020: 198f 453f 40ba 083d eef9 613e bdab 943f
00000030: cbeb abbf c1ec 513f 3d76 7dbd 01bb ae3e
-0.070977405 -0.2944754 0.0063115493 0.32146683 -0.001709668 0.51044923 0.030743942 0.5558883
0.77171475 0.033380747 0.22067997 1.161491 -1.3431333 0.8200188 -0.06188034 0.34127048

flows.2.layers.2.network.6.bias f4 [2]
00000000: f9a6 123e 3cb5 5bbf
0.14321508 -0.85823417

flows.3.initial_param f4 [2]
00000000: 7f27 a43f 2121 9fbd
1.2824553 -0.07769991

flows.3.layers.0.network.0.weight f4 [8, 1]
00000000: 4db0 b4bf 3c8c 4e3f b7a1 4dbf f1aa 9ebf
00000010: 01f5 a1be b190 5cbf 1628 3ebf b411 24bf
-1.4116303 0.8068273 -0.8032488 -1.2395917 -0.31632236 -0.8615828 -0.74279916 -0.6408951

flows.3.layers.0.network.0.bias f4 [8]
00000000: 7222 66bf b7a6 3e3e 9356 c23f 84ee 093f
00000010: e013 553e 7393 98be cb6f af3f b83b 833f
-0.8989631 0.18618284 1.518267 0.5387957 0.20808363 -0.29799995 1.3705992 1.02526

flows.3.layers.0.network.2.weight f4 [8, 8]
00000000: caeb 273e 887c 273f 4ff8 bfbf c96e b0bf
00000010: 8e08 84bf 2bb6 08bf e5b9 89bf 6062 a8bf
00000020: 4814 15bf bc42 b4bc 8718 f03f 972d 52be
00000030: 0470 9f3e 5007 11be 62d7 d23f 6b01 613f
00000040: f56c 75bf 99d4 f23e 6b5e 143f 0d8c f6be
00000050: d163 9a3e d1d8 e2be 2b1b 163f 591a 0cbe
00000060: 45d3 9f3e dccc 09bf 953d 6d3e e6ab 993f
00000070: d7a2 3f3e f091 b53e 5b85 203f 86c7 533d
00000080: 05ad 933e dccf 11bf e724 863c 1fed 5d3f
00000090: 0596 4e3e cf93 0f3f 1a18 223e ba9b 86bd
000000a0: 5b89 243f 879f 6dbf 0586 a43e dd86 113f
000000b0: dee6 06be d71a 8f3f 68a9 a43c ca11 70bd
000000c0: 7423 9cbe 6946 bdbd a99f dd3f fcd4 fd3c
000000d0: c984 e33e 0b16 3ebe e48a ab3f 9729 823f
000000e0: 2f40 0b3f 4ff6 b5be e0b0 8bbe 80c3 473e
000000f0: 5f74 2dbe 1312 b43d 2879 bdbe 030a 82bd
0.1639854 0.65424395 -1.4997653 -1.3783809 -1.0315111 -0.53402966 -1.0759856 -1.3155022
-0.5823407 -0.022004478 1.8757485 -0.20525204 0.3114015 -0.14162946 1.647198 0.8789279
-0.9586938 0.47427824 0.5795657 -0.48153725 0.3015428 -0.44306043 0.58635205 -0.13681926
0.31215873 -0.53828216 0.23168023 1.2005584 0.18714462 0.35462904 0.62703484 0.051703952
0.2884294 -0.56957793 0.016375018 0.86689943 0.20174415 0.56084913 0.15829507 -0.06572671
0.6427209 -0.92821544 0.321335 0.5684641 -0.13174006 1.1180066 0.02010031 -0.058610715
-0.304958 -0.09241945 1.731435 0.030985348 0.44437245 -0.18563096 1.3401761 1.0168942
0.5439481 -0.3553948 -0.27283382 0.19508171 -0.16938923 0.0879251 -0.37006497 -0.06349566

flows.3.layers.0.network.2.bias f4 [8]
00000000: 60dc b2be 956b d33e 35c1 3abb 711b 98bd
00000010: 7088 443e ce10 6abe 5588 633e f29b f53e
-0.34933758 0.41293016 -0.0028496508 -0.07427109 0.19192672 -0.22857973 0.22219975 0.4797054

flows.3.layers.0.network.4.weight f4 [8, 8]
00000000: 7b75 653f 45c7 eabf f641 05bf 9f79 84be
00000010: 1f2b 97be 270a 043d 4e02 32bf 46fb 463e
00000020: 128b 84be 0d92 0bbf a550 95bf d251 213f
00000030: 0587 123f 5aba 0a3f 3aa0 5ebf 4013 9a3e
00000040: 5010 2bbe a4ff 9fbd e8b0 073e 23f0 f9bd
00000050: 6a2e b0be 6db2 933e 7b2e 14be f380 ab3e
00000060: 9dcd b13f 488e 803e f9c8 b3bd c35a 82be
00000070: 60e1 383e ed56 7c3e 93c2 8abd 5c5a 023f
00000080: 7c4a 96be 59ef a6bd 762e 6bbf d525 3b3f
00000090: 009e 233f d52e bc3f 2abc a0be 4770 543f
000000a0: f211 0bbf 8885 633e 69dc d03c 59fd 713c
000000b0: ec9c d93d d945 dc3e 8620 babe 9a04 a53e
000000c0: 3e63 b23f 552d 60be b7e0 b03d 9744 12c0
000000d0: 74d7 b6bf f595 b5be 42fc 8cbe 18f9 2ebf
000000e0: b975 80bf ef72 b5bf aa2e d63d 5996 a03e
000000f0: d428 c0be aec0 a0bd c973 75bf 8f0c b9be
0.89632386 -1.8342062 -0.52053773 -0.2587404 -0.29525086 0.032236245 -0.69534767 0.1943179
-0.25887352 -0.5451973 -1.1665236 0.6301547 0.57237273 0.541906 -0.86963236 0.30092812
-0.16705441 -0.078124315 0.13251078 -0.122040056 -0.3441041 0.28847066 -0.14470856 0.33496818
1.3890873 0.25108552 -0.08778567 -0.2545987 0.18054724 0.24642535 -0.06775393 0.5091913
-0.29353702 -0.08151121 -0.9186777 0.731046 0.63912964 1.4701792 -0.31393558 0.8298382
-0.5432426 0.22218907 0.025495725 0.014769875 0.106256336 0.4302204 -0.36352938 0.32230073
1.3936536 -0.21892293 0.08636611 -2.2854364 -1.4284501 -0.3546597 -0.27536207 -0.68348837
-1.0035926 -1.41757 0.10458119 0.31364706 -0.3753115 -0.07849251 -0.958798 -0.36142394

flows.3.layers.0.network.4.bias f4 [8]
00000000: 9bac d3be 4c43 9abe 2e92 ae3e 9ac7 4f3f
00000010: e0b1 a43e f1cd c53e 8a58 9bbe dcac b8be
-0.41342625 -0.30129468 0.340959 0.8116394 0.32166958 0.38633683 -0.30340987 -0.3606938

flows.3.layers.0.network.6.weight f4 [2, 8]
00000000: 6c5e f8be f719 55bf 364d 5dbe b302 f7be
00000010: a1af 10bf 92dc 3dbf 6e9d 703f b25b 563f
00000020: ccba a63e 8ad5 733d 6d1e 1b3c 0821 ffbe
00000030: 9e0a 98bc 4710 cdbe eca6 e73e 1327 49bb
-0.48509538 -0.83242744 -0.21611485 -0.48244247 -0.5651799 -0.7416469 0.9399022 0.83733666
0.3256439 0.05952982 0.009467703 -0.49829888 -0.01855975 -0.4005148 0.4524454 -0.0030693456

flows.3.layers.0.network.6.bias f4 [2]
00000000: 80c3 0cbf a3b1 6dbc
-0.5498581 -0.014507684

flows.3.layers.1.network.0.weight f4 [8, 2]
00000000: 7009 67be 386c 9e3f f0d2 7ebf 2163 3e3f
00000010: 37b7 ca3f 0174 b2be b7b8 d9be c2da 573f
00000020: 3d6d 8b3e 1264 973f 62d1 723e 9ecc 293f
00000030: 8848 9fbe e661 07bf bb13 3fc0 7c32 753e
-0.22562194 1.2376776 -0.99540615 0.7437001 1.5837163 -0.3485413 -0.4252374 0.8431817
0.2723178 1.1827414 0.23712686 0.66327846 -0.31110024 -0.52883756 -2.9855793 0.2394504

flows.3.layers.1.network.0.bias f4 [8]
00000000: 69a4 8a3d 53ef 4a3e 3a49 21bf e16c c63e
00000010: 52e4 3d3f cd97 f8bf 03c7 8d3f 4d37 81bf
0.0676964 0.19817857 -0.6300236 0.38754943 0.74176514 -1.9421326 1.1076359 -1.0095001

flows.3.layers.1.network.2.weight f4 [8, 8]
00000000: 2515 82bf fa06 d5bf 8c80 f83f 5588 c9bf
00000010: 790c c6be c28e b9bd 7efb 1dbf c319 003f
00000020: 34fe 603f 03d5 f63f 61b6 0dbf 2155 e13e
00000030: 2f3a 8cbf a059 9dbe d95f 83bd 6487 7f3f
00000040: d950 8b3e c582 903d 173c d040 0e1f 06be
00000050: f894 ecbf db09 cabf 9f0f bcbf c14c 6cbe
00000060: e218 53bf 148b 1abd bc10 563f 3567 55bf
00000070: 8d58 5a3e 8593 923f 13cc ecbf 281a b1be
00000080: 382e 2bbf dd55 3f3f 7773 5cc0 c161 d53e
00000090: c205 d8be b59e b240 c380 b8bf 0980 9e3f
000000a0: 49c1 cb3d 8cd7 cf3e ee75 55bf 6bfd b03e
000000b0: 2db9 75bf b78f 1bbe 8282 523f 8753 b4be
000000c0: eb40 84bf 8ef3 13bf d233 7dbf 8dc8 96be
000000d0: 59bd a8be e02c 51bf ddaa b83f 5b15 c23e
000000e0: 0715 013f 4866 bfbf 5d01 14be 5903 e13e
000000f0: 1a78 74bf aef2 753e 7fa0 05bf 0b8d 273f
-1.0162703 -1.6642754 1.9414229 -1.574473 -0.3868139 -0.09060432 -0.6171187 0.5003931
0.87887883 1.9283756 -0.55356413 0.4401026 -1.0955256 -0.3073244 -0.06414766 0.99815965
0.2721012 0.07056192 6.507335 -0.13097784 -1.8482962 -1.5784258 -1.4692267 -0.23076154
-0.82459843 -0.03773029 0.83619285 -0.83360606 0.21322842 1.1451269 -1.8499779 -0.34590268
-0.668674 0.7474039 -3.4445474 0.41676143 -0.42191893 5.5818734 -1.4414295 1.2382823
0.099489756 0.40594137 -0.8338307 0.34568343 -0.9598568 -0.15191542 0.8223039 -0.35219976
-1.0332311 -0.5779351 -0.98907197 -0.29449883 -0.3295696 -0.817091 1.4427143 0.37906918
0.5042271 -1.4953089 -0.14453645 0.43947867 -0.9549576 0.24018356 -0.5219802 0.6544959

flows.3.layers.1.network.2.bias f4 [8]
00000000: ff01 60bf aeb0 383f 51cc acbc 3194 12bf
00000010: 5b9e b8bf c9a7 173f 14cd 1f3f 11b6 a63d
-0.87503046 0.7214459 -0.02109352 -0.5725737 -1.4423326 0.59240395 0.624223 0.08140195

flows.3.layers.1.network.4.weight f4 [8, 8]
00000000: 85f9 b13e cb7f 85bf bedc 123f 8386 b7bf
00000010: 4103 d3be 1493 cb3e 12a1 e63f 2859 003e
00000020: 900d e9bd 7c39 f43f 4b96 6b3f 1605 cebf
00000030: b12f e5be 26a9 fa3f d315 d73e e6c1 efbe
00000040: b87d e9bf 5035 9cbe 26c3 f83e 4f00 afbd
00000050: a493 edbf c329 0bc0 a0ce 57bf 3989 ad3f
00000060: daea 543f cd45 84bf 11b6 d5bf 90b2 32be
00000070: 0cf6 0b3f ca9f 31bf ba8f 393c f483 32be
00000080: 59e6 32be 2fdd 42bf d645 9c3e 2f7a 90bf
00000090: 3439 bbbe 218a f2bd ef47 543f 436b cdbf
000000a0: edbb a73e 961e 003f 964f 25be fcd6 50be
000000b0: 4e51 25bf c1fe 8e3e ccfc 073f 9fbb 463f
000000c0: 022e 313e 5e85 8b3e 93ac 583f fcf5 eebf
000000d0: 8696 183e 5e98 c93f 8c48 103f 4d62 de3e
000000e0: 2766 95bf d9b9 b13f 9f66 36c0 5246 7bbf
000000f0: 5807 7c40 c964 e6be 7454 b1be e3c0 283f
0.3476068 -1.0429624 0.57368076 -1.4337925 -0.4121342 0.3976065 1.8017905 0.1253401
-0.1137954 1.9080043 0.92026204 -1.6095302 -0.44762948 1.958287 0.42008838 -0.4682762
-1.8241491 -0.30509424 0.48586386 -0.08544981 -1.8560681 -2.174424 -0.8429966 1.3557502
0.83170855 -1.0333802 -1.6696187 -0.17450929 0.5467231 -0.69384444 0.011325771 -0.17433149
-0.17470683 -0.7611875 0.3052203 -1.1287287 -0.3656708 -0.11842752 0.8292226 -1.6048359
0.32760563 0.5004667 -0.16143641 -0.2039451 -0.64577186 0.27928737 0.5312011 0.7763004
0.17302707 0.2725019 0.8463833 -1.8668818 0.1490117 1.5749624 0.563607 0.43434373
-1.16718 1.3884841 -2.8500135 -0.98154175 3.9379482 -0.44998768 -0.34634745 0.6591932

flows.3.layers.1.network.4.bias f4 [8]
00000000: 42a4 ed3d 0dc8 0d3e 2992 1fbf 63bd 53bf
00000010: 59a8 28bf 206b 5e3d 0cc0 3f3e fa63 8bbf
0.11603595 0.13845845 -0.623324 -0.82710856 -0.6588188 0.05430138 0.18725604 -1.0889885

flows.3.layers.1.network.6.weight f4 [2, 8]
00000000: dc7b 413f 30bb 8abf c79f 31be 5e48 903f
00000010: 0256 4b3f 1b17 8f3e 1b7d f6be f0c6 4f3f
00000020: 3e43 223f 14ee 093f 88eb 223f 087a e7be
00000030: 7559 bb3e 8fc8 6c3f 64f8 9abf a712 4f3f
0.7557962 -1.0838375 -0.17346106 1.1272085 0.7942811 0.27947316 -0.48142323 0.8116293
0.63383853 0.53878903 0.6364064 -0.4521029 0.36591688 0.9249353 -1.2107053 0.80887836

flows.3.layers.1.network.6.bias f4 [2]
00000000: 6835 1b3f 5d1c 6abe
0.60628366 -0.22862382

flows.3.layers.2.network.0.weight f4 [8, 3]
00000000: b716 8f3f 296c 5c3e 8cc6 053f f6d4 75bf
00000010: 511d 8e3e df60 c6be 67f6 0ebf 2d23 d7be
00000020: 9e5d 373f 83b3 babe 25ac 5abf 1a07 e0bf
00000030: ceae 143f 87fd 2a3f f671 2fbd ce7d 4abe
00000040: 48b4 4b3d 62ad 1a3f d4f5 49bf c223 873e
00000050: aae7 d6ba d4ed 2640 fc6c a1bf d837 3abf
1.1178807 0.21525635 0.52256083 -0.9602808 0.27756742 -0.38745782 -0.5584473 -0.42019024
0.71627223 -0.36465082 -0.8541892 -1.7502167 0.5807923 0.667931 -0.04283329 -0.19774553
0.049732476 0.6042081 -0.7889073 0.2639447 -0.0016395946 2.6082659 -1.2611384 -0.7274146

flows.3.layers.2.network.0.bias f4 [8]
00000000: 7d18 acbf dde7 8cbf 24e1 85be f2d6 96bf
00000010: a646 0ac0 50c8 cd3f b97a bb3f eade 603e
-1.3444973 -1.1008259 -0.2614833 -1.1784346 -2.160562 1.6076756 1.4646827 0.21960035
