data/models/MAF_cut_in_trk_best.pth (torch, 22472 bytes, 51 tensors)

flows.0.initial_param f4 [2]
0.3003622 0.21715948
00000000: 13c9 993e 0e5f 5e3e

flows.0.layers.0.network.0.weight f4 [8, 1]
-0.19542664 0.1820228 -0.94047743 -0.84282744 -1.012177 -0.15616678 0.3646663 0.6812228
00000000: ec1d 48be 2f64 3a3e 21c3 70bf 8ac3 57bf
00000010: 048f 81bf 2fea 1fbe 8bb5 ba3e 9e64 2e3f

flows.0.layers.0.network.0.bias f4 [8]
-0.1453981 0.122875035 -0.6964177 -0.5027573 -1.0092154 -0.09475025 -0.6309573 0.18642804
00000000: 3de3 14be e8a5 fb3d 6e48 32bf b4b4 00bf
00000010: f82d 81bf 6b0c c2bd 6b86 21bf fee6 3e3e

flows.0.layers.0.network.2.weight f4 [8, 8]
-0.21493024 0.28267327 -0.09362556 0.037210394 0.06419341 0.041941028 -0.15466069 -0.09833617
0.8257753 -0.7736766 0.13100715 -0.5675896 -0.24617347 0.1863271 -0.6869164 0.4437935
-0.19952624 0.18084387 -1.2168602 -1.1116768 -1.0976167 -0.09605348 -0.29467797 0.0690414
-0.09411978 -0.13291974 0.14051707 0.03929035 -0.5318702 -0.4107895 0.13043857 -0.5121489
-0.14156651 0.16427957 0.23423663 0.58676976 -0.117554456 -0.040252946 -0.33469102 -0.82963324
0.032310743 -0.08634497 -0.104653135 -0.12688138 0.24944362 -0.043226626 -0.28935918 0.15264677
0.57683146 -0.37893188 -0.54643625 -0.5252002 -0.09681639 0.4277228 -0.9311534 0.18642691
-0.18142185 0.17077865 1.705628 1.4727954 0.36358494 -0.113181114 -0.23940372 -0.68151504
00000000: ac16 5cbe 8dba 903e c2be bfbd ed69 183d
00000010: d677 833d 5bca 2b3d 5f5f 1ebe 7964 c9bd
00000020: 0366 533f ab0f 46bf bd26 063e 8d4d 11bf
00000030: e614 7cbe 88cc 3e3e c1d9 2fbf e738 e33e
00000040: 9b50 4cbe 232f 393e 13c2 9bbf 6d4b 8ebf
00000050: b47e 8cbf b0b7 c4bd 08e0 96be 9465 8d3d
00000060: dfc1 c0bd 1d1c 08be b5e3 0f3e ebee 203d
00000070: a528 08bf 0053 d2be b091 053e 311c 03bf
00000080: d0f6 10be e738 283e badb 6f3e 8b36 163f
00000090: 64c0 f0bd 46e0 24bd 9f5c abbe d862 54bf
000000a0: 4558 043d a2d5 b0bd 6254 d6bd 31ed 01be
000000b0: 266e 7f3e 670e 31bd e326 94be 6f4f 1c3e
000000c0: 3aab 133f 5c03 c2be 3fe3 0bbf 8573 06bf
000000d0: ac47 c6bd 7cfe da3e 1260 6ebf b2e6 3e3e
000000e0: a6c6 39be 99e0 2e3e 0552 da3f 8f84 bc3f
000000f0: ce27 ba3e 80cb e7bd 4026 75be c577 2ebf

flows.0.layers.0.network.2.bias f4 [8]
-0.1265245 0.049545195 0.8232024 -0.15609108 0.27976775 -0.0960208 -0.0973156 -0.010934234
00000000: a38f 01be e7ef 4a3d 64bd 523f 57d6 1fbe
00000010: b83d 8f3e 8ea6 c4bd 674d c7bd 8025 33bc

flows.0.layers.0.network.4.weight f4 [8, 8]
-0.027304977 -0.11391925 0.1405371 -0.844383 0.3666831 0.15228595 -0.29014912 -0.26265377
-0.0010445944 -0.13070133 -1.2185638 -0.035314824 0.41757667 -0.024966016 -0.24601126 0.11341251
0.0042938963 -0.08233789 -0.7681139 0.025703657 -0.0007646579 0.014807261 -0.033210862 0.67605716
0.0071395407 0.2992272 0.04660089 -0.32671753 0.0051425835 -0.8874569 -0.12221823 0.01714619
0.091107085 -0.016435795 -0.23613086 0.34982175 -0.5372368 0.014030699 -0.13562764 0.27793732
0.0057388796 -0.17683919 -0.0323839 0.04641358 0.0044973367 -0.04599661 0.18893848 0.00584833
0.049218003 -0.019390607 0.022570232 0.3341935 0.6558297 -0.0072128437 0.4480402 -0.3451165
-0.0011012104 -0.37578082 0.029639212 0.028435633 -0.056782562 -0.013873166 -0.41825864 -1.3467371
00000000: b0ae dfbc 7f4e e9bd f5e8 0f3e 7c29 58bf
00000010: e3bd bb3e d9f0 1b3e 6d8e 94be 8e7a 86be
00000020: c6ea 88ba 92d6 05be e6f9 9bbf 47a6 10bd
00000030: 9ccc d53e 8885 ccbc 60ea 7bbe d144 e83d
00000040: d0b3 8c3b c5a0 a8bd 1da3 44bf 7a90 d23c
00000050: 5373 48ba 279a 723c 1d08 08bd 1512 2d3f
00000060: cff2 e93b 4f34 993e 93e0 3e3d 8547 a7be
00000070: 1e83 a83b 6030 63bf 8d4d fabd 2b76 8c3c
00000080: 5a96 ba3d 5ca4 86bc 4acc 71be d61b b33e
00000090: 5a88 09bf 04e1 653c f9e1 0abe cd4d 8e3e
000000a0: 360d bc3b 5515 35be fba4 04bd 2b1c 3e3d
000000b0: 655e 933b f166 3cbd 1779 413e 59a3 bf3b
000000c0: d198 493d 0dd9 9ebc 35e5 b83c 691b ab3e
000000d0: 75e4 273f b859 ecbb 8665 e53e 1cb3 b0be
000000e0: 7d56 90ba 5866 c0be efcd f23c d8f1 e83c
000000f0: d594 68bd 474c 63bc ff25 d6be e261 acbf

flows.0.layers.0.network.4.bias f4 [8]
-0.079749614 -0.11043283 0.0314517 -0.09591915 0.43494034 -0.0068844026 -0.34715673 -0.4999781
00000000: c453 a3bd 9c2a e2bd 7fd3 003d 4271 c4bd
00000010: 80b0 de3e 8e96 e1bb 87be b1be 21fd ffbe

flows.0.layers.0.network.6.weight f4 [2, 8]
0.00961542 -0.57211083 -0.5120192 -0.001847282 0.03613559 0.0039306893 -0.088857956 0.68114215
-0.0033585855 -0.009368172 0.3910467 0.0004307059 0.119025834 -0.001930442 -0.2362688 0.30295816
00000000: ff89 1d3c db75 12bf b113 03bf 8020 f2ba
00000010: ea02 143d 03cd 803b 29fb b5bd 555f 2e3f
00000020: b71b 5cbb f67c 19bc 4637 c83e 5ed0 e139
00000030: d1c3 f33d e306 fdba 73f0 71be 551d 9b3e

flows.0.layers.0.network.6.bias f4 [2]
-0.060866676 -0.045471944
00000000: 564f 79bd ca40 3abd

flows.0.layers.1.network.0.weight f4 [8, 2]
0.2849924 -0.21153678 0.32176173 -1.1364907 0.23073603 1.3851706 1.4650224 0.72390175
-1.0675126 0.6806182 -1.2786726 0.10894181 3.0917242 0.21423557 -0.940949 -0.07840073
00000000: 86ea 913e 199d 58be f4bd a43e 8778 91bf
00000010: 1146 6c3e 454d b13f db85 bb3f a051 393f
00000020: 41a4 88bf ff3c 2e3f 8bab a3bf e21c df3d
00000030: cfde 4540 9260 5b3e 09e2 70bf 9090 a0bd

flows.0.layers.1.network.0.bias f4 [8]
-0.75683856 -1.0041186 -1.0733522 0.21215688 -0.19870237 -0.6171321 0.46158636 0.78221273
00000000: 2cc0 41bf f586 80bf 9b63 89bf a73f 593e
00000010: a278 4bbe 5ffc 1dbf 0c55 ec3e 183f 483f

flows.0.layers.1.network.2.weight f4 [8, 8]
-0.10594637 -0.24259157 -0.06515006 0.3214954 0.3678936 1.2830719 0.110455334 0.1953843
1.2888939 1.3636502 1.6390961 -0.65182173 0.47090387 0.17069133 -0.4156386 -0.39930782
0.39570084 -0.42741373 -0.20316392 0.30737242 -0.042725407 -1.2761714 0.005733876 0.029256243
-0.28684554 -0.7994871 -0.3606226 0.38033894 0.040176775 0.29938585 -0.5732719 -0.75823224
0.23876971 -0.12826607 0.12823962 -0.35711867 0.29308107 1.948789 -0.2438398 0.28565505
-0.70483106 -0.30495995 0.43302476 -0.09562315 -0.14387698 0.1093656 -0.39703402 1.0446802
-0.15631859 -0.80054766 0.8103076 0.14278956 -0.8059343 -1.0596187 -0.83156556 0.41628358
-0.43148184 -0.54078203 -1.4116441 0.6011574 -0.0061712526 0.30490774 -0.17956498 0.5923212
00000000: 69fa d8bd ed69 78be 656d 85bd 0c9b a43e
00000010: 8d5c bc3e b33b a43f 6836 e23d d212 483e
00000020: 7afa a43f 178c ae3f e7cd d13f cadd 26bf
00000030: 501a f13e b5c9 2e3e 95ce d4be 1372 ccbe
00000040: 4d99 ca3e f9d5 dabe 340a 50be eb5f 9d3e
00000050: d600 2fbd 9659 a3bf 3de3 bb3b caaa ef3c
00000060: 6bdd 92be 30ab 4cbf 87a3 b8be c9bb c23e
00000070: 6790 243d 1a49 993e f2c1 12bf 821b 42bf
00000080: 0c80 743e 2e58 03be 3f51 033e 42d8 b6be
00000090: b90e 963e eb71 f93f 24b1 79be 6141 923e
000000a0: cf6f 34bf b623 9cbe 6cb5 dd3e 12d6 c3bd
000000b0: 7d54 13be 12fb df3d 0b48 cbbe 15b8 853f
000000c0: fb11 20be b1f0 4cbf 5270 4f3f 6d37 123e
000000d0: b651 4ebf 96a1 87bf 7be1 54bf 1f23 d53e
000000e0: 30eb dcbe b170 0abf c1b0 b4bf 74e5 193f
000000f0: 3838 cabb de1c 9c3e e2df 37be 5da2 173f

flows.0.layers.1.network.2.bias f4 [8]
-0.43326098 0.7367305 0.4835015 -0.45922714 -0.4338895 -0.009022792 -0.1774205 0.1666804
00000000: 62d4 ddbe 5f9a 3c3f 828d f73e d21f ebbe
00000010: c426 debe 55d4 13bc b8ad 35be 44ae 2a3e

flows.0.layers.1.network.4.weight f4 [8, 8]
0.006009225 -0.004474132 0.00038788206 -0.00024069175 0.0032771612 -0.0044623273 0.0068837246 -0.0016893677
0.7910256 -0.16692464 -0.29404208 0.9643188 0.48394322 0.3260128 0.81815606 0.74106205
-0.5942453 0.56352174 0.2234533 0.094370686 -0.39429432 -0.85659075 0.7613929 -0.45382982
0.22562625 -0.57153416 -0.29323116 -0.78066254 -0.27941588 0.09889704 0.21488719 0.07639727
0.05751698 0.44111133 0.22551146 0.49721733 -0.08862483 -0.18467769 -0.6527512 -0.49380463
0.2548132 0.58900845 -0.44480595 -0.14977002 1.2618786 -0.062979065 -0.121421605 -0.11145593
-0.2441617 0.79304874 0.15389307 -0.3400456 0.18542372 -0.13303925 -0.096240975 -0.3951507
-0.83912593 0.31033278 1.0605989 0.20378235 0.013741542 -0.024735283 -0.35684773 0.16688773
00000000: 08e9 c43b bd9b 92bb a65c cb39 3362 7cb9
00000010: a4c5 563b b738 92bb de90 e13b c66d ddba
00000020: a780 4a3f 4bee 2abe af8c 96be 99dd 763f
00000030: 68c7 f73e 26eb a63e ad72 513f 3eb6 3d3f
00000040: 7620 18bf f642 103f f1d0 643e 6b45 c13d
00000050: f2e0 c9be 8849 5bbf a5ea 423f 625c e8be
00000060: 910a 673e 1050 12bf 6522 96be 80d9 47bf
00000070: 990f 8fbe 888a ca3d 630b 5c3e 2c76 9c3d
00000080: ed96 6b3d 58d9 e13e 7aec 663e 4593 fe3e
00000090: ef80 b5bd 261c 3dbe b41a 27bf f6d3 fcbe
000000a0: e076 823e 42c9 163f 9bbd e3be 505d 19be
000000b0: 3d85 a13f 2bfb 80bd e4ab f8bd 0243 e4bd
000000c0: 8605 7abe 3e05 4b3f 2596 1d3e 751a aebe
000000d0: b7df 3d3e 713b 08be fd19 c5bd 3151 cabe
000000e0: f5d0 56bf f0e3 9e3e b4c1 873f 52ac 503e
000000f0: 3424 613c a6a1 cabc bfb4 b6be 9ee4 2a3e

flows.0.layers.1.network.4.bias f4 [8]
-0.0036777996 -0.25615397 -0.11413042 -0.49572217 0.6932014 -0.0973293 -0.051148277 0.82924014
00000000: 3d07 71bb 9d26 83be 36bd e9bd 4ccf fdbe
00000010: a675 313f 9654 c7bd db80 51bd 1549 543f

flows.0.layers.1.network.6.weight f4 [2, 8]
-0.00079044484 0.14159487 -1.0093588 0.157294 -0.058417592 0.6251981 -0.63238096 -0.26530242
0.0015102467 0.23088373 0.13759668 0.08844157 -0.30431357 -0.23292473 -0.121056505 -0.27094588
00000000: db35 4fba 3ffe 103e ab32 81bf ae11 213e
00000010: 4947 6fbd fc0c 203f b8e3 21bf b8d5 87be
00000020: 78f3 c53a c96c 6c3e 25e6 0c3e db20 b53d
00000030: fdce 9bbe d283 6ebe 79ec f7bd 6bb9 8abe

flows.0.layers.1.network.6.bias f4 [2]
-0.5321818 -0.05435646
00000000: 113d 08bf e1a4 5ebd

flows.1.initial_param f4 [2]
0.039970215 0.21698487
00000000: cfb7 233d 4831 5e3e

flows.1.layers.0.network.0.weight f4 [8, 1]
0.9405467 -2.356567 -0.78933096 -0.11699592 -1.3045937 0.9535145 -1.8693615 -0.31056252
00000000: abc7 703f fed1 16c0 9811 4abf 8f9b efbd
00000010: edfc a6bf 8719 743f 3d47 efbf 0d02 9fbe

flows.1.layers.0.network.0.bias f4 [8]
-2.3752553 -1.8778656 1.8815781 0.36226058 1.2573555 1.7384013 3.1520178 -0.5018491
00000000: 2f04 18c0 e65d f0bf 8dd7 f03f 387a b93e
00000010: 06f1 a03f ef83 de3f a9ba 4940 2f79 00bf

flows.1.layers.0.network.2.weight f4 [8, 8]
0.41191724 3.0649402 0.09130928 0.33155444 0.36312374 -0.76408446 -0.42742163 1.1072906
0.013683682 -0.94984984 -0.14830932 -0.6955707 0.20124295 0.443242 1.0478268 -0.4112065
-0.759791 1.023008 0.7656573 0.010659727 1.157977 -0.26954812 3.0879173 0.5663816
0.86175835 -0.16233729 -0.8944992 -0.003911389 -1.8714802 0.25179586 0.4656578 -0.5054814
0.054752715 1.4014341 -0.36870256 -0.25235528 -0.41719103 1.9577793 -0.01226642 -0.5086646
-4.5048666 -0.7808239 3.760389 0.48583263 0.60582817 0.53970265 -0.822398 -0.15804783
-0.34475237 0.95869106 0.29987845 -0.37839043 -0.44950598 0.20568259 0.07959558 -0.9214977
4.2198668 -0.031399198 -4.0807137 -0.7887584 -1.1492076 -0.12075873 -3.201432 0.32468608
00000000: d1e6 d23e fb27 4440 5c00 bb3d 81c1 a93e
00000010: 5beb b93e 0a9b 43bf 02d7 dabe b3bb 8d3f
00000020: 8631 603c 5c29 73bf 66de 17be ec10 32bf
00000030: a212 4e3e 9ef0 e23e 301f 863f a989 d2be
00000040: aa81 42bf edf1 823f 1e02 443f 23a6 2e3c
00000050: 9738 943f 3602 8abe 70a0 4540 62fe 103f
00000060: 329c 5c3f bf3b 26be e6fd 64bf 1c2b 80bb
00000070: aa8c efbf 63eb 803e b36a ee3e 3b67 01bf
00000080: 6244 603d 3162 b33f 95c6 bcbe b634 81be
00000090: 109a d5be 8398 fa3f 18f9 48bc d837 02bf
000000a0: de27 90c0 13e4 47bf 37aa 7040 0ebf f83e
000000b0: 8e17 1b3f f429 0a3f ad88 52bf 4ad7 21be
000000c0: 6283 b0be c76c 753f ab89 993e 64bc c1be
000000d0: a625 e6be 759e 523e 0203 a33d 46e7 6bbf
000000e0: 2609 8740 729c 00bd 3595 82c0 12ec 49bf
000000f0: 3c19 93bf 5a50 f7bd 43e4 4cc0 413d a63e

flows.1.layers.0.network.2.bias f4 [8]
-0.15916784 -0.21984147 -0.4660031 -0.20870996 0.113760635 1.1192305 -0.1340666 -0.19677503
00000000: e5fc 22be 1f1e 61be f597 eebe 10b8 55be
00000010: 56fb e83d f242 8f3f c148 09be 657f 49be

flows.1.layers.0.network.4.weight f4 [8, 8]
-1.0327421 0.28384706 0.41298658 -0.020596271 -1.2190307 -0.20869863 -0.3772953 -0.911359
-0.025740614 -0.1343543 0.09878749 0.081301965 0.098197274 0.037873767 -0.21988033 -0.06010337
-0.13371143 0.17174697 0.7670094 0.17905484 0.533812 -0.7497957 0.47807658 0.18390256
-0.29560184 -0.9507745 -1.0109829 -0.83702844 0.32203397 1.2943336 0.03904408 0.4392838
0.05122482 0.9971638 1.0058316 -0.095232844 -0.039934516 -0.2539555 0.66329694 -0.5425581
0.92295724 -0.8110992 -0.28331402 0.85859144 0.082994 -0.7591047 -0.71996933 3.3683808
1.539842 -0.2567695 0.92485946 -0.3116166 0.47189128 0.069733635 -0.123718075 -0.14638294
0.15535581 0.14415954 -0.23529883 -0.14601345 -0.032849483 0.04215921 -0.09294844 0.017294316
00000000: e530 84bf 6754 913e fa72 d33e 83b9 a8bc
00000010: 3309 9cbf 18b5 55be d92c c1be d34e 69bf
00000020: fbdd d2bc 2c94 09be 1851 ca3d a581 a63d
00000030: a71b c93d 8621 1b3d 4f28 61be f42e 76bd
00000040: a6eb 08be 70de 2f3e ba5a 443f 275a 373e
00000050: e7a7 083f 9cf2 3fbf 74c6 f43e f450 3c3e
00000060: 2059 97be f565 73bf e367 81bf 7f47 56bf
00000070: a3e1 a43e b9ac a53f afec 1f3d cee9 e03e
00000080: 1ed1 513d 2046 7f3f 17bf 803f 7009 c3bd
00000090: 6092 23bd 7506 82be d4cd 293f 16e5 0abf
000000a0: ed46 6c3f 32a4 4fbf 890e 91be a6cc 5b3f
000000b0: c2f8 a93d b054 42bf e94f 38bf 8d93 5740
000000c0: 8b19 c53f 4b77 83be 97c3 6c3f 368c 9fbe
000000d0: bc9b f13e 82d0 8e3d e75f fdbd 69e5 15be
000000e0: 9815 1f3e 8f9e 133e 2df2 70be 8d84 15be
000000f0: 2e8d 06bd 23af 2c3d c05b bebd cfac 8d3c

flows.1.layers.0.network.4.bias f4 [8]
0.4461578 -0.01844595 0.19995685 -0.040354878 0.008504389 -0.7132643 -0.24201849 0.04949458
00000000: cc6e e43e f61b 97bc 7dc1 4c3e 284b 25bd
00000010: fe55 0b3c 7d98 36bf b2d3 77be d4ba 4a3d

flows.1.layers.0.network.6.weight f4 [2, 8]
0.4781115 -0.0015457527 0.21171975 -0.019700943 0.14561358 0.8254394 0.49203995 0.007811688
-0.07954709 0.0016089741 -0.024417087 -0.47040918 -0.3369061 -0.09713308 0.05854999 0.021637747
00000000: 08cb f43e db9a caba 10cd 583e df63 a1bc
00000010: ba1b 153e ff4f 533f a9ec fb3e 30f9 ff3b
00000020: 96e9 a2bd 36e4 d23a 5806 c8bc 79d9 f0be
00000030: f57e acbe b5ed c6bd 1dd2 6f3d a541 b13c

flows.1.layers.0.network.6.bias f4 [2]
-0.058670864 -0.07565889
00000000: dc50 70bd 0cf3 9abd

flows.1.layers.1.network.0.weight f4 [8, 2]
0.3112083 0.027556177 -1.2575622 0.47355813 -0.7561346 2.3256078 -1.8894233 -0.5059868
0.4287949 0.24510299 -0.30486017 0.35371673 -0.3646377 -0.030931719 0.39685038 -0.53258437
00000000: b256 9f3e 7ebd e13c ccf7 a0bf 3676 f23e
00000010: 0a92 41bf c2d6 1440 9fd8 f1bf 5a88 01bf
00000020: 018b db3e 47fc 7a3e a216 9cbe 5c1a b53e
00000030: cbb1 babe 8464 fdbc f92f cb3e 7357 08bf

flows.1.layers.1.network.0.bias f4 [8]
-1.1743375 -0.6210664 -1.36816 -0.43551898 -0.6578042 0.7390256 -0.37811616 -0.20020974
00000000: b150 96bf 35fe 1ebf de1f afbf 58fc debe
00000010: db65 28bf c830 3d3f 7198 c1be c803 4dbe

flows.1.layers.1.network.2.weight f4 [8, 8]
0.23255637 0.07852946 0.7250198 0.78100955 -0.26927546 -0.32553896 -0.81370205 0.7007181
0.60044074 -0.03500578 0.79019403 0.6042544 0.15788172 -0.8088807 -0.6093003 0.23527403
0.00816338 0.2794766 0.5525703 0.9712812 0.5011217 0.59463084 -0.81102306 -1.7722236
0.08488911 0.9704363 0.44355822 0.17087862 0.17850778 -0.18360355 1.37296 0.7087955
-1.1427673 -0.8683277 -1.2477497 -0.0056643533 -0.73227274 -0.06697878 0.5182092 -0.006827439
-0.16942059 -0.61149406 0.4602553 -0.33530813 0.14630969 -0.41248986 -0.15362357 0.9007265
0.5882867 -0.34420818 -0.33387637 -0.7697288 1.1087517 0.6499439 -0.53217775 -0.7155675
-0.30374253 -0.6681018 0.55320615 -0.21270472 -0.4213447 0.6327357 0.1952094 -0.61355567
00000000: 4223 6e3e 0ed4 a03d e69a 393f 3ef0 473f
00000010: 79de 89be 0bad a6be c74e 50bf 4362 333f
00000020: 7cb6 193f 3962 0fbd 284a 4a3f 6bb0 1a3f
00000030: bfab 213e ce12 4fbf 1bfb 1bbf adeb 703e
00000040: b3bf 053c 8f17 8f3e 3f75 0d3f e2a5 783f
00000050: 8349 003f ba39 183f 359f 4fbf 39d8 e2bf
00000060: 57da ad3d 836e 783f 101a e33e cefa 2e3e
00000070: beca 363e 9202 3cbe 27bd af3f 9f73 353f
00000080: 3346 92bf b94a 5ebf 43b6 9fbf 0a9c b9bb
00000090: 3a76 3bbf 2c2c 89bd 5ca9 043f b6b8 dfbb
000000a0: 977c 2dbe e08a 1cbf 95a6 eb3e 82ad abbe
000000b0: 35d2 153e df31 d3be 7f4f 1dbe 0396 663f
000000c0: f599 163f 0e3c b0be d8f1 aabe f20c 45bf
000000d0: 93eb 8d3f b962 263f cd3c 08bf 6f2f 37bf
000000e0: 2484 9bbe b808 2bbf eb9e 0d3f 44cf 59be
000000f0: 7eba d7be f8fa 213f f9e4 473e fc11 1dbf

flows.1.layers.1.network.2.bias f4 [8]
0.22493364 -0.27094433 0.04289924 -0.5957668 0.1979736 -0.2722883 -0.46484888 0.22207399
00000000: 0155 663e 37b9 8abe 1db7 2f3d 2c84 18bf
00000010: 97b9 4a3e 5f69 8bbe ac00 eebe 5d67 633e

flows.1.layers.1.network.4.weight f4 [8, 8]
0.022061437 -0.09575806 0.43640843 0.8729374 -0.27162573 0.45801446 0.046504356 0.3468168
-0.69609714 -0.8113971 0.36746228 -0.66178286 1.1406825 -0.53477913 -0.087836795 0.096061535
0.055976752 0.40510023 -0.669494 0.39999092 -0.2796265 -0.0062869126 0.14775445 -0.47794867
0.6307766 -0.03674849 -0.012780783 0.8670719 -1.3830781 0.2910054 -1.0581454 0.7180906
-0.45518 -0.10210785 0.4679663 0.85688573 0.42946857 0.06746923 0.058668435 -0.10193985
0.9562135 -0.23028333 -0.21831547 -0.2668154 -0.4664955 0.5572968 -0.35000274 0.2203347
0.26076552 0.3726541 -0.036530457 -0.061363865 -0.14377728 0.6806184 0.25385514 -0.41982397
0.12600523 -0.21066634 0.07696062 -0.033529766 -0.06207831 0.058090582 0.035385508 -0.10239489
00000000: 30ba b43c cd1c c4bd ed70 df3e d378 5f3f
00000010: 8712 8bbe df80 ea3e 5a7b 3e3d f991 b13e
00000020: 6c33 32bf b8b7 4fbf 0424 bc3e 9a6a 29bf
00000030: e201 923f 49e7 08bf c7e3 b3bd e9bb c43d
00000040: e147 653d 4c69 cf3e f563 2bbf 9ccb cc3e
00000050: 342b 8fbe 7202 cebb f14c 173e b0b5 f4be
00000060: 937a 213f 9685 16bd 7d66 51bc 6df8 5d3f
00000070: b408 b1bf a9fe 943e 4f71 87bf c9d4 373f
00000080: 5a0d e9be ec1d d1bd 4799 ef3e dd5c 5b3f
00000090: 4ee3 db3e 4f2d 8a3d 504e 703d d7c5 d0bd
000000a0: 68ca 743f 65cf 6bbe 178e 5fbe 079c 88be
000000b0: 80d8 eebe 01ab 0e3f 8f33 b3be 6b9f 613e
000000c0: 0f83 853e 85cc be3e f6a0 15bd ad58 7bbd
000000d0: 5a3a 13be 023d 2e3f 4df9 813e 2bf3 d6be
000000e0: 8407 013e ebb8 57be 889d 9d3d 8256 09bd
000000f0: d345 7ebd 64f0 6d3d 65f0 103d 69b4 d1bd

flows.1.layers.1.network.4.bias f4 [8]
-0.13494766 0.33234087 -0.011123441 0.3294177 -0.3046856 0.16435617 -0.020672796 -0.08028966
00000000: b82f 0abe 9528 aa3e 183f 36bc 70a9 a83e
00000010: c0ff 9bbe fc4c 283e ff59 a9bc e86e a4bd

flows.1.layers.1.network.6.weight f4 [2, 8]
-0.078880794 -0.5651004 0.30908626 -0.13364762 -0.21372241 0.04659327 0.28823203 0.006920144
0.51345664 -0.55317694 0.03941154 -0.92410666 0.00487419 0.40945423 0.16721708 -0.011340931
00000000: 418c a1bd 6baa 10bf 8e40 9e3e ecda 08be
00000010: 0cda 5abe 96d8 3e3d 2693 933e 60c2 e23b
00000020: e571 033f 019d 0dbf ff6d 213d 4192 6cbf
00000030: abb7 9f3b fca3 d13e f43a 2b3e 50cf 39bc

flows.1.layers.1.network.6.bias f4 [2]
0.19133458 -0.5579824
00000000: 36ed 433e efd7 0ebf

flows.2.initial_param f4 [2]
0.24799754 -0.09158163
00000000: 11f3 7d3e 268f bbbd

flows.2.layers.0.network.0.weight f4 [8, 1]
-0.90425754 2.586885 -2.5625575 3.8630612 -0.5847272 -0.90879834 -0.5907311 -1.9380378
00000000: 6c7d 67bf 868f 2540 f100 24c0 653c 7740
00000010: afb0 15bf 02a7 68bf 273a 17bf 9f11 f8bf

flows.2.layers.0.network.0.bias f4 [8]
-1.138853 0.13672218 2.945454 -0.9240848 0.38645196 2.0377717 0.5505246 -1.2023457
00000000: efc5 91bf e600 0c3e 5182 3c40 d290 6cbf
00000010: 08dd c53e da6a 0240 2eef 0c3f 77e6 99bf

flows.2.layers.0.network.2.weight f4 [8, 8]
0.16961056 -0.7196273 -2.0253584 -0.56912816 0.74071336 1.8473773 0.5559855 0.42718855
-0.0986487 0.4705352 -3.0214477 -0.11055649 -0.1898459 1.0123849 -0.49510285 0.32252035
-0.041307654 -1.4128078 -0.20778923 -2.685671 0.510647 0.37126586 0.5544396 -0.34020954
0.82421744 0.122363016 1.0133741 0.35374162 0.74463165 -1.7504047 0.3648623 -0.5521109
-2.2854018 1.4837958 0.25629956 -0.13328464 -0.3785337 0.040954344 -0.14693831 -4.0094295
-0.94420475 9.866539 -0.22055684 1.8507547 0.22697088 -0.03939768 -0.10647827 -1.3410558
-0.35030937 -1.6826797 1.6018289 -3.514736 0.6354107 0.695384 0.6289193 -0.13189812
-0.40681326 0.69872946 2.2654986 0.034503322 0.4571443 0.31912753 0.28160912 -0.62926733
00000000: 64ae 2d3e 7f39 38bf 799f 01c0 62b2 11bf
00000010: 649f 3d3f dc76 ec3f 1155 0e3f 75b8 da3e
00000020: 5408 cabd fde9 f03e 665f 41c0 716b e2bd
00000030: f766 42be d495 813f 1f7e fdbe 6321 a53e
00000040: 3732 29bd e3d6 b4bf b3c6 54be 09e2 2bc0
00000050: c3b9 023f 8f16 be3e c1ef 0d3f f22f aebe
00000060: eaff 523f 7699 fa3d 3eb6 813f 9f1d b53e
00000070: 2ea0 3e3f 430d e0bf 3bcf ba3e 2457 0dbf
00000080: 0644 12c0 05ed bd3f b239 833e c57b 08be
00000090: 2bcf c1be bebf 273d ff76 16be 3f4d 80c0
000000a0: 67b7 71bf 58dd 1d41 a7d9 61be 88e5 ec3f
000000b0: 0e6b 683e 765f 21bd 4711 dabd b7a7 abbf
000000c0: c05b b3be 0c62 d7bf bb08 cd3f 6ff1 60c0
000000d0: 47aa 223f b004 323f db00 213f 4d10 07be
000000e0: d449 d0be efdf 323f eefd 1040 5b53 0d3d
000000f0: d10e ea3e af64 a33e 122f 903e aa17 21bf

flows.2.layers.0.network.2.bias f4 [8]
0.17813669 -0.4198276 0.31935918 0.26540455 -0.012363929 0.4465932 0.37343097 -0.29836202
00000000: 7769 363e a5f3 d6be 0c83 a33e 1be3 873e
00000010: 1492 4abc dda7 e43e 5832 bf3e e8c2 98be

flows.2.layers.0.network.4.weight f4 [8, 8]
1.4706212 0.42557862 0.48396847 -0.8730928 -0.44933876 -0.1408797 -0.3579729 -0.655194
0.6202717 -0.24641657 0.26327232 -0.013807681 -0.93823975 0.1527134 -1.253018 -0.36811596
0.42995763 -1.5323867 -0.122177154 0.66623497 -0.5705856 1.7604673 0.22390746 -0.2304217
0.8117595 -0.66546756 0.15555725 0.3114682 -1.2525493 1.5488328 -0.7418027 0.8978522
-0.4100516 -0.1112446 -0.3502122 -0.1585481 -0.9342616 -0.2705898 2.2330644 -0.61867195
3.8429208 0.77122813 0.8931892 0.12515949 -2.2353687 -0.2994516 -0.47173646 -2.787104
-0.07799116 0.25066394 0.9714882 -1.3121877 0.7280754 -0.10183889 -0.010537338 0.6041739
1.6980195 1.0798206 0.09229404 1.0398535 -0.08094714 -0.36387917 -1.4619321 0.52928025
00000000: 513d bc3f 71e5 d93e b7ca f73e 0283 5fbf
00000010: bb0f e6be c542 10be 3948 b7be cbba 27bf
00000020: 20ca 1e3f a054 7cbe a1cb 863e 9d39 62bc
00000030: 7b30 70bf e760 1c3e e562 a0bf b279 bcbe
00000040: 6823 dc3e 3f25 c4bf 0438 fabd 608e 2a3f
00000050: e611 12bf fe56 e13f ff47 653e abf3 6bbe
00000060: 78cf 4f3f 155c 2abf 664a 1f3e c378 9f3e
00000070: 8953 a0bf 2740 c63f c8e6 3dbf a4d9 653f
00000080: 49f2 d1be 35d4 e3bd 034f b3be 6f5a 22be
00000090: c52b 6fbf bf8a 8abe 87ea 0e40 4961 1ebf
000000a0: 6af2 7540 356f 453f 0ca8 643f cf29 003e
000000b0: 4810 0fc0 b851 99be 7187 f1be e95f 32c0
000000c0: d4b9 9fbd 0657 803e 73b3 783f c4f5 a7bf
000000d0: 2663 3a3f e890 d0bd cda4 2cbc 24ab 1a3f
000000e0: b458 d93f 9037 8a3f a804 bd3d eb19 853f
000000f0: 9dc7 a5bd 5f4e babe 9720 bbbf e97e 073f

flows.2.layers.0.network.4.bias f4 [8]
0.8025724 0.35750136 0.8180732 -0.7213327 0.16360275 -0.35252136 -0.3417634 0.90437007
00000000: 6375 4d3f 6b0a b73e 3f6d 513f 43a9 38bf
00000010: 7b87 273e ae7d b4be 9dfb aebe cc84 673f

flows.2.layers.0.network.6.weight f4 [2, 8]
0.18269071 -0.4236858 -1.8130884 0.79319274 -0.9758857 0.4126296 0.7374385 -1.1081502
0.5356096 0.7928651 0.06745832 0.7197689 0.71702605 -1.0527982 -0.5131989 0.01691769
00000000: 4613 3b3e 58ed d8be 4813 e8bf ae0e 4b3f
00000010: a5d3 79bf 3044 d33e c5c8 3c3f ded7 8dbf
00000020: b61d 093f 35f9 4a3f 9627 8a3d c642 383f
00000030: 058f 373f 17c2 86bf 0161 03bf f896 8a3c

flows.2.layers.0.network.6.bias f4 [2]
0.07579231 0.37309802
00000000: 0039 9b3d b406 bf3e

flows.2.layers.1.network.0.weight f4 [8, 2]
1.2932807 -0.081207946 1.6544 0.8193587 1.2382896 -0.10714198 -2.3297513 -2.3872626
-1.6189548 -0.9661027 0.25931293 -1.2531785 -3.2612906 1.2317605 2.3517847 -4.6502934
00000000: 398a a53f 5a50 a6bd 61c3 d33f 7ec1 513f
00000010: 4680 9e3f 416d dbbd a51a 15c0 e9c8 18c0
00000020: e939 cfbf 8252 77bf aac4 843e 2768 a0bf
00000030: fcb8 50c0 54aa 9d3f a483 1640 34cf 94c0

flows.2.layers.1.network.0.bias f4 [8]
0.0687135 -1.1265935 1.9284599 0.89445746 2.5692844 -1.2515569 -0.36018407 0.51278
00000000: aab9 8c3d 3734 90bf c6d7 f63f 2afb 643f
00000010: 286f 2440 0433 a0bf 0c6a b8be 8d45 033f

flows.2.layers.1.network.2.weight f4 [8, 8]
0.6735368 0.96100867 -1.3195579 -3.6438692 0.7836725 -0.895237 1.0104605 -2.1030848
-0.8549508 -1.6132277 -1.0718974 1.1499543 1.8356985 -1.8429288 1.0341243 -0.52064747
0.8590381 -1.5174451 -0.28939202 -0.45618615 2.3617232 -0.8320614 1.5168183 -0.92371076
-0.3652343 0.961511 -3.7230644 0.47412854 -0.4479072 -2.1090493 -0.5395617 0.81816727
-2.8100145 -2.6395333 -0.88258135 3.3725603 1.263002 0.24965985 0.9473796 1.2655278
1.5023391 -2.1236944 0.02250299 0.6140071 -0.19493726 3.1774914 -2.2515175 -1.8926003
-0.6604269 -0.68316925 0.30943742 -0.5128652 -0.22684173 -0.25718197 -1.5990288 0.5230855
1.4395863 1.0441968 0.29680452 1.6920763 -0.43881422 -1.3162372 0.8567399 -0.7816223
00000000: e86c 2c3f aa04 763f 46e7 a8bf 2735 69c0
00000010: c39e 483f 412e 65bf c556 813f f198 06c0
00000020: 0ede 5abf 3f7e cebf ef33 89bf b431 933f
00000030: 2bf8 ea3f 17e5 ebbf 2f5e 843f 2749 05bf
00000040: ece9 5b3f a43b c2bf 312b 94be 3b91 e9be
00000050: 7926 1740 fa01 55bf 1a27 c23f 4f78 6cbf
00000060: fdff babe 9625 763f b046 6ec0 fac0 f23e
00000070: 1854 e5be aafa 06c0 b720 0abf 6973 513f
00000080: 47d7 33c0 1dee 28c0 daf0 61bf 07d8 5740
00000090: 0daa a13f d5a6 7f3e 7887 723f d1fc a13f
000000a0: a64c c03f 9cea 07c0 3158 b83c 922f 1d3f
000000b0: a29d 47be 055c 4b40 dd18 10c0 ba40 f2bf
000000c0: bd11 29bf 2ee4 2ebf 956e 9e3e 224b 03bf
000000d0: 3349 68be 5bad 83be faac ccbf eee8 053f
000000e0: 5d44 b83f 3ea8 853f c3f6 973e f595 d83f
000000f0: 42ac e0be 767a a8bf 4e53 5b3f 6618 48bf

flows.2.layers.1.network.2.bias f4 [8]
-1.000239 0.22020143 0.6419338 -0.68499464 0.9211805 -0.119158365 0.07217958 0.09703439
00000000: d507 80bf 7c7c 613e c655 243f cf5b 2fbf
00000010: 7cd2 6b3f 4d09 f4bd e3d2 933d f7b9 c63d

flows.2.layers.1.network.4.weight f4 [8, 8]
-1.0142471 -1.5701982 -2.1334627 -0.5728566 -0.9801127 2.3697999 0.39586824 0.015812464
1.6090841 2.7209783 -0.39924428 0.0877376 -0.5000275 -2.3402 1.5340378 0.3307414
-0.30709597 -0.9346612 -1.0829722 -3.2353463 -0.03518907 0.088240504 0.28765544 2.1324508
1.5558121 2.0097663 -0.8076922 0.16981854 0.8486086 0.07747313 0.067587234 1.3614095
-0.5527267 0.7000175 -1.5699226 0.54283214 0.007867036 -1.5694048 0.94247764 1.5974816
-0.99389833 0.5369965 2.0032096 -0.9091323 -2.7722442 0.45079336 -0.60627997 1.3021352
-1.4682502 -0.35836104 -0.16002007 -0.09663659 0.47408143 -0.3879628 -2.5925424 0.9643603
-0.11818349 0.49014056 -0.17513521 -0.5266335 1.1356674 -1.0499299 -0.36814907 0.94269764
00000000: d9d2 81bf 41fc c8bf a78a 08c0 bba6 12bf
00000010: aae8 7abf cdaa 1740 3eaf ca3e 2489 813c
00000020: 78f6 cd3f 8224 2e40 bf69 ccbe c5af b33d
00000030: cd01 00bf d6c5 15c0 5a5b c43f f056 a93e
00000040: af3b 9dbe f545 6fbf d59e 8abf ea0f 4fc0
00000050: 6a22 10bd 70b7 b43d 9347 933e 137a 0840
00000060: da24 c73f 03a0 0040 ebc4 4ebf e9e4 2d3e
00000070: 6a3e 593f 3baa 9e3d 2d6b 8a3d ab42 ae3f
00000080: 7f7f 0dbf 5934 333f 39f3 c8bf 0cf7 0a3f
00000090: bee4 003c 42e2 c8bf 3746 713f 477a cc3f
000000a0: 1f70 7ebf 9a78 093f 9634 0040 e5bc 68bf
000000b0: 736c 31c0 63ce e63e 2a35 1bbf 5eac a63f
000000c0: 9fef bbbf 197b b7be 4ddc 23be 68e9 c5bd
000000d0: cdba f23e 0fa3 c6be 37ec 25c0 51e0 763f
000000e0: 300a f2bd b4f3 fa3e a556 33be 74d1 06bf
000000f0: 8d5d 913f 1a64 86bf 097e bcbe a254 713f

flows.2.layers.1.network.4.bias f4 [8]
-0.0026778956 0.5316228 0.2087009 0.19429904 1.2293491 -0.99753916 0.10452959 -0.85979795
00000000: a27f 2fbb 6f18 083f b0b5 553e 54f6 463e
00000010: 505b 9d3f ba5e 7fbf 9c13 d63d b81b 5cbf

flows.2.layers.1.network.6.weight f4 [2, 8]
0.18663798 -1.0584042 -0.074157864 -0.75275946 0.8420212 0.32824513 -0.79041773 1.0391315
1.0386171 1.0773293 1.4118601 -0.49331325 -1.5134737 0.84049463 -0.41807526 1.2635216
00000000: 071e 3f3e ca79 87bf 14e0 97bd d8b4 40bf
00000010: b48e 573f bf0f a83e d158 4abf 4302 853f
00000020: 68f1 843f ede5 893f d5b7 b43f 8e93 fcbe
00000030: 82b9 c1bf a82a 573f f60d d6be 13bb a13f

flows.2.layers.1.network.6.bias f4 [2]
0.102045104 -1.0685717
00000000: 06fd d03d f5c6 88bf
