data/models/MAF_crossroads_ego_left_turn_bv_opposite_best.pth (torch, 49949 bytes, 100 tensors)

flows.0.initial_param f4 [2]
000000 59 c7 f4 3e ab 27 71 3c
       0.4780834 0.01471893

flows.0.layers.0.network.0.weight f4 [8, 1]
000000 4f fc a0 3e 77 0f f2 3e a2 8f 4b bf 30 e9 3d bf
       0.31442496 0.47277424 -0.7951604 -0.7418394
000010 e0 d4 51 bf ff eb 8e 3e 3d 82 2d 3f 5d f9 66 3f
       -0.81965446 0.27914426 0.6777685 0.9022425

flows.0.layers.0.network.0.bias f4 [8]
000000 50 9d 11 be c4 66 dd 3d 06 e0 88 be 78 db 77 be
       -0.14220166 0.108106166 -0.26733416 -0.24204814
000010 fe 6d 7e bf 9a 65 3b bf 0d 46 f8 be 35 7e 04 bf
       -0.99386585 -0.73201907 -0.48490945 -0.51755077

flows.0.layers.0.network.2.weight f4 [8, 8]
000000 37 9c 37 3f 60 b5 f0 3e 32 d3 b3 be 8d a3 a8 be
       0.7172274 0.47013378 -0.35122067 -0.3293728
000010 29 73 8d 3e e5 f7 07 3f db e1 a4 3e ae 2b 8d 3f
       0.27626923 0.5311263 0.32203564 1.1028955
000020 05 de aa bd 59 a2 28 3e a3 80 98 3d b3 1b 05 bf
       -0.08343128 0.1646818 0.074464105 -0.5199539
000030 5d 2b 6f be 15 3e ce bd 7f 37 11 be 31 30 bc 3e
       -0.23356386 -0.10070435 -0.14181326 0.36755517
000040 17 6a 87 be 91 fa ac bd ad 57 a0 be 03 8f bd be
       -0.26448128 -0.08446229 -0.3131689 -0.37023172
000050 23 f3 88 be 9c 1b 84 3e 99 0b e4 3d 9e 60 33 3e
       -0.26748 0.25802314 0.111350246 0.17517325
000060 b7 ef bc 3d 50 dc c9 3d 0a 10 26 be ee c7 17 bf
       0.092254095 0.098564744 -0.16217056 -0.59289443
000070 7e f1 ba be 63 10 87 be da 1d 35 3e 3d a1 cd 3e
       -0.3651237 -0.2637969 0.17687169 0.40162078
000080 2b e7 53 be a6 8f 05 bd 5c c3 fb 3d 91 10 81 3e
       -0.20693652 -0.032607697 0.12293121 0.25207952
000090 aa 7c 7f 3e 4d 66 ea 3c 23 af 6b 3e e8 53 ba bd
       0.249499 0.028613234 0.23016028 -0.09098035
0000a0 19 08 0d be 46 f4 d4 be 99 04 91 be 2d b9 3d be
       -0.1377262 -0.41592616 -0.2832382 -0.1852767
0000b0 a4 5d 4b 3e 9e 2d 14 3d 29 0d b1 be 9c 1f bd 3d
       0.1985994 0.036176316 -0.34580353 0.09234545
0000c0 c7 39 19 3e f7 88 b1 ba c0 03 94 be 92 03 44 be
       0.14963447 -0.0013544847 -0.2890911 -0.19141987
0000d0 05 2f a8 3d 21 e8 7e 3e 9c d3 c2 be 1c d7 7e be
       0.08212093 0.24893238 -0.3805207 -0.24886745
0000e0 5b a1 93 3d 6e f3 58 3e 4e b6 67 3e cd 73 7e 3e
       0.072085105 0.21186611 0.22628137 0.24848862
0000f0 55 8b 33 3e 0a 34 a2 be 38 ff 1e 3d c7 00 da bd
       0.1753362 -0.31680328 0.038817614 -0.106446795

flows.0.layers.0.network.2.bias f4 [8]
000000 2b d5 01 bf 5f de 8d 3e 2c 16 99 3e b1 47 7a be
       -0.50715894 0.27708718 0.29899728 -0.2444141
000010 ca 8a 47 3d 45 b5 8d bc 27 d8 93 3b 5d 48 4b be
       0.048716344 -0.01729835 0.0045118514 -0.19851823

flows.0.layers.0.network.4.weight f4 [8, 8]
000000 14 e8 0f 3e 96 69 37 be d4 46 58 3e c3 3e 54 3e
       0.14053375 -0.17911372 0.21120769 0.20727067
000010 88 fb 95 3c 96 2a 05 3e 7a a1 d9 be 49 3f 8c be
       0.018308416 0.13004526 -0.4250601 -0.27392033
000020 3f 3b a4 3e 0a c2 03 3e ad 9b 51 be e4 a5 c8 bd
       0.3207645 0.12866989 -0.20469542 -0.09797266
000030 3c ab 98 3e ab 19 d1 3e 20 8a 5d be 07 90 06 be
       0.2981814 0.40839896 -0.21634722 -0.1314088
000040 fb 64 03 bf 19 3e bc bd 16 d6 ad be 97 2c d1 be
       -0.5132596 -0.09191532 -0.33952397 -0.40854332
000050 cf a7 b6 3d ac 6e 52 be 99 19 d3 bd f7 b0 8e 3e
       0.08918726 -0.2055003 -0.10307617 0.27869388
000060 5c 9b 93 be c2 69 a9 3e 3d 45 89 3e f9 be 8d be
       -0.28829467 0.330885 0.26810637 -0.27684763
000070 bb 6a 87 be 16 45 9d bd c2 cc 35 bb eb d1 45 3c
       -0.26448616 -0.07679193 -0.0027740453 0.012073974
000080 3d 48 ec 3d a2 cf 82 bc 19 9c 7d be 0a ed 12 3e
       0.11537216 -0.015968148 -0.24766578 0.14348236
000090 3c 8c 8a be ab f4 08 bf 34 8e 57 bd 7b 33 51 be
       -0.27060115 -0.53498334 -0.05262585 -0.20429794
0000a0 8b 34 2e be 14 fb 98 be e2 37 0a be 98 9a 0e 3d
       -0.17012231 -0.29879057 -0.1349788 0.0348154
0000b0 25 08 10 be be d2 f7 bd 11 9c 8b 3e 5e 01 33 bd
       -0.14065607 -0.12100743 0.27267507 -0.043702476
0000c0 ce 37 2f 3c 26 2a 75 bb bc 85 ec 3d b1 53 81 3e
       0.010694457 -0.0037409156 0.11548945 0.25259164
0000d0 19 27 c1 3d fb 74 87 3e e2 1e 99 3e 2c 23 ec bd
       0.094312854 0.26456437 0.29906374 -0.11530146
0000e0 eb f0 b2 be 4d a2 77 be d4 0b 1f 3e 66 67 36 bd
       -0.3494943 -0.24183007 0.15531856 -0.044532202
0000f0 78 99 91 bd 05 7e 77 bf 63 eb 90 be 42 0d 9b be
       -0.0710935 -0.96676666 -0.28304586 -0.30283552

flows.0.layers.0.network.4.bias f4 [8]
000000 76 05 45 bd d8 28 82 3e aa 23 f0 3d 22 77 ba be
       -0.04810091 0.25421786 0.117255524 -0.36419016
000010 a1 96 29 3e 28 20 9c be cd 97 84 bd 13 5a 68 be
       0.16561367 -0.30493283 -0.06474266 -0.2269061

flows.0.layers.0.network.6.weight f4 [2, 8]
000000 1f 52 8d bd 25 71 26 3e 95 79 ac be 44 3a 05 bf
       -0.06900429 0.16254099 -0.3368651 -0.5204203
000010 cb bc 1d be 1a bd 85 bd eb b7 da bd b6 6c 6d be
       -0.1540405 -0.06530209 -0.10679611 -0.23186001
000020 7c 15 a6 be 58 4a 16 be d6 f8 a6 3e 62 ff 97 3c
       -0.32438266 -0.14676797 0.32611722 0.018554393
000030 66 1c bf 3d ab a9 1c 3e 00 07 8f be c6 18 58 3e
       0.093315884 0.15299098 -0.27935028 0.211032

flows.0.layers.0.network.6.bias f4 [2]
000000 8f d8 87 3c d0 ce 3e be
       0.016582755 -0.1863358

flows.0.layers.1.network.0.weight f4 [8, 2]
000000 af 3e 2e 3f 8b 26 41 bf ee 29 4a 3e af 29 7f be
       0.680644 -0.75449437 0.19742557 -0.24918245
000010 70 f2 f8 3d 35 22 bc 3e fc 38 47 3f 96 a4 2c 3c
       0.12155616 0.36744848 0.77821326 0.010537287
000020 fe aa 29 be 90 08 44 be 2c 48 f7 be 55 e5 fb 3e
       -0.16569135 -0.19143891 -0.4829725 0.49198404
000030 b5 c3 f4 3e 22 df 22 3f aa 52 4e bf 07 52 18 be
       0.47805563 0.63621724 -0.80594885 -0.14875041

flows.0.layers.1.network.0.bias f4 [8]
000000 4d b3 5f be b5 38 16 be 36 8e 00 bf 8f 12 8e 3e
       -0.21845742 -0.1467007 -0.50216997 0.27748534
000010 ac 31 f7 be cb ae 88 be c7 cd cf 3d ec 91 e0 3e
       -0.48280084 -0.26695856 0.10146671 0.4386133

flows.0.layers.1.network.2.weight f4 [8, 8]
000000 cf 42 df be 48 be ca be a7 e8 c5 bd 78 c1 44 be
       -0.43605658 -0.39598298 -0.096635155 -0.19214427
000010 6d f2 31 be ed 4c cb 3e 3a fb 94 3d 4c ad bc 3b
       -0.17377634 0.39707127 0.0727448 0.0057579633
000020 c9 25 78 3d 24 f7 d6 bd 7d a7 90 3e 88 65 f9 be
       0.06058291 -0.10496357 0.28252783 -0.48710275
000030 52 6d b6 3d 58 30 73 be fd de 82 bf 97 60 5e be
       0.0890757 -0.2374891 -1.0224301 -0.21716534
000040 86 bc a0 3e 2c 67 73 be 99 16 fe bd c3 b8 cb 3e
       0.31393832 -0.23769826 -0.12406654 0.397894
000050 4c 96 2e 3e 40 ab e1 3d a7 ed 26 be 3d ee 98 3e
       0.17049521 0.110189915 -0.16301595 0.2986926
000060 44 91 96 be 11 7c 26 bd 82 ed 88 be 13 cf f3 bd
       -0.29407704 -0.040645663 -0.26743704 -0.11904731
000070 af b3 9a 3d 5a 1f e3 3e 8e 79 37 be ab 2a dc 3e
       0.07553803 0.44359857 -0.17917463 0.43001303
000080 e0 2a 3b 3e 42 65 94 be fa 4c 97 3e 97 94 d7 be
       0.18278074 -0.28983504 0.29550916 -0.42105553
000090 91 e3 f1 bd ca 23 ac 3e 37 54 19 bd 88 39 9a 3e
       -0.11810983 0.33621055 -0.03743383 0.30122018
0000a0 81 c9 1d be 6d ee b7 bd 4e 5b a5 3e 4e db f1 be
       -0.15408899 -0.08981023 0.32296222 -0.4723763
0000b0 c8 6f c4 3e 22 2a a5 bc b8 23 f0 3d 64 27 c0 3d
       0.38366532 -0.020161692 0.11725563 0.09382513
0000c0 dc d9 49 be db a0 27 3d d7 94 9d 3e ba a2 47 bd
       -0.19712013 0.040924888 0.30777618 -0.048739173
0000d0 16 68 38 be 8c a8 45 bc 8a d8 03 be 62 81 91 3e
       -0.18008456 -0.0120641105 -0.12875572 0.28419024
0000e0 04 c7 0f be b3 f5 e8 bd c5 cb 1a be 71 59 ea 3e
       -0.14040762 -0.113749884 -0.15116794 0.45771363
0000f0 c1 eb ac 3e 63 1d 00 3f 25 74 1a 3f df f2 25 be
       0.33773616 0.5004484 0.6033347 -0.16205929

flows.0.layers.1.network.2.bias f4 [8]
000000 1f 50 60 bd bd 95 b4 3d f3 c4 80 3e 45 de 52 3d
       -0.05476391 0.08817623 0.2515026 0.051481504
000010 44 d6 4a be 1c 9e 86 be d2 50 c1 be c6 7a c3 bd
       -0.19808298 -0.26292503 -0.37756974 -0.095449015

flows.0.layers.1.network.4.weight f4 [8, 8]
000000 c7 f2 01 bf 70 88 1b 3e 71 63 30 3f 37 d9 5d be
       -0.50761074 0.15188766 0.68901736 -0.21664892
000010 31 37 4d bd 18 bc 00 3e f5 f6 94 3e 34 78 46 bf
       -0.050101463 0.12571752 0.29094663 -0.77527165
000020 ea 3b e8 be b7 5d ef 3e 62 9f 60 3e 44 b7 33 3e
       -0.4535821 0.46751186 0.219358 0.17550379
000030 19 f0 54 3d 5a 8e 03 3e 2d 8f 22 ba a5 94 25 be
       0.051986787 0.12847272 -0.00062011444 -0.16169985
000040 ca 72 2c be 15 05 1f bd 69 d8 af 3d bd c3 ba bd
       -0.16840664 -0.038823206 0.08586199 -0.09119365
000050 db 9e 51 bf 59 5b d1 be fc e3 58 be 22 4e 77 be
       -0.8188302 -0.40890005 -0.21180719 -0.24150899
000060 52 ea d7 3c a0 29 d9 3e d2 d0 22 be 3b ba 91 bd
       0.02635685 0.4241457 -0.15899971 -0.07115599
000070 e7 32 21 bd ae e8 c2 3e 8c 25 1c 3f 0d dc 03 bf
       -0.039355185 0.38068146 0.6099479 -0.51507646
000080 db c6 80 3e 66 33 af bd 0e c3 9f 3d da dd e2 3d
       0.25151715 -0.08554725 0.078008756 0.11077471
000090 58 41 18 bf e9 55 88 be 5b e3 66 be 51 b3 d6 3d
       -0.59474707 -0.26628044 -0.22547667 0.10483421
0000a0 2f 25 d3 3d 92 16 8b 3e e2 b6 e5 bd 3f 74 25 3d
       0.103098266 0.27165657 -0.11216523 0.040394064
0000b0 7d 74 2b 3f dd 70 cc 3d 76 b1 7a 3e 75 ad fb 3d
       0.6697462 0.099824645 0.24481758 0.12288944
0000c0 95 9b 22 be 72 b7 84 be dd 66 85 3e 95 ae df 3e
       -0.15879662 -0.25921208 0.2605504 0.43687883
0000d0 e1 61 cc 3e 64 e6 d7 bc 03 09 11 bb 1a 3a 23 bd
       0.39918426 -0.026354976 -0.0022130616 -0.03985033
0000e0 77 99 aa be df 87 48 bf ca 1c a3 3e 3d 7a 07 3e
       -0.3332021 -0.7833232 0.31857902 0.13230224
0000f0 d4 22 0f bf 24 7d 21 bb 41 c2 a3 bd 8c ac 03 3f
       -0.5591252 -0.002464124 -0.07996035 0.5143516

flows.0.layers.1.network.4.bias f4 [8]
000000 b4 90 89 3e 6b 7f 81 3e e0 46 89 3d db 7b 3c be
       0.26868212 0.25292525 0.067029715 -0.18406622
000010 b9 ab bc 3e eb 27 01 3e 4c 4a 4a be 16 6c 83 3e
       0.36849764 0.12612884 -0.19754905 0.256684

flows.0.layers.1.network.6.weight f4 [2, 8]
000000 f4 6e db 3d 10 01 9c 3e 39 d2 c6 be 19 db 8f 3d
       0.10714522 0.3046956 -0.38832262 0.070242114
000010 d0 c1 18 be a6 02 b1 3e dd 6b ba 3e cc 77 1b 3e
       -0.14917684 0.34572333 0.36410418 0.15182418
000020 3a 23 77 3e a8 92 43 3e 94 06 20 3d 5e 51 77 3e
       0.24134532 0.19098914 0.039068773 0.24152133
000030 48 d4 8d be b6 ad bd 3d 83 1b b4 be b4 52 e0 be
       -0.2770102 0.09261648 -0.3517724 -0.43813097

flows.0.layers.1.network.6.bias f4 [2]
000000 98 db a1 be 3c 8d 88 3e
       -0.3161285 0.26670253

flows.0.layers.2.network.0.weight f4 [8, 3]
000000 43 8a 84 3e a5 26 09 3f 5e 7b bb 3e 25 7c 30 bf
       0.25886735 0.5357459 0.3661756 -0.6893943
000010 c1 be f5 be 05 e5 da bd 71 5b 82 be 41 3f e1 3e
       -0.47997096 -0.10688213 -0.2546039 0.4399357
000020 82 1c c8 be a5 6f 35 3d bc 28 93 be 68 d2 1a bf
       -0.3908425 0.044295926 -0.28742015 -0.60477304
000030 7d a5 9f 3e 06 34 b6 3e c2 f3 28 3f 00 c2 83 be
       0.31180945 0.35586566 0.65996945 -0.25733948
000040 40 6a 14 3f d1 6e 26 be 9c 2d e1 3e 46 12 22 3f
       0.57974625 -0.1625321 0.4398011 0.63309133
000050 ee 98 d1 bb 4d 03 4d 3f d3 4e e9 3e 4b 84 a5 3e
       -0.0063964045 0.8008316 0.4556795 0.32327494

flows.0.layers.2.network.0.bias f4 [8]
000000 1e db 82 be f7 5d 5e 3e f1 2d a6 bc 8b 18 a2 bd
       -0.25557798 0.21715532 -0.020285578 -0.079148374
000010 a3 62 0e bf a1 11 0d bf 5a ef 7a be 8c 7c ef 3e
       -0.5561926 -0.55105025 -0.24505368 0.4677471

flows.0.layers.2.network.2.weight f4 [8, 8]
000000 54 6a 3e 3e 82 5c 1d be 7d 5d 05 be 9f d7 a9 3e
       0.18595248 -0.1536732 -0.13023944 0.33172318
000010 50 a7 58 3d 9d 73 11 3c 69 7d 16 be f3 25 f0 3e
       0.052893937 0.008877662 -0.14696278 0.46903953
000020 fb 00 3c 3e b2 ca c2 be 42 88 99 3e 6d 05 b9 3e
       0.18359749 -0.3804527 0.2998677 0.36136952
000030 ba 82 cd bd f8 78 b1 3d 1c b9 e8 bc db c1 0f bd
       -0.100347 0.08665651 -0.02840858 -0.035096984
000040 22 60 06 3e c7 f4 a6 bd 31 22 06 be 47 d5 60 3e
       0.1312261 -0.08152156 -0.1309898 0.21956359
000050 8a 16 e1 be 82 5b cb be c2 bd e3 3d d5 77 26 3f
       -0.43962508 -0.39718252 0.11120178 0.650266
000060 b3 ba ba be 64 be a6 be fd e4 4f bd 90 c4 77 3f
       -0.36470565 -0.32567132 -0.05075549 0.96784306
000070 3f 1e 6e bb 60 a5 d1 be 61 b1 3d be 1f ff 8b be
       -0.0036333946 -0.40946484 -0.18524696 -0.2734308
000080 ef a9 8e 3c bd 54 7d 3e 88 36 b9 be 0b 42 71 be
       0.017415015 0.24739356 -0.36174417 -0.2356035
000090 29 5e 00 3f d9 39 8e 3d 02 5a 46 be 6b 23 8a be
       0.50143677 0.06944627 -0.19370273 -0.26980147
0000a0 64 9d 2c 3e 03 fc c8 3d 6a 0d 93 3d 06 7f ab be
       0.16856915 0.098136924 0.07180293 -0.3349535
0000b0 68 e7 35 be 8f 21 08 bf e1 44 22 be d9 c0 2a 3e
       -0.17764056 -0.53176206 -0.15846588 0.16675128
0000c0 3b 85 ab be ff ee fb 3c 46 d4 4f be ea 27 69 3e
       -0.33500084 0.03075361 -0.2029582 0.22769132
0000d0 81 7d 8f bd 61 14 14 bf 35 50 be 3e c5 8d 58 3f
       -0.0700636 -0.57843596 0.37170568 0.84591323
0000e0 0a fc 8e 3e 3c de bd 3e 39 f3 92 be 36 15 73 3e
       0.27926666 0.37083614 -0.2870119 0.2373856
0000f0 15 09 f0 3d f8 fa 9b 3e 17 95 18 bf 09 a9 0f bf
       0.11720482 0.3046491 -0.59602493 -0.561173

flows.0.layers.2.network.2.bias f4 [8]
000000 31 87 be be 96 99 10 be ed 05 9d 3e 67 76 86 be
       -0.37212518 -0.14121088 0.30668584 -0.2626221
000010 8a a4 3c 3e ef 1d 2b 3e ac cc 71 3d cf f7 ae be
       0.18422142 0.16710638 0.05903308 -0.34173438

flows.0.layers.2.network.4.weight f4 [8, 8]
000000 b9 1d b3 be 55 cd 97 bc 36 2c 7a 3e ab 8b a0 3e
       -0.34983614 -0.018530527 0.24430928 0.31356558
000010 0e ba 80 3d 1d d7 7c 3d 9f 27 69 3e d2 c0 09 bf
       0.06285487 0.061728586 0.2276902 -0.53809845
000020 3c 45 ac be 84 c5 83 3e e0 0e bd be bc 02 a0 3e
       -0.33646572 0.2573663 -0.3692541 0.31252086
000030 50 69 4f bd 88 33 81 be 0c ab 0a bf 82 af b8 3e
       -0.050637543 -0.25234628 -0.54167247 0.36071402
000040 81 cf c1 bc 79 a5 c3 3e 14 c7 a5 3e 0c e8 c2 3d
       -0.023658516 0.38212183 0.32378447 0.09516916
000050 b1 18 57 be cc 6a 05 bd ce 3e f5 3d f9 28 cb bd
       -0.21005513 -0.032572553 0.1197487 -0.09919924
000060 b7 85 1c 3e de e1 62 bb 44 8b f9 3e 42 78 60 be
       0.15285383 -0.003461949 0.48739064 -0.21920875
000070 84 38 18 bf 22 23 d1 bd 35 ad 12 3f 02 97 cf 3d
       -0.59461236 -0.10211779 0.5729554 0.10136224
000080 65 fa b9 be a1 aa 83 3e c5 74 be 3d 13 d3 a0 3e
       -0.36323848 0.25716117 0.09299616 0.31411037
000090 d1 78 f1 3e 49 a9 7f be d0 42 28 3d 77 85 8c 3e
       0.47162488 -0.24966921 0.041079342 0.27445576
0000a0 fa a6 d6 bc 7b f3 ab 3e 44 18 82 bd 79 ba 1c 3e
       -0.026202668 0.33584198 -0.063522846 0.15305509
0000b0 70 26 c6 be 36 68 04 be d0 46 05 3e 0d 5b 87 3d
       -0.387012 -0.12930378 0.13015294 0.066091634
0000c0 e4 15 74 be e8 06 82 bb 84 ec 8f 3e 87 ce 6a bd
       -0.23836476 -0.0039681084 0.28110135 -0.057325866
0000d0 01 5a 71 3e 25 33 fb 3c 73 d7 27 3e 1b 55 91 be
       0.2356949 0.030664036 0.16390781 -0.28385243
0000e0 24 6c 76 be 34 b7 83 be 59 1e 03 3e 81 a4 7a 3b
       -0.2406469 -0.2572571 0.12804545 0.0038245025
0000f0 14 75 f6 bc 52 c9 96 be 24 a4 36 3e 6c 6a e3 3e
       -0.030085124 -0.2945047 0.17836052 0.4441713

flows.0.layers.2.network.4.bias f4 [8]
000000 8b 1c 61 be 61 19 87 be d9 a6 8b be 81 63 92 3b
       -0.21983545 -0.2638655 -0.27275732 0.004467428
000010 d5 bd 82 bd 91 6d 81 be 77 1b ad bd 1d 47 d9 3c
       -0.06383864 -0.25278905 -0.08452504 0.026523167

flows.0.layers.2.network.6.weight f4 [2, 8]
000000 a8 90 7a be b3 e4 04 3e 82 fe 38 39 7a ed 48 be
       -0.24469244 0.12977867 0.00017642419 -0.1962184
000010 b2 5e be 3b 88 e2 aa 3e 42 b3 9d be 0b 27 14 3d
       0.0058096284 0.33375955 -0.30800825 0.036170047
000020 ca f4 60 be a1 4f c5 3e 9a 3d e3 be 08 66 ee be
       -0.2196838 0.38537315 -0.44382936 -0.4656222
000030 04 d8 e9 3e 65 d2 5d be d5 18 2d be 17 97 bc 3d
       0.4567262 -0.2166229 -0.16904004 0.092085056

flows.0.layers.2.network.6.bias f4 [2]
000000 47 68 6f bd a0 fb 89 bd
       -0.058449056 -0.06737447

flows.1.initial_param f4 [2]
000000 11 83 42 bf bd 3a 3f be
       -0.7598124 -0.1867475

flows.1.layers.0.network.0.weight f4 [8, 1]
000000 f1 f3 29 c0 c4 93 72 bf 13 0c c1 be 92 b2 33 3f
       -2.655514 -0.9475672 -0.37704524 0.7019435
000010 6f cd a7 bf 6b bc 0a 3f a5 b4 9f be d2 10 eb bc
       -1.3109568 0.54193753 -0.31192508 -0.028694544

flows.1.layers.0.network.0.bias f4 [8]
000000 e0 2a a9 3f 26 65 30 3e 53 da 63 3f bf 48 f8 3e
       1.321621 0.17226085 0.8900501 0.48493
000010 ce a5 12 be b9 3d cc bf df 11 8c bd d1 98 48 3f
       -0.14321062 -1.5956336 -0.06839346 0.7835818

flows.1.layers.0.network.2.weight f4 [8, 8]
000000 68 79 52 be 44 d4 1f bf 57 2b ec 3c 30 2d 5b 3f
       -0.20554125 -0.62433267 0.02882926 0.85615826
000010 db 3d 1f bf dd 11 81 be 4b 61 1c bf a9 4e 2a 3c
       -0.6220376 -0.2520894 -0.6108596 0.010394731
000020 80 d4 f6 bd 31 fd e0 bd cc 01 d5 3d f4 16 01 3f
       -0.1205225 -0.109857924 0.10400733 0.5042565
000030 72 2d f9 3e b4 09 67 3e 9b e6 40 be ff 81 64 be
       0.48667485 0.22562295 -0.18837969 -0.22315215
000040 73 ea d2 be a0 dd 87 3e 49 64 9a bc d3 8a 7e 3d
       -0.41194496 0.26536274 -0.018846648 0.06214411
000050 25 e6 47 be 1d 69 fd 3e c2 db 91 3e e4 16 1d 3e
       -0.19521387 0.49494258 0.28487974 0.15340763
000060 d1 f4 a2 be af 33 6a bd e2 b1 3c be 3f 99 2b 3e
       -0.31827405 -0.057178196 -0.18427232 0.16757677
000070 87 e9 bf 3c e5 86 75 be b7 fa bf 3e 5b 01 48 be
       0.023426784 -0.2397724 0.37495968 -0.19531767
000080 52 37 8d be 19 34 56 bd 5f b4 b7 bd 1a 0c 6e 3e
       -0.2758127 -0.052295778 -0.0896995 0.23246804
000090 6c 48 a0 3e a2 75 bb bd 71 9e 9f bd e7 83 ae 3e
       0.31305254 -0.09153296 -0.07793892 0.34085009
0000a0 d1 a2 4d 3e 03 99 6e 3d a6 b1 ce 3e 65 20 60 be
       0.20081641 0.058251392 0.4036991 -0.21887358
0000b0 bd e9 4c be 14 22 4e 3e 4a 2f 6a 3e b7 cc b2 be
       -0.20011039 0.20130187 0.22869602 -0.3492181
0000c0 80 5a 87 bd f8 3c 56 be 2e 68 ca 3e 45 f4 c2 bd
       -0.066090584 -0.20921695 0.39532608 -0.09519247
0000d0 63 78 92 be 88 ae 09 be 40 6f ac 3e 28 b2 f1 3d
       -0.28607473 -0.13445485 0.33678627 0.11801559
0000e0 1b 2d eb 3d a8 ac dd bd 3e 5b 15 3d 59 4e bf be
       0.114832126 -0.10823947 0.03646397 -0.37364462
0000f0 ac 34 b4 be 9e e9 84 be 57 4c 49 be 8d 19 0a bd
       -0.35196435 -0.25959486 -0.19658028 -0.033715773

flows.1.layers.0.network.2.bias f4 [8]
000000 19 36 95 be f6 66 0d 3e ee 91 68 bd b8 6b ae bc
       -0.29142836 0.13808808 -0.056779794 -0.021291599
000010 85 18 27 be 67 f7 a0 3e f7 1c 47 be 0a f3 b5 3d
       -0.16317947 0.31438753 -0.19444643 0.08884247

flows.1.layers.0.network.4.weight f4 [8, 8]
000000 29 f0 ad be c4 4d 41 3e 0f 32 a7 3e 60 08 f3 bd
       -0.3397229 0.18877321 0.3265538 -0.11866832
000010 32 88 93 3e 5a c3 88 be 8e 6a 8d bf 21 d3 8f be
       0.28814846 -0.2671154 -1.1048143 -0.28090766
000020 6f 43 1f 3e 9e 21 93 3d 39 0f 7f be 36 6d 13 3d
       0.15553068 0.07184146 -0.2490815 0.035992824
000030 e9 c8 4d be 94 c3 85 bd 00 bd fc 3e 14 8c 13 be
       -0.20096172 -0.06531444 0.49362946 -0.14408904
000040 8e 54 91 3e 15 a0 0e 3e c6 ae b3 bc 01 a7 5d 3e
       0.28384823 0.13928254 -0.021933924 0.21645738
000050 18 96 97 be df 59 99 3e a9 95 9c be ba f4 c0 bd
       -0.296067 0.2995138 -0.30582932 -0.09421678
000060 ec a1 94 be 00 97 2a 3e 6d 10 3b 3e 94 1f b0 3e
       -0.29029787 0.16659164 0.18267985 0.34399092
000070 13 4c 17 3e d8 ee b6 bd cf 0b ef 3e 9a 1f b1 bd
       0.14775114 -0.089322746 0.46688697 -0.08648606
000080 41 fc e3 3e 7f aa 03 bf 5e ab 1c be 79 52 db bd
       0.44528392 -0.5143203 -0.15299746 -0.1070909
000090 3c 93 71 3d da 39 9a 3e ef 91 91 3e df a2 3a be
       0.058978304 0.30122262 0.2843165 -0.18226193
0000a0 33 18 e0 3c e0 4a b7 3e 3a b8 84 3e 3b 06 22 be
       0.02735529 0.35799313 0.25921804 -0.15822689
0000b0 50 85 85 3e 09 1f 8a 3e 75 25 bd be 1d 1e f0 be
       0.26078272 0.26976803 -0.3694264 -0.46897975
0000c0 f0 09 93 3e 34 5c 1d be 2d f8 ff 3d 60 c1 8f 3d
       0.2871852 -0.15367204 0.12498508 0.07019305
0000d0 fa 49 3d be fe 29 0c 3e 98 d1 c7 be cd 68 19 3d
       -0.18485251 0.13687894 -0.39027095 0.03745346
0000e0 b0 56 e5 be b7 82 1d bd 67 a6 0f 3d 31 2f 9d 3e
       -0.447927 -0.038454738 0.035070803 0.30700067
0000f0 77 c7 80 bc 94 41 3c 3e 1a ac fb 3d a1 54 11 be
       -0.015720112 0.18384391 0.12288685 -0.1419244

flows.1.layers.0.network.4.bias f4 [8]
000000 02 65 a0 be e4 81 a9 be 58 6d 6e 3e bb 37 ad bd
       -0.31327063 -0.3310691 0.23283899 -0.08457895
000010 fa 22 e0 3d ed 23 26 bc dd 0c 69 3e bb 4c 99 3e
       0.10944171 -0.010140401 0.22758813 0.29941353

flows.1.layers.0.network.6.weight f4 [2, 8]
000000 22 be a9 3e f8 69 6b be 4f 6d 28 3d b4 09 29 be
       0.33152872 -0.22989643 0.04111987 -0.16507608
000010 c6 a0 45 be e6 74 5d 3e 84 fd a0 3e 4a 6e 46 be
       -0.19299611 0.21626624 0.31443417 -0.1937801
000020 84 53 63 3e c4 2c 57 be 1e 21 71 bd 60 69 fc 3e
       0.22199827 -0.2101317 -0.058869474 0.49299145
000030 07 2a fe be 6d 72 08 3e 5d b6 af be 9e 6a bd 3e
       -0.4964144 0.133249 -0.3431882 0.36995405

flows.1.layers.0.network.6.bias f4 [2]
000000 fa cd 72 bd 0f 5c 7a be
       -0.059278466 -0.2444918

flows.1.layers.1.network.0.weight f4 [8, 2]
000000 a5 37 7a 3e 8d 15 dd be cf 03 9b be 48 00 9f 3e
       0.24435289 -0.43180504 -0.30276343 0.31054902
000010 7a bb 22 3f 90 4c cb be b1 06 12 3e 71 b5 29 3f
       0.63567317 -0.3970685 0.14260365 0.6629248
000020 44 07 44 3f 7e e0 ff be d7 99 21 bd 20 01 bc be
       0.76573586 -0.4997596 -0.039453354 -0.36719608
000030 93 d1 22 bf 09 fa 7a bd b7 18 25 3f ea 65 e8 3e
       -0.63601035 -0.06127361 0.64490837 0.45390254

flows.1.layers.1.network.0.bias f4 [8]
000000 71 d9 07 3e b9 56 85 3e 3c 8b ed be 6d df 1d 3f
       0.13266541 0.26042727 -0.4639529 0.61669046
000010 b9 9d 99 be 61 5b df be e7 53 16 be 11 76 48 3f
       -0.30003145 -0.43624404 -0.14680444 0.78305155

flows.1.layers.1.network.2.weight f4 [8, 8]
000000 f0 69 a6 be 36 0c aa 3e 9d 7b b6 3d 18 8c 75 be
       -0.325027 0.3321244 0.08910296 -0.23979223
000010 c7 15 17 be 1c b6 ac 3e 87 e0 9d be ef 6e 22 3e
       -0.14754401 0.33732688 -0.30835363 0.1586263
000020 44 88 22 be 06 48 06 bf 2c 10 ea 3e f2 1e 7e be
       -0.15872294 -0.5245365 0.45715463 -0.24816492
000030 3a 48 cb 3e 5c 59 c5 be ed 50 dc 3e 0e bd 20 bf
       0.39703542 -0.38544738 0.4303049 -0.62788475
000040 a6 31 27 3f 56 31 87 be 9d 87 ef be 4d 8c 67 3f
       0.6531013 -0.26404828 -0.46783152 0.90448457
000050 4e 2a b1 bd 6e a3 48 3e 10 7f 31 be a8 6e 15 3e
       -0.08650647 0.19593593 -0.17333627 0.14592993
000060 a3 39 ae bc a7 e9 a3 be 78 88 8f 3c c0 06 a4 3d
       -0.021267718 -0.320142 0.017521128 0.080091
000070 77 b5 c9 3c a0 a4 18 3e d7 4b d6 3e 48 e0 0c be
       0.024622662 0.1490655 0.41854736 -0.13757432
000080 f6 1f 7e bf b0 68 73 3e 9d 40 1d bf 2c b9 83 3e
       -0.9926752 0.23770404 -0.6142672 0.25727212
000090 59 e0 28 bf ee 4b 65 be 0b 72 c1 3e 1e 38 95 be
       -0.6596733 -0.22392246 0.3778232 -0.29144377
0000a0 1c 99 e2 3e 4e 01 b3 be 2a e0 48 3d 6f 58 3d 3e
       0.44257438 -0.34961933 0.049041905 0.18490766
0000b0 5d d0 dd 3e bd a6 72 be 2f 4e 5b 3d e0 72 51 3e
       0.4332303 -0.23696418 0.05354136 0.20453978
0000c0 c8 33 32 be 9c 20 ec 3c 22 45 bc bd 6c f3 79 be
       -0.17402565 0.028824143 -0.091928735 -0.24409264
0000d0 90 4f 95 bd cc 0b 39 3e 4a f2 b0 bd ef 50 28 3f
       -0.07290566 0.18070906 -0.08639963 0.65748495
0000e0 81 95 aa bd 96 ad 3f bc 22 a2 0c 3f be 0b a7 be
       -0.08329297 -0.011699101 0.54934895 -0.32626146
0000f0 03 5b ce 3e 17 b3 05 be ab f5 98 bd ff 74 53 be
       0.4030381 -0.13056599 -0.074687324 -0.20650099

flows.1.layers.1.network.2.bias f4 [8]
000000 93 9e 99 bb 48 5a 0a be 95 be 5e 3c bc 7b 00 3c
       -0.004688093 -0.13511002 0.013595243 0.007842001
000010 12 ef 45 3e ef 6e 7a bd 8c 46 18 3d 92 65 27 be
       0.1932948 -0.06114095 0.037176654 -0.1634734

flows.1.layers.1.network.4.weight f4 [8, 8]
000000 00 10 60 be 95 38 ce 3e 07 af 2c be ac e0 5e 3e
       -0.21881104 0.40277544 -0.16863643 0.21765393
000010 ef 88 8d be 07 ce 3b 3e 26 d6 25 3e 0e 73 eb 3e
       -0.27643535 0.18340312 0.16194972 0.45986217
000020 66 d3 52 3e 4f 5d 19 3e 99 97 2b 3e b6 13 5d be
       0.20588455 0.14977 0.16757049 -0.2158955
000030 8c bc 38 3e a4 70 99 3e 63 a8 1f 3f 70 87 1c 3e
       0.18040675 0.2996875 0.6236631 0.1528604
000040 ff 93 14 3e 79 e7 68 bd 2d 70 f8 3d 19 80 80 bf
       0.14509581 -0.056861375 0.12130771 -1.0039092
000050 f7 09 b3 3e 91 3c c9 be ca 89 98 3e d6 12 a0 be
       0.3496854 -0.3930402 0.29792625 -0.3126437
000060 df c5 d6 3e 92 cd 2b bf 17 59 22 3f 03 c8 0f bf
       0.4194784 -0.6711055 0.6341719 -0.5616457
000070 d2 4a 39 3e 0e 0e 1d bd 55 eb 71 3f 6a 83 8e be
       0.18094948 -0.03834348 0.94499713 -0.27834636
000080 03 0c 17 3d 78 6f a8 3d a6 47 87 be 22 e7 e9 3e
       0.03687669 0.08224386 -0.2642185 0.45684153
000090 33 48 a5 bd 13 11 1a be ab f7 32 bf c2 fa 0c 3e
       -0.080704115 -0.15045576 -0.6990916 0.13767532
0000a0 2c 2b 86 3d 22 7a 80 3e 4d b7 87 3d 1c 37 0c 3f
       0.06551203 0.2509318 0.06626759 0.5477159
0000b0 52 d3 92 be db 2d 45 be d1 7e 05 bf 07 37 7d be
       -0.2867685 -0.19255774 -0.5214663 -0.24728023
0000c0 c5 49 36 be 12 5f 0f 3f 4a 4b 2a bd 34 42 1c 3f
       -0.17801578 0.5600444 -0.041575707 0.6103852
0000d0 84 bd c9 3d 88 9b b3 be c9 f2 85 be 29 94 e1 3e
       0.098506 -0.35079598 -0.26161793 0.4405835
0000e0 e7 72 41 bf 4a a9 5e 3c 66 a9 09 3f d7 9d e0 bd
       -0.7556595 0.013590166 0.53774107 -0.109676056
0000f0 12 09 5e be 3e de 0e 3f bf 51 6a bf ba 4c 7a be
       -0.21683148 0.55807865 -0.91530985 -0.24443331

flows.1.layers.1.network.4.bias f4 [8]
000000 cc 4f 81 bb cd f4 a7 3c 27 31 ad 3e 2b b4 93 3e
       -0.00394628 0.020502472 0.33826563 0.28848395
000010 ab d3 96 3e ce e1 74 3e 72 23 59 3e 77 38 01 3e
       0.29458365 0.23914263 0.21204928 0.12619196

flows.1.layers.1.network.6.weight f4 [2, 8]
000000 68 fe 91 be 9d 10 a5 be db e4 b3 bb d4 68 9b be
       -0.2851441 -0.32239237 -0.005489928 -0.30353415
000010 04 21 bc 3e d8 08 c7 3e cc 4a a4 3e b0 d9 8c 3e
       0.3674394 0.38873935 0.32088315 0.27509832
000020 e3 71 c1 3e b3 22 b0 3d 82 dc bd be 39 be bf be
       0.377822 0.08600368 -0.37082297 -0.37449816
000030 3e 80 0b 3e b8 fb 9d 3d 51 78 65 3e da 58 23 bf
       0.1362314 0.07714027 0.22409178 -0.6380745

flows.1.layers.1.network.6.bias f4 [2]
000000 78 a6 88 be 91 18 36 3e
       -0.26689506 0.17782809

flows.1.layers.2.network.0.weight f4 [8, 3]
000000 80 4c 35 3e d7 88 34 bf ca c1 b0 3e 92 64 3c bf
       0.17704964 -0.705213 0.3452285 -0.7359096
000010 b8 9c 72 3d 14 3a 2e 3e 4c 8d d0 3f d9 f9 86 bf
       0.05923149 0.17014343 1.629312 -1.0544997
000020 01 a7 2b bf 3f 71 38 3e 79 ab 4d 3e 14 17 49 3f
       -0.670517 0.1801195 0.20084943 0.7855084
000030 47 77 c7 3e cc b3 11 bf 73 a2 13 3f 16 be 98 be
       0.3895819 -0.56914973 0.5766975 -0.29832524
000040 39 ac 53 3e 2d b4 22 bf ec e4 a0 be 49 2e 85 bd
       0.20671166 -0.63556176 -0.31424654 -0.06502969
000050 82 39 9c be b2 58 0f 3e 4f 90 0b bf fd 6c 12 be
       -0.30512625 0.13998678 -0.5451707 -0.14299388

flows.1.layers.2.network.0.bias f4 [8]
000000 73 69 86 3e 86 f4 d8 be d4 ef 3b bf 3a e2 9d be
       0.26252326 -0.42374057 -0.73412824 -0.3083666
000010 80 1d be be ae 0b e3 be 35 30 90 3e 8b 2f 60 3f
       -0.37131882 -0.44344848 0.2816178 0.87572545

flows.1.layers.2.network.2.weight f4 [8, 8]
000000 bd 6b 20 bd 7a 08 84 3d e5 45 48 3e 13 6c ec 3d
       -0.039165247 0.06446929 0.19557913 0.11544051
000010 99 b8 13 be 08 7f 47 3e 6d f5 84 3e 39 5b ce be
       -0.14425887 0.19482052 0.25968495 -0.40303972
000020 3f 6a f1 be ac 3f ef 3d 00 2f 40 3f d8 22 57 be
       -0.47151372 0.11682066 0.75071716 -0.21009386
000030 14 8e 8f 3e e3 98 80 3e bf 4d 54 3d 95 85 0e 3e
       0.28038085 0.25116643 0.051831957 0.13918145
000040 f6 98 ba 3e a1 6e fc 3d 6e d0 35 be e8 4d d2 be
       0.36444825 0.12325788 -0.17755291 -0.41075063
000050 bc 15 d2 3e f6 8f e4 3e eb 2c a7 bd c0 8b b6 3e
       0.41032207 0.44641083 -0.08162864 0.35653496
000060 79 21 9b be 5d 70 20 bf cc 23 6a 3e 48 4e cc be
       -0.30298975 -0.6267145 0.22865218 -0.39903474
000070 93 17 97 be 5c 25 ab be f0 69 0c be af 91 02 3e
       -0.29510173 -0.3342694 -0.13712287 0.12750886
000080 7c 2a 6f be 17 35 14 3f f8 f1 3e 3e 7a ac 6a 3d
       -0.2335605 0.5789351 0.18646991 0.057293393
000090 41 c9 56 3c a4 72 65 3d a0 08 dc 3e 66 74 3f 3e
       0.013109506 0.056017533 0.4297533 0.18696746
0000a0 33 44 21 3d ef e2 b9 be f4 b1 fa bd 35 a7 76 bd
       0.03937168 -0.3630595 -0.12240973 -0.060218055
0000b0 66 00 76 be 6f 10 69 3e ca d2 87 bd d4 eb 0d bf
       -0.2402359 0.22760175 -0.06632002 -0.5543797
0000c0 9c 13 3d be 77 6c 12 3f dd a6 62 be 01 a6 8d be
       -0.18464512 0.57196754 -0.22133966 -0.27665713
0000d0 8b 43 01 3b 80 43 b1 3d f7 dc 0f 3e 4f 78 a6 3d
       0.0019724097 0.08655453 0.14049135 0.08128416
0000e0 1f 3b a0 3e 5f b3 03 bf e8 bb 82 be ce 91 c5 3e
       0.31295106 -0.51445574 -0.25533986 0.38587803
0000f0 7f 4a c0 3e 38 82 62 be a5 03 b1 be 0d cd 6c bc
       0.37556836 -0.22119987 -0.34573093 -0.014453185

flows.1.layers.2.network.2.bias f4 [8]
000000 7e d9 34 3e cb 89 cf bd 15 8a 4e be 36 39 61 3e
       0.17661092 -0.10133704 -0.20169862 0.2199448
000010 3b 0b 85 bb 80 20 1a bf 5c 4d 8b be 75 82 b9 3d
       -0.0040601767 -0.6020584 -0.27207458 0.09058086

flows.1.layers.2.network.4.weight f4 [8, 8]
000000 be 01 f5 bd 74 52 a2 3d 90 22 23 3f c3 ec f6 bd
       -0.11963223 0.07925883 0.63724613 -0.120568775
000010 ae 17 ff bc 0e 18 17 3e 7c 65 16 3e fb c3 ab 3d
       -0.031139221 0.1475527 0.1468715 0.0838699
000020 96 e9 7c be 04 8a 96 be 2b 40 0d bf ec 25 5f 3f
       -0.24698481 -0.29402173 -0.5517604 0.8716724
000030 da fe 56 bf a4 da d3 3e 35 e7 b8 be 84 ef e5 3e
       -0.8398262 0.41377747 -0.36113897 0.44909298
000040 14 d9 7b 3e 57 7d a9 3e 3b 9a 48 bc 23 aa 73 3d
       0.24594527 0.3310344 -0.012243803 0.059488427
000050 66 74 b7 be 09 2f e4 3d 1d cd a8 be 0a 91 89 be
       -0.35830992 0.11141784 -0.3296899 -0.2686847
000060 94 a9 82 3e 8b 06 03 3f 1a 24 f0 be 2f 42 c8 be
       0.25520003 0.5118186 -0.46902543 -0.39112994
000070 7f 8b 44 3f 8a dd 90 bd 08 78 a8 3e fb 4f 03 bf
       0.76775354 -0.07073505 0.32904077 -0.51293916
000080 94 d0 2c be 51 4a 6c 3e 31 40 c0 3d 93 fd 92 3f
       -0.16876441 0.23075224 0.093872435 1.1483635
000090 e3 e9 46 be e5 3e d9 be 5a 63 11 bd 0f 27 03 bf
       -0.19425158 -0.42430797 -0.03549514 -0.51231474
0000a0 42 41 93 3e 38 8c 22 3f d0 f8 0d bd b0 54 30 be
       0.28760725 0.63495207 -0.034661114 -0.17219806
0000b0 0f 18 03 3f 4c 63 b0 be a9 27 ca 3e ae 03 86 bf
       0.51208586 -0.34450758 0.39483383 -1.0469873
0000c0 47 49 eb be c1 ba b4 3c ef fc 99 be 5d f7 c1 3e
       -0.45954344 0.022061707 -0.30075786 0.37884036
0000d0 ae 19 e5 3e 07 c4 37 bf bc b7 a4 3d ca 32 16 be
       0.44746155 -0.7178349 0.08042857 -0.14667812
0000e0 49 fd 45 3e 5c c9 d8 3e db 03 5e be 4e 61 3b 3e
       0.19334902 0.42341125 -0.21681158 0.18298838
0000f0 8c ae 34 3e ae 60 09 bf eb 67 2c bf 5b 41 bc 3e
       0.1764471 -0.53663146 -0.67346066 0.36768612

flows.1.layers.2.network.4.bias f4 [8]
000000 74 30 85 be 44 76 3b 3e e0 d7 d2 bd 20 52 e5 bc
       -0.2601353 0.18306834 -0.10295081 -0.027993262
000010 5b e0 09 3e f3 7c 57 be 49 f3 8e 3e 8f ef 36 3e
       0.13464491 -0.21043758 0.27919987 0.17864822

flows.1.layers.2.network.6.weight f4 [2, 8]
000000 e9 8f 96 bc e5 44 05 bf 25 bb c0 3e 44 94 f7 3e
       -0.018379169 -0.5205825 0.3764278 0.48355305
000010 51 15 b3 be 55 5a b8 3e 1c f5 54 be 99 4a b1 bd
       -0.349772 0.36006418 -0.20796627 -0.086568065
000020 c2 4e 89 3e 93 5d 0d 3f ca 4b bb bd f7 62 11 bf
       0.268179 0.5522091 -0.09145315 -0.56791633
000030 d9 04 40 bf 14 17 6d bd 9d 87 2b bf c9 ef 9c bf
       -0.75007397 -0.057883337 -0.67003804 -1.2260677

flows.1.layers.2.network.6.bias f4 [2]
000000 ec 95 97 3d 14 11 e2 be
       0.07401642 -0.44153655

flows.2.initial_param f4 [2]
000000 e5 66 e7 be 2d e3 98 3e
       -0.4519569 0.2986082

flows.2.layers.0.network.0.weight f4 [8, 1]
000000 bc a4 b1 bd f3 99 22 bf 42 15 ed bd 94 bd ea 3b
       -0.08673999 -0.6351616 -0.1157632 0.0071637128
000010 09 5f 3d bf b3 ed ce be d4 f9 97 bf c4 de ff be
       -0.7397314 -0.40415725 -1.1873116 -0.49974644

flows.2.layers.0.network.0.bias f4 [8]
000000 7d 5d fb 3e b5 05 6d bf 19 af 7f bf 65 93 0e 3f
       0.49094763 -0.92586833 -0.9987655 0.55693656
000010 d6 62 65 3f 88 56 5f 3f 82 67 c6 be e8 87 1f bf
       0.89603937 0.8724141 -0.38750845 -0.6231675

flows.2.layers.0.network.2.weight f4 [8, 8]
000000 39 51 6f bd f3 af 70 3d 76 90 df 3e 5d 84 d6 be
       -0.05842707 0.05876155 0.43664902 -0.4189786
000010 c4 19 14 bd 10 84 94 3e b5 a0 6f bd ea 94 d5 bd
       -0.036157385 0.29007006 -0.05850287 -0.10428794
000020 38 e2 d8 3d 9b 13 37 bf 50 13 34 be 3a 67 e3 3c
       0.10590023 -0.7151429 -0.17585492 0.027759183
000030 13 2d a7 3e 24 6b bb be 43 a8 71 3e 72 d1 14 bf
       0.32651576 -0.3660518 0.23599343 -0.5813209
000040 5a 76 a2 be bf 8b 91 bd be a7 9d 3e 16 eb af be
       -0.3173092 -0.071067326 0.3079204 -0.34359044
000050 1f 1e 7d be 6a d0 de 3e 87 47 6d bd 68 d5 0f 3e
       -0.24718522 0.43518382 -0.057929542 0.14046252
000060 40 72 e0 be 0b 9b d6 bd 88 89 68 be 2b 3f d3 3e
       -0.43837166 -0.10478791 -0.22708714 0.4125913
000070 8e 51 9a 3e 7c c0 f9 bd ae 9a ab 3d 8e 0d 2a 3d
       0.30140346 -0.121949166 0.08379112 0.041516833
000080 e6 10 fa bd f9 a9 fc bd bb 85 d3 bd 68 ee bc 3e
       -0.12210254 -0.12337107 -0.103282414 0.3690064
000090 f9 e0 b1 bd c2 95 db be ee ee ce bc f0 6a 23 3d
       -0.08685488 -0.42887694 -0.025260415 0.039896905
0000a0 60 47 fb 3c 99 91 7e be a4 4a 71 be 7a 1e 7c bd
       0.030673683 -0.24860229 -0.2356363 -0.061552502
0000b0 00 f3 8b 3d 89 18 87 be 54 a0 57 bb e3 78 1d bf
       0.06833458 -0.26385906 -0.003290196 -0.61512583
0000c0 bf bb 91 be 24 ca 9f be c0 dd 3c be 13 01 b3 3e
       -0.2846355 -0.3120891 -0.18443966 0.34961757
0000d0 64 e5 0f 3f 91 05 a9 be d0 f1 9a be f8 e8 0d 3e
       0.562094 -0.3301206 -0.30262613 0.13858402
0000e0 f6 61 91 3e bb 05 84 3e 94 64 0c be 34 65 b0 bd
       0.2839505 0.25785622 -0.13710243 -0.08613053
0000f0 6d 69 fe 3d 2b b2 cb be 4f 03 99 3e a4 0e 2c be
       0.12422452 -0.3978437 0.29885337 -0.1680246

flows.2.layers.0.network.2.bias f4 [8]
000000 bc 2b f8 3d db f7 c3 3e 4b ef a1 3e b2 94 5d be
       0.12117717 0.38275036 0.3162788 -0.21638754
000010 46 ce 2d be 65 38 eb bd 47 27 5a be 95 ba c9 3e
       -0.16973218 -0.11485366 -0.21304046 0.39400163

flows.2.layers.0.network.4.weight f4 [8, 8]
000000 e5 45 8e 3e 04 c8 07 bf 5c 4d b0 3d 7e 4c a7 be
       0.277877 -0.53039575 0.08608505 -0.32675546
000010 26 92 1c bc d1 21 0e bf f3 db 0d bf 0b 5f a3 be
       -0.009556329 -0.5552035 -0.5541374 -0.3190845
000020 8e 5a 08 3f d9 7a 1d 3e 01 8c cc 3d 84 28 14 be
       0.53263175 0.15378894 0.09987641 -0.1446858
000030 db ec 5b 3e 5c 2a 39 3d e4 4c e0 be 32 22 b5 3d
       0.21477072 0.045206413 -0.43808663 0.08844413
000040 85 0d a9 be bc b9 95 3e b0 51 0b bf 5e 9d 7f 3e
       -0.33018127 0.29243267 -0.5442152 0.24962375
000050 58 53 63 3e ab 7e 41 be 83 92 be 3e b7 f1 ee 3e
       0.22199762 -0.18895976 0.37221155 0.4666879
000060 ef 02 f2 be e1 dc 2f 3d 48 32 56 be c0 6a 90 be
       -0.47267863 0.042935256 -0.20917618 -0.28206444
000070 a8 15 8b 3e b7 62 50 3e a8 3b 10 3f 43 74 7a be
       0.2716496 0.20350157 0.5634103 -0.24458413
000080 22 d5 da be ba ad 7d 3e 9e 4b 91 be 13 c5 7a bf
       -0.42740732 0.24773303 -0.28378004 -0.9795696
000090 36 d9 81 bd 29 58 c8 be a0 ce 87 bf 51 9e 8c 3e
       -0.06340258 -0.3912976 -1.0609932 0.27464536
0000a0 bc bc 17 3f 0c 67 8e be 9c 18 05 3f 67 ed 9a 3e
       0.5927236 -0.27812994 0.51990676 0.3025925
0000b0 32 5a 05 3d 05 1a f1 be 07 cb af 3d 2f e8 e7 3d
       0.03255672 -0.47090164 0.08583646 0.113235824
0000c0 60 81 ff 3e 33 3f fb be 2a 82 bb 3e 85 df 8b 3e
       0.49903393 -0.49071655 0.36622745 0.2731897
0000d0 b9 bf d5 be 1c f2 28 bd df 16 69 3e ff f7 70 be
       -0.41747835 -0.04124652 0.22762631 -0.23532103
0000e0 a4 86 5f 3e 35 77 b5 3e 87 14 f5 3d 90 e8 13 3e
       0.21828705 0.3544251 0.11966806 0.14444184
0000f0 cd 46 c0 3e ba 72 a8 3e 28 cf 5b be 6d e4 b4 3e
       0.37554017 0.3290003 -0.21465743 0.35330525

flows.2.layers.0.network.4.bias f4 [8]
000000 74 75 9c be b9 58 1f be e1 72 c4 bc 81 63 9a bd
       -0.3055836 -0.15561189 -0.02398056 -0.0753851
000010 f7 7a ce 3e 32 8e 1e 3e 0d 9d 75 3e db 53 93 3e
       0.4032819 0.1548393 0.23985691 0.28774914

flows.2.layers.0.network.6.weight f4 [2, 8]
000000 de 1b 11 bf f1 a2 3b 3e 0a a2 9c 3e e0 13 09 3e
       -0.56683147 0.18323876 0.30592376 0.13386488
000010 01 69 8a 3e 40 f5 db be 08 9c 13 bf 90 8f 1c 3f
       0.27033237 -0.42960548 -0.5765996 0.6115656
000020 11 3d 68 be 0b 2e c2 be 63 0e 0e 3f da 17 dc 3e
       -0.22679545 -0.37925753 0.554907 0.42986947
000030 b1 d5 47 be a4 9a 82 be 43 81 c7 be e8 52 1d be
       -0.1951511 -0.25508606 -0.38965806 -0.15363657

flows.2.layers.0.network.6.bias f4 [2]
000000 d4 f5 72 3e a0 39 13 be
       0.23726588 -0.14377451

flows.2.layers.1.network.0.weight f4 [8, 2]
000000 f3 b4 03 3f f7 fa 82 be 95 8c a2 be 3c 3c e8 bd
       0.5144798 -0.25582096 -0.3174788 -0.11339614
000010 f7 2a 0c 3e 94 af a3 3f 4c 5b 27 3f 73 17 08 3f
       0.13688265 1.2787957 0.6537368 0.5316078
000020 e1 32 16 bf 1b 47 7c bf 32 78 ee be 6d 9f ce 3e
       -0.58671385 -0.98546 -0.46576077 0.40356007
000030 de f7 6a 3f f5 f5 f7 3d dc 07 b0 bd 6f 0f d3 be
       0.91784465 0.121074595 -0.08595249 -0.41222712

flows.2.layers.1.network.0.bias f4 [8]
000000 f9 51 03 3f 89 2b 95 3e 33 13 84 bf 0e 5d bb be
       0.51296955 0.29134777 -1.0318359 -0.36594433
000010 ce 51 fd 3e ff 3c 7f 3e 70 ac f5 3d db 1d d0 3e
       0.49476475 0.24925612 0.119957805 0.40647778

flows.2.layers.1.network.2.weight f4 [8, 8]
000000 e7 b5 aa 3e 47 97 92 be 8f e4 f5 be ed 04 9e 3e
       0.33341905 -0.2863104 -0.4802594 0.30863133
000010 4b a3 5c 3d dc cd 6b bc 64 d1 1a 3e e7 b9 15 be
       0.053866666 -0.014392342 0.15118939 -0.14621697
000020 6d 31 3d be 83 57 4e be c9 2f 70 3f bb d1 60 3f
       -0.18475886 -0.2015057 0.93822914 0.87820023
000030 c4 5d 85 bf 21 7c 08 3d 0a a0 5f 3f a2 c5 28 bf
       -1.041924 0.033321504 0.87353575 -0.65926564
000040 91 6a c3 bc 6c 85 08 3e de 6c 84 be c0 81 95 3d
       -0.023854526 0.13332146 -0.2586431 0.073001385
000050 67 fe cb bd c5 f8 b1 3e 25 c2 ad be 08 d1 98 be
       -0.09960633 0.3476011 -0.33937183 -0.29846978
000060 46 0d d5 3e af cc da be 90 fd 9e 3e ac 87 1a 3f
       0.4161169 -0.42734286 0.31052828 0.6036327
000070 70 64 e4 be 57 b7 88 3e df b1 89 3f c3 04 d3 3d
       -0.44607878 0.26702377 1.0757407 0.103036426
000080 fc 0d 88 be 67 7c b9 3e 5a c6 ff bd 6e b6 10 be
       -0.2657317 0.36227724 -0.124890044 -0.14132091
000090 7e 17 21 3c e8 78 9c 3d 9a c0 2b 3e b2 13 38 3e
       0.009832261 0.076402485 0.1677269 0.17976263
0000a0 0c da b5 3c 7c 90 62 3e 7a 16 a7 3d c5 27 46 3e
       0.0221987 0.22125429 0.08158584 0.19351108
0000b0 82 fb c7 3e 62 1d 7f be 01 dc 04 be 1d 24 19 3f
       0.39059073 -0.24913552 -0.1297455 0.5982073
0000c0 05 fe 9d be d0 81 31 3e c8 63 a3 be d5 d1 fe bc
       -0.30857864 0.17334676 -0.31912065 -0.031105915
0000d0 45 1d 1c be 07 f5 0d bd ac a4 0c bd 29 e8 b4 3d
       -0.1524554 -0.034657504 -0.03433673 0.088333435
0000e0 d4 ba ca bc 3c 5d 4a 3e 45 d6 c0 3e b4 81 a4 be
       -0.02474729 0.19762129 0.37663475 -0.32130206
0000f0 93 96 48 3e 29 6d 6a be e5 12 d1 3e 38 57 d0 3e
       0.1958869 -0.22893204 0.40834728 0.40691543

flows.2.layers.1.network.2.bias f4 [8]
000000 5e f6 07 3e 8c 7d 93 3c be e4 69 be 97 76 97 3e
       0.13277575 0.018004201 -0.22841164 0.29582664
000010 12 92 56 bd d6 34 b9 3e 97 a5 cf 3d f6 70 a7 3e
       -0.052385397 0.36173123 0.10139006 0.3270337

flows.2.layers.1.network.4.weight f4 [8, 8]
000000 e8 68 81 3e ae 8f 22 bd d9 98 25 3e 69 c2 da bc
       0.2527535 -0.039687805 0.16171588 -0.02670403
000010 33 d3 78 3e 37 10 76 bd 87 86 0c 3e be 5c 9c be
       0.24299316 -0.060074057 0.13723193 -0.30539507
000020 2b 0f f1 be 93 9a 9e 3e 11 84 84 3d b0 ff dc 3d
       -0.47081885 0.30977306 0.06470502 0.10790956
000030 14 1d f1 3e ba 9d 14 be 81 ff 53 3e 0e 3c 98 be
       0.47092497 -0.14513293 0.20702936 -0.29733318
000040 93 0c b4 bd 80 13 a5 3d 2a 4c be 3e d4 c6 c9 3e
       -0.08791461 0.0806036 0.37167484 0.39409506
000050 40 17 09 3f aa 48 db bc 75 92 93 3e 1a fa 33 bf
       0.535511 -0.026768047 0.28822675 -0.703035
000060 7a 35 29 bf 02 8e 3f 3e d0 dc 54 bd f2 f9 88 be
       -0.66097224 0.18706515 -0.051968396 -0.26753193
000070 b2 67 b6 be 84 8c 8d be 0d a6 f6 be 24 98 4b 3d
       -0.35625988 -0.27646267 -0.48173562 0.04970564
000080 5b fb bc 3e bb e5 9a 3d b2 bf f2 3c c9 6e a0 be
       0.3691052 0.07563349 0.029632423 -0.31334522
000090 c2 ee d1 be 7a 24 a3 bd eb 62 81 3e 24 fc f9 be
       -0.4100247 -0.07965942 0.2527078 -0.4882518
0000a0 c5 03 b2 be 34 90 c0 be de b7 0d 3f c7 3e f4 be
       -0.347685 -0.37610018 0.55358684 -0.47704145
0000b0 b0 3f d3 bd 0b 06 b6 3e b3 a8 d0 bc 58 ef 3f bf
       -0.10314882 0.35551485 -0.025471067 -0.74974585
0000c0 50 16 80 3e b8 7a ae be f9 ce 75 3e 7f 54 6e 3e
       0.25017023 -0.34078002 0.24004735 0.2327442
0000d0 b6 26 9f be 36 38 53 be c6 fc 89 bd 7d 1d 31 bf
       -0.31084222 -0.20626912 -0.06737666 -0.6918562
0000e0 d0 59 a7 3e e0 8e b9 3e 4f 00 e8 3e ba de f6 bc
       0.3268571 0.36241817 0.45312735 -0.030135501
0000f0 3b 1e c3 3e f7 e3 bb be 0e 6b e6 bc 06 75 7c be
       0.38109002 -0.3669736 -0.02812722 -0.24654016

flows.2.layers.1.network.4.bias f4 [8]
000000 a4 a0 97 bd 78 39 b6 3d d1 96 53 be 59 7a bf bd
       -0.07403687 0.0889768 -0.20663 -0.09349508
000010 aa 5e 81 bd 09 18 8f be b2 79 a6 3b 17 e2 91 be
       -0.06316884 -0.27948025 0.005080425 -0.28492805

flows.2.layers.1.network.6.weight f4 [2, 8]
000000 28 03 57 3d 3b fd a6 3e b5 5a 10 3f 0d d4 97 be
       0.052493244 0.32615075 0.5638841 -0.2965397
000010 a1 fd 93 3c 92 b7 53 bd c5 ec f8 3d 88 2a fd 3e
       0.018065276 -0.05168874 0.12154535 0.4944651
000020 91 4a 33 3d e3 ca ac be 42 7b 91 be 95 ef 87 be
       0.043772284 -0.3374854 -0.2841435 -0.26549974
000030 a8 bb 9a 3e 57 65 2a 3e dc f5 33 3f 85 54 94 3e
       0.30221295 0.1664022 0.70297027 0.28970733

flows.2.layers.1.network.6.bias f4 [2]
000000 a3 15 28 bd 89 05 3b be
       -0.04103626 -0.1826383

flows.2.layers.2.network.0.weight f4 [8, 3]
000000 9d 9a 3a 3f df 72 8b 3e 20 0a f4 3e 0a d4 01 be
       0.7289217 0.27236077 0.47663975 -0.12678543
000010 ef 53 e7 3e ef be 82 bd ff 02 24 3e 7f a1 91 bd
       0.45181224 -0.06384074 0.16016768 -0.07110881
000020 e9 5d 48 3f 54 f8 b0 bf 69 4b 39 be 34 a3 8e 3f
       0.78268296 -1.3825784 -0.18095173 1.1143556
000030 a4 86 e6 3d 9b 8e 0d be ca 54 38 3f f3 be 19 bf
       0.112561494 -0.13823931 0.7200438 -0.6005699
000040 36 b2 53 3e f6 15 05 bf 5d f2 50 3e b0 b3 28 be
       0.20673451 -0.51986635 0.20404954 -0.16474795
000050 db 7c 27 be 9d b9 67 bb 27 14 41 3b cd 54 44 3f
       -0.16356222 -0.0035358437 0.0029461475 0.76691896

flows.2.layers.2.network.0.bias f4 [8]
000000 f5 34 75 be 9f 9f 20 3f 03 28 12 39 9b 78 06 be
       -0.23945983 0.6274356 0.0001393855 -0.13131945
000010 f1 71 3c bf ba 51 cb be 38 c6 05 bf c6 f8 a3 bf
       -0.7361136 -0.3971079 -0.5225558 -1.2810295

flows.2.layers.2.network.2.weight f4 [8, 8]
000000 01 8c 16 3d 23 1b 51 3e a0 99 13 3d 8c 87 86 be
       0.036754612 0.20420508 0.03603518 -0.2627529
000010 cc 65 a7 3e 9f 8d 80 3e 91 a4 21 3d e9 8c 31 3d
       0.32694852 0.25108048 0.039463583 0.043347273
000020 2d 4a 25 3e 37 1d d4 3e a2 8a db be 99 a1 b4 3d
       0.16141577 0.4142854 -0.42879206 0.08819885
000030 90 e1 07 3d b2 49 ab bd 5a 54 d0 3e 52 a0 bb 3d
       0.033174098 -0.08363666 0.40689355 0.09161438
000040 fc 1c 1a 3f 9c 99 29 3d 32 d5 62 3e a9 2e 52 be
       0.60200477 0.04140626 0.2215164 -0.20525612
000050 f9 8d ce bd 85 0d 44 be c3 97 f5 3d cc 9f d1 3c
       -0.10085673 -0.19145782 0.11991837 0.025588892
000060 f6 77 33 3d 1f 98 e9 be c8 28 1b 3e f1 6d 9a 3e
       0.043815576 -0.45623872 0.15152276 0.30162004
000070 f4 b7 a3 bd a7 66 c4 3e 0d b4 e7 bd cc 35 d5 be
       -0.07994071 0.38359568 -0.11313639 -0.41642606
000080 b4 f7 95 be 3f 2c d5 3d 01 fc 84 be a8 65 56 bd
       -0.29290545 0.1040883 -0.25973514 -0.05234304
000090 0b 70 a4 3e 91 d0 a5 3e de 7a 62 3d 18 81 29 3d
       0.32116732 0.32385686 0.055292957 0.04138288
0000a0 aa 71 30 bf dd b2 6c bd 0c e5 2e bf c4 ba 1b bf
       -0.6892344 -0.057787765 -0.6831825 -0.60831857
0000b0 fa a9 e4 bd 1b e9 a5 3e 90 97 86 be 1a 76 28 bf
       -0.11165233 0.32404408 -0.26287508 -0.6580521
0000c0 21 ec ba bd fc 24 49 be a1 d7 43 bd 30 e3 25 bf
       -0.09127069 -0.19643015 -0.04781306 -0.64799786
0000d0 20 b8 9c be bf c2 dc bc 8c d5 25 bf 43 16 f5 be
       -0.30609226 -0.02694833 -0.6477897 -0.47868547
0000e0 b8 c8 96 3e c0 b4 33 be 54 83 f2 be b4 6c a2 be
       0.2945001 -0.1754942 -0.4736582 -0.3172356
0000f0 bb 8a bf bc 75 e1 30 3d 58 cc d9 3d e2 08 3b 3c
       -0.023381582 0.043183763 0.106346786 0.011415692

flows.2.layers.2.network.2.bias f4 [8]
000000 eb 0d c5 3b d7 70 77 bc 30 43 8f be e7 70 57 3e
       0.006013622 -0.015102587 -0.27980947 0.21039163
000010 f5 a3 c8 3d 8e 9a e2 3d b6 0c 2e be c6 54 cd 3d
       0.09796897 0.11064635 -0.16997036 0.10025935

flows.2.layers.2.network.4.weight f4 [8, 8]
000000 cb fa ac 3e 8e 16 27 3f 80 6d 74 3e 6a ec fc bd
       0.3378509 0.6526879 0.23869896 -0.1234978
000010 33 8b b8 be 27 bd 3b be 57 33 52 3e 90 85 b5 3e
       -0.360437 -0.18333875 0.20527397 0.35453463
000020 6e be 9c be d2 96 ab bd 13 e3 4f 3e d7 63 11 be
       -0.30614036 -0.08378376 0.20301466 -0.14198242
000030 e1 4f ce be 8f 2b be 3e 3e 86 45 3e 40 18 34 be
       -0.40295318 0.37142608 0.1928949 -0.17587376
000040 68 f7 00 3e de 1b 2b 3f 6a 5c 2c 3e 96 f3 5b be
       0.12594378 0.66839397 0.16832128 -0.2147964
000050 d8 26 84 be 75 fd f4 bc 53 77 bd bd 1c 46 9d 3e
       -0.25810885 -0.029906014 -0.09251275 0.30717552
000060 4e 89 31 3d 02 42 31 3f eb d1 96 be bd d9 8d bd
       0.043343835 0.69241345 -0.2945703 -0.06926296
000070 70 82 b6 3e 48 28 6c be 71 b4 eb be 1d 07 a7 3d
       0.3564639 -0.23062241 -0.46036103 0.081556536
000080 db d3 82 bc 17 29 62 bf 02 da 0c be 3f c4 50 3e
       -0.015970161 -0.8834395 -0.13755038 0.20387362
000090 ba ea c2 3b a1 b4 a0 3e 2b 77 18 3f 34 d7 4e be
       0.0059483917 0.3138781 0.59556836 -0.20199281
0000a0 e0 cf c0 3e 90 f7 09 3f 2d cc 3d be 3f 9a 36 be
       0.37658596 0.53893375 -0.18534918 -0.17832278
0000b0 f5 05 0d 3f 9f 07 10 be 5b a1 a9 be a3 b4 83 bd
       0.55087215 -0.14065407 -0.33130917 -0.06430938
0000c0 82 25 a0 3e 33 bf 19 3f c3 1a 3b 3e b8 7b c9 bd
       0.31278616 0.6005737 0.18271928 -0.098380506
0000d0 85 c6 56 3e da 96 00 bf 10 9e e9 be 91 2d 14 bf
       0.20974167 -0.5023018 -0.45628405 -0.5788203
0000e0 56 44 a7 3e 28 c3 07 be c0 5d 5b be cf 7d d3 3d
       0.32669324 -0.1325804 -0.21422482 0.103267305
0000f0 09 eb 8d 3d 24 b8 ac be a2 f0 bc 3d 3a b7 b3 3d
       0.06929595 -0.33734238 0.092255846 0.08775182

flows.2.layers.2.network.4.bias f4 [8]
000000 7a 74 83 be 60 f4 2c be 62 05 1a 3e 7b b9 67 3e
       -0.25674802 -0.16890097 0.15041116 0.22629349
000010 62 41 2e be e4 0b 64 be f6 bf 4c 3e 29 e4 22 3b
       -0.17017129 -0.22270161 0.19995102 0.0024855232

flows.2.layers.2.network.6.weight f4 [2, 8]
000000 6f ec a9 be bf 87 39 bf 52 11 23 bd 85 d5 0f 3f
       -0.33188197 -0.7247276 -0.03981144 0.5618518
000010 b0 2e 32 be 09 f3 94 3e 85 a8 06 be 9d 5e 2a 3f
       -0.17400622 0.2909167 -0.13150223 0.6655062
000020 c6 e4 aa 3e 2a 30 64 3d dd ef 2d 3f 48 97 aa 3e
       0.33377665 0.055709995 0.6794413 0.33318543
000030 5c 87 ed be ef 73 15 3e 38 51 a1 3e c2 91 1a be
       -0.46392334 0.14595006 0.31507277 -0.15094665

flows.2.layers.2.network.6.bias f4 [2]
000000 ef 7b 4c 3e 0f 6b e6 bd
       0.19969152 -0.112508886

flows.3.initial_param f4 [2]
000000 17 cb 54 3f 13 cc 90 3e
       0.8312239 0.28280696

flows.3.layers.0.network.0.weight f4 [8, 1]
000000 38 ca 7a bf ee 1f 90 3f 4c b9 b1 bf a4 81 81 bf
       -0.9796481 1.1259744 -1.3884673 -1.0117688
000010 ee ea 0f bf 6b 63 6f bf 46 3b 11 c0 5c 70 1d 3f
       -0.5621785 -0.93511075 -2.2692428 0.6149957

flows.3.layers.0.network.0.bias f4 [8]
000000 17 d3 5f bf af bf ed 3e bc 7a 18 3f 26 60 2c be
       -0.8743147 0.46435305 0.5956228 -0.16833553
000010 ef 7b 20 3f d2 b1 1b bf 0d 75 6e 40 d3 0f 8a 3f
       0.6268911 -0.6081821 3.7258942 1.0786079

flows.3.layers.0.network.2.weight f4 [8, 8]
000000 73 f1 24 bf 1e cf 04 40 18 1b 18 bf 94 7a 4f bf
       -0.6443092 2.0751414 -0.5941634 -0.81046414
000010 c2 db 9d bd d5 3d f6 bf 8e 5f 0a bc a4 bf 13 3c
       -0.07707931 -1.923762 -0.008445634 0.009017859
000020 37 c2 48 bd 52 69 38 bf 73 0f 1d 3f 02 77 59 3e
       -0.049013343 -0.72035706 0.613517 0.21236804
000030 b2 12 95 3e 39 37 23 3f 65 44 30 3f 8c a1 5a 3e
       0.29115826 0.6375614 0.6885436 0.21350688
000040 4a 95 20 bf ca 89 a2 3d 6a 86 17 3f f1 e3 59 bc
       -0.627278 0.079364374 0.59189475 -0.013298974
000050 a2 0e 26 3f 42 4c 77 be 38 af 58 3f 62 9b 10 3f
       0.6486608 -0.24150184 0.8464236 0.56487095
000060 2d 5f 12 3e 46 47 d5 be 81 e5 00 3d 7d b3 6d 3e
       0.14294119 -0.4165594 0.031468872 0.23213
000070 f3 13 cd 3a d8 8e db 3d 78 1b de 3e 0f bd 77 be
       0.0015646204 0.10720605 0.43380332 -0.24193214
000080 28 a2 e6 3c 30 30 82 bf 8c eb 3c 3f 2b ee 8b 3f
       0.028153494 -1.0170956 0.73796916 1.0932058
000090 12 00 38 3f 53 77 fe 3e 37 9a 34 3f 4a dc 71 3e
       0.7187511 0.49700412 0.70547813 0.2361919
0000a0 1b db b8 3e da a2 9d be 45 52 15 3e e5 08 44 3e
       0.36104664 -0.30788308 0.14582165 0.19144018
0000b0 a2 85 e6 be 4f 64 fc 3e 1a 26 2f be 9c 26 cc be
       -0.4502383 0.4929528 -0.17104378 -0.39873207
0000c0 8c f2 bc be b4 42 56 bd a6 ec 9e 3e b3 e2 b4 bd
       -0.369038 -0.052309707 0.31039923 -0.08832302
0000d0 af db b5 bc a2 c7 a1 be b8 fa 7c 3e 39 c3 56 3f
       -0.02219948 -0.3159762 0.24705017 0.83891636
0000e0 c6 7b b0 3e 9e e1 a6 be a1 df 15 be 15 86 c8 bc
       0.34469432 -0.32594007 -0.14636089 -0.024477998
0000f0 51 3f c7 be 8e 1a 5c 3d 58 cd 8d be 37 a7 ab bd
       -0.38915494 0.053736262 -0.27695727 -0.08381503

flows.3.layers.0.network.2.bias f4 [8]
000000 e4 b1 58 be e0 0b 88 3e 22 4f a8 be 00 a7 81 bd
       -0.2116161 0.2657156 -0.32872874 -0.06330681
000010 7c 07 1c 3f f5 a5 b8 be dd c0 51 3e 22 f7 80 3e
       0.6094892 -0.36064115 0.20483728 0.25188547

flows.3.layers.0.network.4.weight f4 [8, 8]
000000 08 c2 b9 3d 70 f4 21 bf 79 68 83 bf 19 df e5 bb
       0.09070212 -0.6326361 -1.0266258 -0.0070151207
000010 fe 2b fd bd 5b 03 96 3f 77 e7 1c c0 9a ec 22 40
       -0.123619065 1.1719774 -2.4516275 2.545691
000020 e2 6a 84 bf b9 29 c4 3d 08 f6 08 3e 85 3b 7a 3f
       -1.0345118 0.095782705 0.13375103 0.9774707
000030 b3 3a 22 3f ee f2 05 3f 92 25 b9 be c5 20 ea 3e
       0.6337082 0.52323806 -0.36161476 0.45728126
000040 46 27 4c 3f 44 5e b0 be 9c c6 fb bc ea 7f 3e bf
       0.79747427 -0.3444692 -0.030734353 -0.7441393
000050 5c 55 34 bf 32 2a 9a be 78 c7 1e 3f 93 17 78 be
       -0.7044275 -0.30110317 0.62023115 -0.24227743
000060 2a 88 54 bc 68 19 0a 3f 47 c9 96 3e 13 81 06 3e
       -0.012971917 0.53945017 0.29450437 0.13135175
000070 d2 03 16 3f ab 36 d9 3e 0a f8 0d be 76 ae 1e 3e
       0.5859958 0.4242452 -0.1386415 0.15496239
000080 3c 6e 52 3c 98 0b a0 bd a0 3c e2 be dd 04 15 3e
       0.012843665 -0.07814711 -0.44186878 0.14552636
000090 c4 6e 8f be 12 2b c2 bd d1 d1 6f bf bc 6d 72 3f
       -0.28014195 -0.09480871 -0.9367953 0.9469869
0000a0 fe ec 72 be 01 6f dd 3e 13 fe 36 be e7 b5 85 3e
       -0.23723218 0.43248752 -0.17870359 0.26115343
0000b0 ac 61 b5 3e c5 dd 63 3e e6 ab b3 3d d6 dc b2 3e
       0.3542608 0.22252567 0.087730214 0.3493411
0000c0 18 31 02 3f d5 b3 b2 bd 75 00 f3 3d d0 a3 ec be
       0.5085616 -0.087257065 0.118653215 -0.4621873
0000d0 7a e7 9f be d5 f1 b5 be 74 38 ca 3e 0c b8 19 bf
       -0.3123129 -0.35536066 0.39496195 -0.6004646
0000e0 fa b5 80 be 72 6b d1 be e4 24 09 3e aa ed 74 3e
       -0.25138837 -0.40902287 0.13392979 0.23918787
0000f0 43 07 26 bf 91 a2 6b bd 78 4e 0b be aa c7 20 bf
       -0.6485483 -0.057528082 -0.13604152 -0.62804663

flows.3.layers.0.network.4.bias f4 [8]
000000 f5 81 4a be f5 80 4b bd 8b 7d 02 3e 43 66 00 be
       -0.19776137 -0.04968353 0.12743203 -0.1253901
000010 93 d1 85 3e 28 d4 74 3e ac a6 b3 bb 6d d1 4a 3e
       0.26136455 0.23909056 -0.0054825153 0.19806452
