data/models/MAF_lane_change_with_three_npcs_best.pth (torch, 161704 bytes, 343 tensors)

flows.0.initial_param f4 [2]
0	0x3ee74745	0.45171562
1	0xbf16febc	-0.58982444

flows.0.layers.0.network.0.weight f4 [8, 1]
0	0xbe4e3650	-0.20137906
1	0x3f78e674	0.97226644
2	0xbf3d1caf	-0.7387189
3	0xbf0ca5e9	-0.5494066
4	0xbf249d8b	-0.6430289
5	0x3ec68821	0.38775733
6	0x3ca7fc2c	0.020505987
7	0x3f4b267f	0.79355615

flows.0.layers.0.network.0.bias f4 [8]
0	0x3f08a903	0.5338289
1	0x3d2c56bc	0.042074904
2	0xbea6c115	-0.32569185
3	0xbea5bfa0	-0.3237276
4	0xbf7586f9	-0.95909077
5	0xbee18fc0	-0.44054985
6	0x3b8b9e73	0.004260832
7	0x3dc8da2a	0.098072365

flows.0.layers.0.network.2.weight f4 [8, 8]
0	0xbf06d4b9	-0.5266834
1	0x3f54f937	0.8319277
2	0xbf0da66a	-0.5533205
3	0xbebfa5ba	-0.37431127
4	0x3e23f45e	0.16011187
5	0x3ed9e4f3	0.42557487
6	0xbbf87e1e	-0.0075833937
7	0x3f63689c	0.88831496
8	0x3f0d1980	0.55117035
9	0xbe42ba11	-0.19016291
10	0x3f139110	0.5764322
11	0xbd817d9e	-0.06322788
12	0xbd44290c	-0.047890708
13	0xbc7cdeb0	-0.015433952
14	0xbdb283b1	-0.087165244
15	0x3de35e2a	0.11101945
16	0xbdcf6521	-0.10126711
17	0xbd6a0609	-0.05713466
18	0xbe6b5d05	-0.22984703
19	0xbeeea398	-0.46609187
20	0xbee4ac0b	-0.44662508
21	0x3e8073ab	0.25088248
22	0x3e0fdac3	0.14048295
23	0x3ddacf31	0.1068405
24	0xbea1769e	-0.3153581
25	0xbccfb57a	-0.02535509
26	0xbd3fe400	-0.046848297
27	0xbef7ad47	-0.48374388
28	0xbef103fc	-0.47073352
29	0xbe924102	-0.28565222
30	0x3e0616fd	0.13094707
31	0x3e836e8f	0.25670287
32	0x3d76500d	0.060134936
33	0xbdc82946	-0.09773497
34	0x3e86efc0	0.2635479
35	0x3eee01bf	0.46485707
36	0x3e9c5d84	0.30540097
37	0x3d6bb0b4	0.057541564
38	0x3e80b0ab	0.25134787
39	0xbe76960f	-0.2408068
40	0xbf920d85	-1.1410376
41	0xbe694d62	-0.22783425
42	0xbe14c9fd	-0.14530177
43	0xbcef88e0	-0.029240072
44	0x3ed725e1	0.42021087
45	0x3ef5c400	0.480011
46	0x3de9ab22	0.11409594
47	0x3d872487	0.06598764
48	0x3f0b5457	0.5442557
49	0xbf52cf15	-0.8234723
50	0x3f9c1372	1.2193434
51	0x3f7c7825	0.98620826
52	0x3ec48a6d	0.3838686
53	0x3d50a1a4	0.050935403
54	0xbe26237a	-0.1622447
55	0xbfacd301	-1.3501893
56	0x3ecc5ed8	0.3991611
57	0x3e2e6655	0.17031224
58	0x3ea77a8c	0.32710683
59	0x3ec57c9f	0.3857164
60	0x3e5971fa	0.21234885
61	0xbe93a6ad	-0.288381
62	0x3cfa1083	0.030525452
63	0xbe552d4d	-0.20818062

flows.0.layers.0.network.2.bias f4 [8]
0	0xbed51c92	-0.4162336
1	0x3e84d4bc	0.25943553
2	0x3ea6101c	0.32434165
3	0xbe7d0ff9	-0.24713124
4	0x3d0bb346	0.034106515
5	0xbef76daf	-0.4832587
6	0xbd656eb4	-0.056013778
7	0xbe2c5aa2	-0.16831449

flows.0.layers.0.network.4.weight f4 [8, 8]
0	0xbc2eee7d	-0.010676977
1	0xbdfabf5a	-0.12243529
2	0x3df74f1b	0.12075635
3	0xbd79d4d1	-0.060993973
4	0x3e8cd2ca	0.2750457
5	0x3c861178	0.016365752
6	0xbd40a1b5	-0.047029216
7	0xbdbd41bd	-0.09241054
8	0xbd35b9aa	-0.044366516
9	0xbe03c7e2	-0.12869218
10	0xbe8fab46	-0.2806036
11	0x3c26550a	0.010152111
12	0x3eaf0aac	0.3418783
13	0xbe075a66	-0.13218078
14	0xbe785ab2	-0.24253348
15	0xbe1ee4e7	-0.15517007
16	0xbef47c91	-0.47751287
17	0xbcc3c055	-0.023895422
18	0xbeb3e331	-0.3513427
19	0xbe5de6d9	-0.21670093
20	0x3e17baf8	0.14817417
21	0xbdcf4c37	-0.10121959
22	0xbd03e6ee	-0.032202654
23	0x3e15b677	0.14620386
24	0xbee7249e	-0.45145124
25	0x3e87526b	0.26430067
26	0xbd116358	-0.035495132
27	0xbedbc2f4	-0.42922175
28	0x3df4b6c2	0.11948921
29	0xbe6134eb	-0.21992843
30	0xbe98a8c9	-0.29816273
31	0x3e7f49f1	0.2493055
32	0xbd2d54df	-0.042317268
33	0x3bfc3b7f	0.007697522
34	0xbe776cc0	-0.24162579
35	0x3d6904b2	0.056889243
36	0xbe55a3b8	-0.20863235
37	0x3de28671	0.11060799
38	0x3d70d299	0.05879459
39	0xbdd99067	-0.10623246
40	0xbca40e15	-0.020026246
41	0x3d07cd78	0.033154935
42	0x3e0ba000	0.13635254
43	0x3c38ebb1	0.011286662
44	0xbea7c834	-0.3276993
45	0x3de22351	0.11041892
46	0x3e9c79cf	0.30561683
47	0xbdec0fb4	-0.11526433
48	0xbe2a5244	-0.16632944
49	0xbe42e478	-0.19032466
50	0xbe693aa3	-0.22776274
51	0x3dc0dac5	0.09416727
52	0x3ee90bb7	0.4551675
53	0xbea417bb	-0.32049355
54	0xbe78f8df	-0.24313687
55	0x3de613f9	0.11234278
56	0xbe6b26a0	-0.22963953
57	0xbe9546ca	-0.2915557
58	0x3e49211a	0.19641533
59	0xbac61832	-0.0015113412
60	0xbe05a03b	-0.13049404
61	0x3f358fd7	0.7092261
62	0x3ee8eaa3	0.45491514
63	0xbe7c1e40	-0.24620914

flows.0.layers.0.network.4.bias f4 [8]
0	0x3d779271	0.06044239
1	0x3d8cdd02	0.068780914
2	0x3e38e891	0.18057467
3	0xbe9d22f3	-0.30690727
4	0x3e07cc11	0.13261439
5	0xbcd60dc5	-0.026129613
6	0xbd72f175	-0.059312303
7	0xbf0854c3	-0.53254336

flows.0.layers.0.network.6.weight f4 [2, 8]
0	0xb936bcff	-0.00017427279
1	0xbb37d947	-0.0028053091
2	0xbea36789	-0.3191493
3	0xbe10f70f	-0.14156745
4	0xba791b0f	-0.0009502628
5	0x3ac90378	0.0015336117
6	0xbda24815	-0.07923905
7	0x3df267bc	0.11836192
8	0xbae1766e	-0.0017201432
9	0x3b16c205	0.0023003828
10	0xbd957dc7	-0.07299381
11	0xbe6cc5fc	-0.231224
12	0xb99ab54c	-0.00029508246
13	0xb9c74aeb	-0.00038012056
14	0xbe05f582	-0.13081935
15	0x3edb0350	0.42775965

flows.0.layers.0.network.6.bias f4 [2]
0	0xbdecef38	-0.11569065
1	0xbece10f0	-0.40247297

flows.0.layers.1.network.0.weight f4 [8, 2]
0	0x3f9994cf	1.1998538
1	0xbfa7a301	-1.309662
2	0xbeb54050	-0.3540063
3	0xbe5461ea	-0.20740476
4	0x3fb33e34	1.4003358
5	0xbef85781	-0.4850426
6	0xbdb8a2cf	-0.09015428
7	0x3d351024	0.044204846
8	0xbf1f1f29	-0.6215692
9	0xbea0f431	-0.31436303
10	0xbf4adf18	-0.79246664
11	0x3f100581	0.562584
12	0x3f25df55	0.647939
13	0x3e9dc929	0.30817536
14	0xbf5841e4	-0.8447554
15	0xbf0651b7	-0.52468437

flows.0.layers.1.network.0.bias f4 [8]
0	0xbd2a3eaa	-0.041563667
1	0xbe3cf0ba	-0.18451205
2	0xbf2c7ccf	-0.6737794
3	0xbcafbc7b	-0.02145218
4	0xbe7c60fe	-0.24646375
5	0xbece0068	-0.40234685
6	0x3e0961c4	0.13416201
7	0x3f4bbc56	0.7958425

flows.0.layers.1.network.2.weight f4 [8, 8]
0	0x3ecc452b	0.3989652
1	0xbe884fda	-0.26623422
2	0xbeb50849	-0.35357884
3	0x3e668845	0.2251292
4	0xbdd09c8a	-0.101861075
5	0x3e420a51	0.18949248
6	0x3e5ffc92	0.21873692
7	0xbe1b96b8	-0.15194213
8	0xbf84832c	-1.035253
9	0x3eb98f49	0.3624213
10	0xbf23cdec	-0.63986087
11	0xbdc6c88f	-0.09706222
12	0x3e6e6838	0.23281944
13	0x3fde52ba	1.7368996
14	0xbea68afd	-0.32527915
15	0xbf0c5bb7	-0.54827446
16	0xbd27ce2c	-0.040968105
17	0xbe00f577	-0.12593637
18	0x3e5a4417	0.21315037
19	0x3e64ab07	0.22330867
20	0x3e92a8c8	0.28644395
21	0x3c95622e	0.018235292
22	0xbf09c089	-0.5380941
23	0x3f17fd6d	0.5937107
24	0xbdf5d2af	-0.12003075
25	0x3cc76d43	0.024344092
26	0x3ea31ed7	0.31859466
27	0x3dcd5708	0.100263655
28	0x3dc0a0f2	0.09405698
29	0x3d92a3b3	0.071601294
30	0x3e6cbecd	0.2311966
31	0x3e96ab4b	0.2942756
32	0x3f405b0d	0.7513893
33	0xbecf405c	-0.4047879
34	0xbe8fa524	-0.2805568
35	0x3d620176	0.055177175
36	0xbef95458	-0.48697162
37	0x3e9e5b10	0.3092885
38	0x3e993806	0.29925555
39	0x3e01010a	0.12598053
40	0xbed2251d	-0.4104394
41	0xbda33b39	-0.0797028
42	0x3ee841b2	0.45362622
43	0xbe6f7bcf	-0.23387073
44	0x3e3537cd	0.17697068
45	0xbea86e9c	-0.32896888
46	0xbc42af74	-0.011882652
47	0x3e78b9b6	0.24289593
48	0xbf0298cb	-0.51014394
49	0xbcf7f336	-0.03026734
50	0x3f1ae5d5	0.60506946
51	0xbcc78170	-0.024353713
52	0xbea718a8	-0.32636
53	0xbe8522f9	-0.26003245
54	0xbea4ed52	-0.3221231
55	0x3ee0131d	0.43764582
56	0x3e2d37b9	0.16915788
57	0xbe23e864	-0.16006619
58	0xbe83b509	-0.25724056
59	0xbe0f0792	-0.13967732
60	0x3e938af0	0.28816938
61	0x3de6f856	0.11277835
62	0xbd95fa1f	-0.073230974
63	0xbd7b1426	-0.061298512

flows.0.layers.1.network.2.bias f4 [8]
0	0xbe9ab33d	-0.30214873
1	0xbe8a5fee	-0.27026314
2	0x3eba8003	0.3642579
3	0x3ce7cdd2	0.028296385
4	0xbe89c96c	-0.26911485
5	0xbd8ed90f	-0.069749944
6	0xbe121d9b	-0.14269106
7	0x3e2c13f4	0.16804487

flows.0.layers.1.network.4.weight f4 [8, 8]
0	0x3b6eaa98	0.00364176
1	0xbde0cef9	-0.10976977
2	0x3e6bc18b	0.2302305
3	0xbe8832a6	-0.26601142
4	0xbb92189a	-0.004458499
5	0x3e9e7284	0.30946743
6	0x3eb04716	0.34429234
7	0xbe6fefa0	-0.23431253
8	0xbd83dbd2	-0.06438412
9	0x3f02055f	0.50789446
10	0x3d899056	0.06716983
11	0x3c43a398	0.011940859
12	0xbda2686b	-0.079300724
13	0xbe8b154a	-0.2716468
14	0xbf005a3c	-0.50137687
15	0x3e2f1302	0.17097095
16	0xbda4887e	-0.08033846
17	0xbc894916	-0.016758483
18	0xbcae9a5a	-0.021313835
19	0xbe77be2c	-0.24193639
20	0xbc9c9c7c	-0.019117586
21	0xbc809b0f	-0.015698938
22	0xbd5d5bf0	-0.054042757
23	0xbd573897	-0.052544203
24	0x3d50d59e	0.05098497
25	0xbca2870b	-0.019839784
26	0x3c0e486f	0.008684262
27	0x3d39901a	0.04530344
28	0xbdc24d78	-0.09487432
29	0xbb4c909c	-0.0031214124
30	0xbe13eee6	-0.14446601
31	0xbdd01074	-0.10159388
32	0x3e534735	0.20632632
33	0x3e018810	0.1264956
34	0xbd81c3af	-0.06336152
35	0x3e0bf681	0.13668253
36	0xbe8d3d79	-0.27585962
37	0x3e9ad135	0.30237737
38	0x3ecc6edd	0.39928332
39	0xbe6de090	-0.23230195
40	0x3e1d3996	0.15353999
41	0x3d3eb9c4	0.04656388
42	0xbd1a0d72	-0.03761048
43	0xbdaa207b	-0.083069764
44	0x3de1ca09	0.11024863
45	0x3e022dc4	0.1271277
46	0x3e9d51db	0.30726513
47	0x3eb72b08	0.35775018
48	0xbdb8a5d8	-0.09016007
49	0x3b761071	0.003754642
50	0x3cb63f4a	0.022246975
51	0xbca2558c	-0.019816183
52	0x3bb2a15a	0.0054513635
53	0x3cc833ae	0.024438705
54	0xbe8c39b5	-0.27387777
55	0xbe306d76	-0.17229256
56	0xbea8da89	-0.3297923
57	0xbf0e6277	-0.55618995
58	0x3ee5c074	0.44873393
59	0x3d753c1c	0.059871778
60	0xbea369e6	-0.31916732
61	0xbd9a7c14	-0.07543197
62	0x3d95ec8c	0.07320508
63	0x3e0af351	0.1356938

flows.0.layers.1.network.4.bias f4 [8]
0	0x3e5a82f2	0.21339014
1	0x3e1828aa	0.14859262
2	0xbc60edfd	-0.013728616
3	0xbb0c88fa	-0.002144395
4	0x3e7314e5	0.2373844
5	0x3d199c0e	0.03750234
6	0xbc810315	-0.01574854
7	0x3f1f0ff2	0.62133706

flows.0.layers.1.network.6.weight f4 [2, 8]
0	0x3d8a5710	0.06754887
1	0x3dec0942	0.11525203
2	0xbbb8d820	-0.0056409985
3	0xbbccceb7	-0.0062502283
4	0x3d31ea38	0.04343626
5	0x3aed6b5a	0.0018113658
6	0xbba5ae8a	-0.005056207
7	0x3e0e8918	0.13919485
8	0xbdc7f456	-0.097634
9	0xbc2dcc77	-0.01060783
10	0xbb6bb76a	-0.0035967478
11	0xbbf5b7bd	-0.00749871
12	0xbdbde6b0	-0.09272516
13	0x3ab8615f	0.0014067105
14	0xb931094e	-0.00016883502
15	0xbeeb4a34	-0.4595505

flows.0.layers.1.network.6.bias f4 [2]
0	0xbe8cdc29	-0.2751172
1	0x3d503e4f	0.050840672

flows.0.layers.2.network.0.weight f4 [8, 3]
0	0x3f0f020a	0.55862486
1	0x3f0cc89d	0.5499361
2	0x3e764c6d	0.24052592
3	0xbf463263	-0.77420634
4	0xbff1729a	-1.8863099
5	0xbf983915	-1.189242
6	0xbf0be835	-0.54651195
7	0x3f22d81b	0.63611
8	0xbf281d46	-0.6566967
9	0xbcce065b	-0.025149515
10	0xbe0ce303	-0.13758473
11	0xbf457516	-0.77131784
12	0x3eddbaaa	0.43306476
13	0x3edea3c1	0.4348431
14	0x3fa1e00b	1.2646497
15	0x3f150891	0.58216196
16	0x3f5f3045	0.8718303
17	0x3ea996d9	0.331229
18	0x3ff9d134	1.9516969
19	0x3f16e971	0.58949953
20	0x3d1c20e3	0.0381173
21	0x3f13eafd	0.5778044
22	0xbef1a32f	-0.47194812
23	0x3ebd1635	0.36931005

flows.0.layers.2.network.0.bias f4 [8]
0	0x3e1e6fe6	0.15472373
1	0x3f397d1c	0.72456527
2	0x3e41e73d	0.18935867
3	0xbe8b14e0	-0.27164364
4	0xbe9621fa	-0.29322797
5	0xbeca87f6	-0.39556855
6	0xbf8378a1	-1.0271188
7	0x3ec33e50	0.38133478

flows.0.layers.2.network.2.weight f4 [8, 8]
0	0xbd3de0ed	-0.046357084
1	0xbe96ebf0	-0.2947688
2	0xbdb6f1b3	-0.08932819
3	0xbd583dc5	-0.052793283
4	0x3e65cfde	0.22442576
5	0xbdaf2708	-0.085523665
6	0xbe9aaa33	-0.30207977
7	0x3f1b4166	0.60646665
8	0xbe27ee98	-0.1639961
9	0xbdb02958	-0.08601636
10	0x3db780f4	0.08960143
11	0x3daabbf6	0.08336632
12	0xbd8f8bb4	-0.07009068
13	0x3e09e224	0.13465172
14	0xbd3e46d7	-0.046454277
15	0x3deba797	0.115065746
16	0x3ea15af7	0.31514713
17	0x3ee15dfd	0.4401702
18	0xbefd54ac	-0.49478662
19	0x3ddff164	0.109347135
20	0xbf024da7	-0.5089974
21	0xbdc64d4d	-0.09682713
22	0xbeb92bb6	-0.3616616
23	0x3f91c8a8	1.138936
24	0x3ee0e2f4	0.43923151
25	0xbea1c14a	-0.3159278
26	0x3e42e11a	0.19031182
27	0x3eb181b8	0.3466928
28	0x3ed59f23	0.41722974
29	0xbf0c1e51	-0.5473376
30	0xbedb781c	-0.42865074
31	0x3e03c41f	0.12867783
32	0x3e7f8e45	0.24956615
33	0x3e4d0603	0.20021825
34	0xbe357556	-0.17720541
35	0x3ebc5729	0.36785248
36	0x3eb5802a	0.35449344
37	0x3da19f81	0.07891751
38	0xbda22b25	-0.079183854
39	0xbd9c123f	-0.07620668
40	0xbe1fa7f6	-0.15591416
41	0xbeed0784	-0.46294796
42	0x3fc274fb	1.519195
43	0x3e87d0fc	0.2652663
44	0xbf2106ce	-0.6290101
45	0xbf3446d7	-0.70420593
46	0xbe744f0a	-0.23858276
47	0xbee265d6	-0.4421832
48	0xbde431cd	-0.11142311
49	0x3f0a7043	0.5407755
50	0x3db332de	0.087499365
51	0xbad381b2	-0.0016136675
52	0x3e52a48c	0.20570582
53	0xbe35760c	-0.17720813
54	0x3f0cc951	0.54994684
55	0x3ef382e6	0.47560805
56	0x3e420448	0.18946946
57	0xbee05137	-0.43811962
58	0x3e4d8beb	0.20072906
59	0xbf2075ba	-0.62679636
60	0x3ea291da	0.317519
61	0x3d2eef3a	0.042708613
62	0xbf1d83aa	-0.6152903
63	0x3f0dc482	0.5537797

flows.0.layers.2.network.2.bias f4 [8]
0	0xbe4d5022	-0.200501
1	0x3cbf957e	0.023386713
2	0x3ec71fb4	0.38891375
3	0xbe10d7e4	-0.14144856
4	0x3ddbc713	0.1073133
5	0x3f0cbd54	0.5497639
6	0x3e3d503c	0.18487638
7	0x3e872f72	0.26403385

flows.0.layers.2.network.4.weight f4 [8, 8]
0	0xbe467137	-0.19379126
1	0xbda8b562	-0.08237721
2	0x3ec473fd	0.38369742
3	0xbe3a6d1e	-0.18205687
4	0x3df8dfea	0.12152083
5	0x3db172c1	0.08664466
6	0x3e87bb7b	0.26510224
7	0xbe7ce4b7	-0.24696623
8	0x3e5d891c	0.21634334
9	0xbd8c28e3	-0.06843736
10	0x3c817b63	0.015805906
11	0x3edf0cbe	0.4356441
12	0xbe009008	-0.12554944
13	0x3ddbda2d	0.10734973
14	0xbed2de54	-0.41185248
15	0x3e8816e1	0.26579955
16	0xbe6ec885	-0.2331868
17	0x3e858294	0.26076186
18	0x3de41802	0.111373916
19	0x3dfe8110	0.124269605
20	0xbc9037e0	-0.017604768
21	0xbd94f2f2	-0.07272901
22	0xbdaff6d2	-0.08591999
23	0x3dd3affa	0.10336299
24	0x3d83946b	0.06424793
25	0xbd7c2679	-0.061560128
26	0x3e94b6b0	0.2904563
27	0x3df25fa7	0.118346505
28	0xbdc91f0f	-0.09820377
29	0xbf0dfcae	-0.55463684
30	0x3e0b139a	0.13581696
31	0x3ec919bb	0.39277443
32	0xbea72d01	-0.32651523
33	0x3e972054	0.29516852
34	0x3d726bd0	0.05918485
35	0x3e7c1f04	0.24621207
36	0xbd20dc94	-0.03927286
37	0xbd948c34	-0.07253304
38	0x3da255c8	0.07926518
39	0x3e2cd118	0.16876638
40	0xbeaf00a1	-0.34180167
41	0x3d00a579	0.031407807
42	0xbec08a79	-0.37605646
43	0x3dfbaaf9	0.1228847
44	0xbddaaec4	-0.10677865
45	0x3dc79b65	0.09746436
46	0x3e9491a9	0.2901738
47	0x3c2b1a5a	0.010443294
48	0x3c981785	0.018565902
49	0x3d0ace48	0.03388813
50	0x3ee00a1c	0.43757713
51	0xbd8b507b	-0.0680246
52	0x3e0e3a1e	0.13889357
53	0xbf0b55ed	-0.5442799
54	0xbdf13f0d	-0.11779604
55	0x3db01190	0.085971
56	0xbec245ab	-0.37943777
57	0x3e9e2561	0.30887893
58	0x3e433a6f	0.1906526
59	0x3e356166	0.17712936
60	0xbd62ff95	-0.055419523
61	0xbe8b0728	-0.27153897
62	0x3b5a8f72	0.003334966
63	0x3e7f37d3	0.24923639

flows.0.layers.2.network.4.bias f4 [8]
0	0xbec7f52b	-0.39054236
1	0xbf129d1e	-0.5727099
2	0xbd7f2e90	-0.062300265
3	0xbc45a084	-0.012062196
4	0xbdd46ea5	-0.10372666
5	0x3d91992b	0.071092926
6	0xbe630bd7	-0.22172485
7	0xbdcca287	-0.09991937

flows.0.layers.2.network.6.weight f4 [2, 8]
0	0xbd38b7f7	-0.045097318
1	0xbd29dd19	-0.04147062
2	0xbbb2a06e	-0.0054512536
3	0xbeab7eca	-0.3349517
4	0xbc6a01bc	-0.01428264
5	0x3df867cc	0.12129173
6	0xbec227ce	-0.37920994
7	0xbd15bd5f	-0.03655755
8	0x3e56a177	0.20960031
9	0x3ea04386	0.31301516
10	0x3b8e6d21	0.0043465053
11	0xbd77fa92	-0.060541697
12	0x3c40a30b	0.0117576225
13	0xbe279604	-0.1636582
14	0x3e35f50c	0.17769259
15	0x3cfad137	0.03061734

flows.0.layers.2.network.6.bias f4 [2]
0	0x3b6bbebe	0.0035971846
1	0xbeb9c64e	-0.36284107

flows.0.layers.3.network.0.weight f4 [8, 4]
0	0x3da1fc66	0.07909469
1	0xbf31f219	-0.69510037
2	0xbf2d214e	-0.67628944
3	0xbfe2e672	-1.7726576
4	0xbf767706	-0.96275365
5	0x3f18da24	0.59707856
6	0xc008228b	-2.1271083
7	0xbd9b1c0b	-0.07573708
8	0xbee1aaf6	-0.44075745
9	0xbd428854	-0.047493294
10	0x3f6f185c	0.93396544
11	0x3f5c7da7	0.8612923
12	0x3f09b4d9	0.53791577
13	0xbe4e6b25	-0.2015806
14	0x3e78e363	0.24305491
15	0xbf783f6e	-0.96971786
16	0x3f93282a	1.1496632
17	0xbeba8cd1	-0.3643556
18	0x3f604d12	0.876176
19	0xbfa0d051	-1.2563573
20	0x3f87b877	1.0603169
21	0x3fc4f180	1.53862
22	0x3e711bc7	0.23545752
23	0xbe128599	-0.14308776
24	0xbf8b3a40	-1.0877151
25	0x3ea4bf3b	0.32177147
26	0xbcd0fe6e	-0.025511947
27	0x3f044ce6	0.5167984
28	0x3c0883ec	0.008332234
29	0x3f341c93	0.703561
30	0x3ee1130e	0.4395985
31	0x3ee4dda5	0.4470035

flows.0.layers.3.network.0.bias f4 [8]
0	0x3cfc23b0	0.030778736
1	0xbf18cfb9	-0.5969196
2	0xbf41f337	-0.7576174
3	0x3f41166d	0.75424844
4	0xbe77b980	-0.24191856
5	0x3da2851c	0.07935545
6	0xbe2fd161	-0.17169715
7	0x3f3461dd	0.7046183

flows.0.layers.3.network.2.weight f4 [8, 8]
0	0x3e809870	0.251163
1	0x3ed5f7d8	0.41790652
2	0xbd9d5542	-0.07682277
3	0xbea3e26e	-0.3200869
4	0xbf0ccc46	-0.54999197
5	0x3f06c79d	0.52648336
6	0x3dace3d7	0.084418945
7	0xbe9d652f	-0.3074126
8	0xbcc0203a	-0.023452867
9	0xbc978197	-0.01849441
10	0xbdb5dcee	-0.088800296
11	0x3be0d4c2	0.0068613
12	0xbb72bf76	-0.003704039
13	0xbdace3f7	-0.08441918
14	0xbd04bfb1	-0.032409374
15	0x3dc41f38	0.09576267
16	0x3eedb122	0.46424204
17	0x3f1e681e	0.6187762
18	0x3f1c291c	0.6100023
19	0x3f2ede00	0.68307495
20	0x3f23d6b2	0.63999474
21	0xbd7e589b	-0.06209622
22	0x3e875e2b	0.26439032
23	0x3efb6640	0.49101448
24	0x3e4d73ea	0.20063749
25	0xbf2ac930	-0.6671324
26	0xbe9cae29	-0.30601624
27	0x3edcd18a	0.43128616
28	0x3f336d48	0.70088625
29	0xbf0498e2	-0.5179578
30	0xbf95d53b	-1.1705698
31	0xbeb64b93	-0.35604534
32	0xbdd3f8bc	-0.10350177
33	0xbdcb8ce5	-0.09938983
34	0x3f1d950e	0.61555564
35	0x3ea2dd29	0.31809357
36	0x3edff36a	0.43740398
37	0xbf02200a	-0.5083014
38	0xbf159f07	-0.5844578
39	0xbf5816ae	-0.84409606
40	0xbcb2964c	-0.021800183
41	0x3eaa69ed	0.3328394
42	0xbde6242f	-0.1123737
43	0xbf053749	-0.52037483
44	0x3e51c797	0.20486294
45	0x3ed4cab2	0.41560894
46	0xbdf439e4	-0.11925104
47	0x3f661a14	0.8988354
48	0xbf517fd4	-0.81835675
49	0x3ef2152a	0.47281772
50	0xbec0060b	-0.3750461
51	0x3da633c8	0.08115345
52	0x3ecdacae	0.40170807
53	0xbf7fad0c	-0.99873424
54	0x3e95dc52	0.29269654
55	0xbe19eea9	-0.15032448
56	0x3d6e692d	0.058205772
57	0xbe33d392	-0.17561176
58	0x3e03b435	0.12861712
59	0x3de803c6	0.11328845
60	0xbe8e1411	-0.27749684
61	0x3e143285	0.14472397
62	0xbddcdecb	-0.10784682
63	0xbeb40c75	-0.35165754

flows.0.layers.3.network.2.bias f4 [8]
0	0x3e4b1446	0.19831952
1	0xbdd65a8b	-0.104664885
2	0xbdc8ff00	-0.098142624
3	0x3ec94554	0.39310706
4	0xbd8f30bf	-0.069917195
5	0xbc3a3e18	-0.011367343
6	0xbd916f50	-0.07101309
7	0x3e0daa58	0.13834512

flows.0.layers.3.network.4.weight f4 [8, 8]
0	0xbf0e0e9c	-0.5549104
1	0xbdd4e252	-0.1039473
2	0xbc08388d	-0.008314264
3	0x3d18f9f6	0.037347756
4	0xbc4e06ec	-0.0125748925
5	0x3ea60483	0.32425317
6	0x3e87e460	0.26541424
7	0x3b24ae15	0.0025128175
8	0x3ecd9bbd	0.4015788
9	0xbd4ef655	-0.05052789
10	0x3f49fdcb	0.7890288
11	0xbe55ae52	-0.20867279
12	0xbd154da0	-0.036450982
13	0xbdf27af0	-0.11839855
14	0x3dabcee1	0.083890684
15	0x3e1d1693	0.15340643
16	0xbe57b0e9	-0.2106358
17	0x3c93fb7b	0.018064251
18	0xbdc4f5dd	-0.09617207
19	0x3e2f898c	0.17142314
20	0x3eae5100	0.34046173
21	0xbeb33abd	-0.3500575
22	0x3f07de67	0.53073734
23	0x3e69fd4d	0.22850533
24	0x3db7b865	0.08970717
25	0xbcfc9d1b	-0.030836632
26	0x3f06e817	0.5269789
27	0xbf1664af	-0.5874738
28	0x3eb6ee30	0.35728598
29	0xbda1f4ed	-0.07908044
30	0x3e8cf82d	0.27533093
31	0xbe04b06a	-0.12957922
32	0xbf34914d	-0.7053421
33	0x3e169794	0.1470626
34	0xbe48cb6b	-0.19608848
35	0xbe72e311	-0.23719431
36	0x3e709adc	0.23496574
37	0x3e4bd96f	0.19907163
38	0x3e5c8b93	0.21537618
39	0x3d4d1297	0.050066557
40	0x3ea0a173	0.31373176
41	0xbd2563bf	-0.04037833
42	0xbf4f7b70	-0.81047726
43	0x3d3f1d92	0.04665906
44	0x3ecfc43b	0.405794
45	0x3d82e268	0.0639084
46	0xbf38e882	-0.7222978
47	0x3e0e3ff5	0.13891585
48	0x3b4fc271	0.003170159
49	0x3e6a1238	0.22858512
50	0x3c834de5	0.016028354
51	0xbc268d6a	-0.010165552
52	0xbcc8df3c	-0.024520509
53	0xbd0139fa	-0.03154943
54	0xbc75266e	-0.014962776
55	0x3a7bb61a	0.00096020254
56	0x3f28df8e	0.6596612
57	0x3db1b0dd	0.08676312
58	0xbe91e619	-0.28495863
59	0xbd5aa17c	-0.05337666
60	0xbca791f8	-0.020455346
61	0x3e5019b6	0.20322308
62	0xbdfe1c99	-0.12407798
63	0xbac23041	-0.0014815406

flows.0.layers.3.network.4.bias f4 [8]
0	0xbe1a6468	-0.15077364
1	0x3e93d110	0.2887044
2	0xbdf5bb62	-0.11998631
3	0xbed41edd	-0.41429797
4	0xbadb9818	-0.0016753701
5	0xbe641a07	-0.22275554
6	0xb95c3f6c	-0.00021004461
7	0xbd0fbed8	-0.035094112

flows.0.layers.3.network.6.weight f4 [2, 8]
0	0x3dbf173e	0.09330605
1	0x3c46f483	0.012143257
2	0x3d1f8f1f	0.03895485
3	0x3de674dc	0.11252758
4	0x3e38f12c	0.1806075
5	0xbd9338ee	-0.07188593
6	0xb9f998ab	-0.00047606727
7	0xbe44b63f	-0.19210146
8	0xbd702205	-0.058626194
9	0xbd973117	-0.0738241
10	0x3e7b9b1b	0.24570887
11	0x3edaf002	0.42761236
12	0xbcd558bb	-0.026043287
13	0x3e549996	0.20761713
14	0xbb43ffc4	-0.0029907087
15	0x3d918beb	0.07106765

flows.0.layers.3.network.6.bias f4 [2]
0	0xbe2dd243	-0.1697474
1	0xbf01ba08	-0.50674486

flows.0.layers.4.network.0.weight f4 [8, 5]
0	0xbc9490f9	-0.018135535
1	0x3f2d9d86	0.67818487
2	0xbf0d0404	-0.5508425
3	0x40196e5d	2.397361
4	0x3eea31af	0.4574103
5	0xbf86f973	-1.0544876
6	0xbf193e6c	-0.59860873
7	0x3fa26157	1.2685956
8	0xbda61b49	-0.08110673
9	0x3d8bd60f	0.06827938
10	0x3f2843d1	0.6572848
11	0x3e8048e8	0.25055623
12	0xbe1dc533	-0.15407257
13	0x3ed47a94	0.4149977
14	0x3d2493dc	0.040180072
15	0xbecc3d86	-0.3989069
16	0x3eaf3b32	0.3422485
17	0xbc5ac59b	-0.013352777
18	0x3f276e54	0.6540272
19	0xbf283f6d	-0.6572178
20	0xbdb77cbd	-0.08959339
21	0xbf368ebe	-0.7131156
22	0xbfb66b16	-1.425143
23	0x3f63acbf	0.88935465
24	0xbf0b5b0e	-0.54435813
25	0xbf015517	-0.5052046
26	0x3e0051a3	0.12531142
27	0xbfc0aefd	-1.5053402
28	0xbf12b871	-0.57312685
29	0xbf24a3b1	-0.64312273
30	0x3f73caed	0.95231515
31	0x3ed12e4a	0.40855628
32	0xbf458a23	-0.77163905
33	0x3f0c300c	0.54760814
34	0xbff8f745	-1.9450461
35	0xbf81e216	-1.0147121
36	0xc01f395c	-2.487876
37	0xbee5b2fe	-0.44863123
38	0xbf86c8b6	-1.0530002
39	0x3de450ee	0.111482486

flows.0.layers.4.network.0.bias f4 [8]
0	0x3e5ccfc2	0.21563628
1	0x3f0e2c79	0.5553661
2	0x3f37c820	0.7178974
3	0xbf29c4df	-0.66316026
4	0xbe4fc770	-0.20290923
5	0x3f003235	0.5007661
6	0x3d81f6b3	0.06345882
7	0xbd3b8634	-0.045782283

flows.0.layers.4.network.2.weight f4 [8, 8]
0	0x3ec2da46	0.38057154
1	0xbd2f68cf	-0.042824563
2	0xbe33a36d	-0.1754281
3	0xbf2a273f	-0.66466135
4	0xbec64f7d	-0.3873252
5	0x3e223344	0.15839869
6	0x3ef23f9f	0.47314164
7	0x3ec79dc2	0.38987547
8	0xbe59e1d3	-0.21277551
9	0x3e82a8f7	0.25519535
10	0xbed75ed0	-0.42064524
11	0x3f0f1e04	0.55905175
12	0x3f5420f8	0.82862806
13	0xbf04ed14	-0.5192425
14	0x3e0f3b98	0.13987577
15	0x3dbd2f83	0.09237578
16	0x3f164ca6	0.58710706
17	0x3db7bb91	0.08971322
18	0xbe8b5cc8	-0.27219224
19	0x3f0cb16c	0.54958224
20	0x3ec4eb6c	0.38460863
21	0xbf55df0d	-0.83543473
22	0x3db9a7ba	0.090651944
23	0x3e8f10a7	0.27942392
24	0xbee58694	-0.44829237
25	0x3d926674	0.07148448
26	0xbf144687	-0.57920116
27	0x3e5aa257	0.2135099
28	0x3ea20bf9	0.3164976
29	0x3dba3c7f	0.0909357
30	0xbe713c9d	-0.23558278
31	0xbe86a543	-0.2629796
32	0xbe917a1e	-0.2841348
33	0x3f0d8f57	0.55296844
34	0x3e6b8420	0.2299962
35	0x3e32720c	0.17426318
36	0x3e9b2808	0.3030398
37	0xbe246c80	-0.16057014
38	0xbe81b434	-0.25332797
39	0x3ec740e5	0.38916698
40	0xbcbe6207	-0.023240102
41	0x3e84a421	0.2590647
42	0xbed326a5	-0.4124042
43	0x3f0e51db	0.5559365
44	0xbe5d2614	-0.21596557
45	0xbea791d5	-0.3272845
46	0xbe014947	-0.1262561
47	0xbf2c1285	-0.6721576
48	0xbd8b5437	-0.06803172
49	0xbee44036	-0.4458024
50	0xbe0f9691	-0.1402228
51	0xbf128d80	-0.5724716
52	0x3f67db86	0.9056934
53	0x3f5ae7f7	0.855102
54	0x3dc260b5	0.09491102
55	0xbeda1a0f	-0.42598006
56	0x3f73ae37	0.95187706
57	0xbec25b4d	-0.37960282
58	0x3e168840	0.14700413
59	0xbed97dfc	-0.4247893
60	0xbe7e9323	-0.24860816
61	0xbf35ca56	-0.71011865
62	0xbd88deb0	-0.06683099
63	0xbe364ce3	-0.17802767

flows.0.layers.4.network.2.bias f4 [8]
0	0xbe2685f3	-0.16262035
1	0xbe71d5dc	-0.23616737
2	0xbd7a3013	-0.061081003
3	0x3e1cdee2	0.15319398
4	0x3eaddc92	0.33957344
5	0x3eaa43b0	0.33254766
6	0xbe8f395e	-0.27973455
7	0xbe7a054a	-0.2441608

flows.0.layers.4.network.4.weight f4 [8, 8]
0	0xbeaae03f	-0.3337421
1	0xbec1cbf4	-0.37850916
2	0xbed751fe	-0.42054743
3	0x3ed6a590	0.4192319
4	0x3e28647c	0.16444582
5	0x3ee8b667	0.45451662
6	0xbdd0989e	-0.101853594
7	0xbf0ff402	-0.562317
8	0x3e1aa5cb	0.15102307
9	0x3ef86447	0.48514006
10	0xbe2e9e1c	-0.17052501
11	0x3e05ca71	0.13065507
12	0x3e761900	0.24032974
13	0x3cea80e8	0.02862592
14	0xbe0f71d8	-0.14008272
15	0x3b68c0ca	0.0035515302
16	0xbef4fa7b	-0.4784735
17	0xbdc59e3c	-0.096493214
18	0x3e4b673b	0.19863598
19	0xbd2f6d61	-0.04282892
20	0x3d25590a	0.040368117
21	0x3ef14048	0.47119355
22	0x3d9fe498	0.07807273
23	0x3f42c2a7	0.76078266
24	0x3ed577fe	0.4169311
25	0xbee8cbe5	-0.4546806
26	0xbf46a23f	-0.7759132
27	0xbd769fa1	-0.060210828
28	0xbe14f50e	-0.14546606
29	0xbec6bc71	-0.38815644
30	0x3e87f77c	0.26556003
31	0x3e82c369	0.2553971
32	0xbd2feb2e	-0.042948894
33	0x3cde7def	0.02715966
34	0x3d377778	0.04479167
35	0x3d9cd216	0.07657258
36	0xbe26a656	-0.1627439
37	0xbdf62151	-0.12018073
38	0xbdf966cd	-0.12177811
39	0xbcab045b	-0.0208761
40	0x3b2f9007	0.0026788728
41	0xbdbd99fd	-0.092578866
42	0x3d62e1cf	0.05539113
43	0x3ccd08fa	0.025028694
44	0x3cee93d9	0.029123234
45	0x3ca9c021	0.020721497
46	0x3d0a26ec	0.033728525
47	0xbc83e8d1	-0.016102226
48	0x3eb3646a	0.35037547
49	0x3ebd04ae	0.36917633
50	0x3e100568	0.14064562
51	0x3d98250c	0.07428941
52	0xbec74b67	-0.38924715
53	0x3d718350	0.05896312
54	0x3e9fd30d	0.31215706
55	0x3e027008	0.12738049
56	0x3ea9885d	0.3311185
57	0xbf0f8038	-0.5605502
58	0x3eddbadf	0.43306634
59	0xbf4eba91	-0.8075343
60	0x3e98ddc4	0.29856694
61	0xbe5581a2	-0.20850232
62	0xbe93c1ea	-0.28858882
63	0x3ec170f4	0.3778149

flows.0.layers.4.network.4.bias f4 [8]
0	0xbc9cb097	-0.019127173
1	0xbd4472e1	-0.04796112
2	0xbf06cd35	-0.5265687
3	0xbeb0a9d9	-0.34504583
4	0x3d8b55d2	0.06803478
5	0xbd16c5cd	-0.03680973
6	0xbee4be3a	-0.4467638
7	0xbc65b625	-0.014020477

flows.0.layers.4.network.6.weight f4 [2, 8]
0	0xbd96a192	-0.07355036
1	0xbcbba9f1	-0.022908183
2	0x3e42b2e5	0.19013555
3	0x3e3df7ee	0.18551609
4	0xbae64416	-0.0017567899
5	0x3b903109	0.0044003767
6	0x3e24b1bb	0.16083424
7	0x3d7c3360	0.061572433
8	0xbe9d58a4	-0.3073169
9	0x3e41fd92	0.18944386
10	0x3ebfff2b	0.37499365
11	0x3dcd8ac6	0.100362346
12	0x3c529856	0.0128537025
13	0x3af771c8	0.0018878514
14	0x3ed06a88	0.40706277
15	0xbe1dd27c	-0.15412325

flows.0.layers.4.network.6.bias f4 [2]
0	0x3d08f4bc	0.033436522
1	0xbd9067c0	-0.07051039

flows.0.layers.5.network.0.weight f4 [8, 6]
0	0x3f119ac3	0.5687677
1	0x3f4b58c2	0.7943231
2	0x3f61787e	0.8807448
3	0x3f1534f1	0.5828391
4	0x3eb608ac	0.3555349
5	0x3f1a51ee	0.60281265
6	0x3ff1cdce	1.8890932
7	0xbc967f51	-0.018371256
8	0xbf9d1506	-1.2272041
9	0x3e2fe0f8	0.17175663
10	0xbfb3ee1c	-1.405704
11	0xbf716078	-0.94287825
12	0x3e64f25b	0.22358076
13	0xbf68fe10	-0.9101267
14	0x3f81bcb4	1.0135713
15	0xbf3eb611	-0.7449656
16	0xbf13bdf7	-0.5771174
17	0x3eacac90	0.33725405
18	0x3e17b316	0.1481441
19	0x3e6dc49c	0.23219532
20	0xbe394dbe	-0.18096063
21	0x3f58de21	0.8471394
22	0x3ebc1dfa	0.3674162
23	0xbdbd82cd	-0.09253464
24	0x3e811751	0.25213102
25	0xbdf0e6e3	-0.11762788
26	0x3f24cb52	0.6437274
27	0x3eef1537	0.46695873
28	0x3df54698	0.11976355
29	0xbf1726d3	-0.59043616
30	0xbc8a642b	-0.016893467
31	0xbdc91195	-0.09817807
32	0xbe88f09e	-0.26746076
33	0xbd163da5	-0.036679883
34	0xbf0bb6ab	-0.54575604
35	0x3f93c44b	1.1544279
36	0x3ed87de5	0.4228355
37	0xbf5ebec5	-0.8700984
38	0xbe1cb1b1	-0.15302159
39	0xbf055d14	-0.5209515
40	0x3f6b42fe	0.91899097
41	0xbdc77306	-0.09738736
42	0x402b2413	2.6740768
43	0xbf36900a	-0.71313536
44	0xc00cef7b	-2.2021167
45	0xbdc9ddc1	-0.09856749
46	0x3fc9e776	1.5773761
47	0xbeedbe03	-0.4643403

flows.0.layers.5.network.0.bias f4 [8]
0	0xbe8dc5e9	-0.27690056
1	0x3f1c9f12	0.6118022
2	0xbdab2bf6	-0.08357994
3	0xbe7141f5	-0.23560317
4	0x3cc5daa9	0.024152117
5	0x3eda27ee	0.4260859
6	0x3f6d03f1	0.9258414
7	0xbf78f76a	-0.97252524

flows.0.layers.5.network.2.weight f4 [8, 8]
0	0xbf221b43	-0.6332285
1	0xbdda0898	-0.106461704
2	0x3c52199f	0.012823491
3	0x3f5e3b22	0.8680898
4	0x3eeff743	0.46868333
5	0xbed60490	-0.41800356
6	0x3eae29c5	0.34016243
7	0x3e88e6bb	0.26738533
8	0x3f3fd364	0.7493193
9	0xbe89ff9a	-0.2695282
10	0xbda10335	-0.0786194
11	0xbec7a101	-0.38990024
12	0x3d5726f5	0.052527387
13	0x3f61293a	0.8795353
14	0x3cc40eb4	0.023932792
15	0x3faedeae	1.3661706
16	0xbe1e089e	-0.15432975
17	0xbf0f2194	-0.5591061
18	0x3d37dc8d	0.044888068
19	0x3e9d701b	0.30749592
20	0x3d95732e	0.072973594
21	0x3f48316d	0.7820042
22	0xbdcbe863	-0.099564336
23	0x3e565d94	0.20934135
24	0x3edbb496	0.42911214
25	0x3dc7434b	0.09729632
26	0x3f66ea9c	0.90201735
27	0x3f30a7ae	0.6900586
28	0x3e1a9b36	0.15098271
29	0xbf7a6454	-0.9780934
30	0x3e6502fb	0.22364418
31	0x3ed58cdd	0.41709033
32	0x3ea9f47e	0.33194345
33	0xbd965d77	-0.07342046
34	0xbfa648b4	-1.2990937
35	0x3f2042ce	0.62601936
36	0x3e96e473	0.29471168
37	0x3f120ab7	0.570476
38	0x3e8cf456	0.27530164
39	0xbf1edd52	-0.6205646
40	0xbf1a2184	-0.6020739
41	0xbf142979	-0.5787578
42	0xbe495d97	-0.19664608
43	0xbe90e3c8	-0.28298783
44	0x3f22ca87	0.6359028
45	0xbf055288	-0.5207906
46	0x3f9a96c1	1.2077256
47	0xbf0f602c	-0.5600612
48	0x3f46de25	0.77682716
49	0xbf9b2ec5	-1.2123648
50	0xbf4c9dbc	-0.79928184
51	0xbf6ef35a	-0.93340075
52	0xbef3b59b	-0.4759949
53	0x3eb72ce4	0.35776436
54	0x3e36fe72	0.178705
55	0xbf258117	-0.646501
56	0x3f5b46c0	0.8565483
57	0x3e4ba6c3	0.19887833
58	0x3e606319	0.21912803
59	0x3eafc883	0.34332666
60	0x3f75289e	0.957651
61	0x3ed0bde2	0.4076987
62	0xbe3b2a29	-0.18277802
63	0xbf050f5d	-0.5197657

flows.0.layers.5.network.2.bias f4 [8]
0	0xbed7d428	-0.4215405
1	0x3ec1eccc	0.37875974
2	0x3b4b0a6f	0.003098156
3	0x3e9a2859	0.30108908
4	0x3e845cbb	0.25851998
5	0x3e4f61df	0.20252179
6	0xbd4f0ccf	-0.050549325
7	0xbf394953	-0.7237751

flows.0.layers.5.network.4.weight f4 [8, 8]
0	0xbdb33d1f	-0.08751892
1	0xbc21bf96	-0.009872338
2	0xbd1e581a	-0.03865824
3	0x3dac642f	0.08417546
4	0x3d967321	0.07346178
5	0xbb09c35b	-0.0021020982
6	0x3c2fa9e9	0.010721662
7	0xbdbabfea	-0.09118636
8	0xbe8b32c2	-0.27187163
9	0xbf1b87a5	-0.6075385
10	0x3d2828ff	0.041054722
11	0x3e68b12a	0.22723833
12	0xbf02f1e4	-0.51150346
13	0xbec774c4	-0.38956273
14	0xbf1c75f8	-0.61117506
15	0xbe0e6746	-0.13906583
16	0xbf406489	-0.75153404
17	0x3d5abdc7	0.053403642
18	0x3dcc911d	0.09988616
19	0x3e0b77a9	0.13619865
20	0xbf2af835	-0.66784984
21	0x3f3d9f8c	0.74071574
22	0x3eee9e42	0.46605116
23	0xbf3c3aca	-0.73527205
24	0xbe1fb619	-0.15596808
25	0xbe49c92f	-0.19705652
26	0xbec43da6	-0.38328284
27	0x3ed5ffa2	0.41796595
28	0xbeed0022	-0.46289164
29	0xbecda3e2	-0.40164095
30	0x3eeb8e6d	0.460071
31	0xbe79fdf8	-0.24413288
32	0x3e85c58d	0.26127282
33	0x3f6e4f02	0.93089306
34	0x3daf1b5e	0.08550142
35	0xbe2124a0	-0.15736628
36	0xbe46f105	-0.19427879
37	0xbf1d5c4c	-0.6146896
38	0xbec717a5	-0.38885227
39	0x3ebaac51	0.36459592
40	0x3e6c2087	0.23059283
41	0xbec1aa06	-0.3782503
42	0x3e5b72ba	0.21430483
43	0x3eea40c2	0.4575253
44	0xbe9aa883	-0.3020669
45	0xbe8ee16d	-0.2790636
46	0x3e94e7c1	0.29083064
47	0xbf32aabe	-0.6979178
48	0xbcea2c62	-0.028585616
49	0xbc26d7cb	-0.010183285
50	0x3c0ba96b	0.008524279
51	0x3ca912ec	0.020638905
52	0x3c843a18	0.016140983
53	0x3c1e0856	0.009645542
54	0xbc84adbf	-0.01619613
55	0xbc66e5cb	-0.014092873
56	0x3d7a6c0d	0.0611382
57	0xbf38d251	-0.7219592
58	0xbedc4e58	-0.43028522
59	0x3f98aa11	1.19269
60	0xbed25f53	-0.41088352
61	0x3e81350b	0.2523578
62	0xbf66d3a0	-0.90166664
63	0xbecbc50c	-0.39798772

flows.0.layers.5.network.4.bias f4 [8]
0	0xbdaea4b1	-0.08527506
1	0x3f0fa653	0.56113166
2	0x3eb086ce	0.34477848
3	0xbebe52f8	-0.37172675
4	0xbe8c5ea6	-0.2741596
5	0x3e976903	0.29572305
6	0xbcacf17c	-0.021111242
7	0x3e7b709c	0.24554676

flows.0.layers.5.network.6.weight f4 [2, 8]
0	0x3b1dc5c6	0.002407418
1	0x3d175aff	0.036952015
2	0xbed70faf	-0.42004153
3	0xbeac86b6	-0.33696526
4	0xbe3dc4c2	-0.18532088
5	0xbd10fb13	-0.035395693
6	0x3a2f45fc	0.00066861487
7	0x3ef2f35f	0.47451302
8	0x3b86f460	0.0041184872
9	0xbea614c8	-0.3243773
10	0xbe4c0b53	-0.19926195
11	0xbe9a8842	-0.3018208
12	0x3dbbeb45	0.091757335
13	0xbea81646	-0.32829493
14	0x3b189c9e	0.002328671
15	0xbcf57cd1	-0.029966744

flows.0.layers.5.network.6.bias f4 [2]
0	0xbdfb3882	-0.122666374
1	0xbe417ed0	-0.18896031

flows.1.initial_param f4 [2]
0	0x3f1334dd	0.5750254
1	0x3d995c5f	0.074883215

flows.1.layers.0.network.0.weight f4 [8, 1]
0	0xbeadcc9d	-0.3394517
1	0x3e52b809	0.20578016
2	0x3f6732c1	0.9031182
3	0x3ebd7ad5	0.37007776
4	0xbea0ae42	-0.31382948
5	0xbebd06ff	-0.369194
6	0x3ea4b919	0.32172468
7	0xbf275438	-0.6536288

flows.1.layers.0.network.0.bias f4 [8]
0	0x3eb040a2	0.3442431
1	0xbee43819	-0.4457405
2	0x3ed2b01b	0.41149983
3	0x3f9306ef	1.1486491
4	0x3f7135d5	0.94222766
5	0xbf9a718c	-1.2065902
6	0xbf3d5019	-0.73950344
7	0xbe830388	-0.25588632

flows.1.layers.0.network.2.weight f4 [8, 8]
0	0xbe86fdc0	-0.2636547
1	0x3ec43be8	0.38326955
2	0x3e72f4ad	0.23726149
3	0xbdd9d7b9	-0.10636849
4	0xbe48d867	-0.19613801
5	0xbea655cc	-0.32487333
6	0xbd1c3751	-0.03813869
7	0xbef94539	-0.48685625
8	0xbe934bcc	-0.28768766
9	0xbe661fa0	-0.22473001
10	0x3f15f346	0.5857433
11	0x3ef01e3a	0.4689806
12	0xbe15da32	-0.14634016
13	0xbe5805fe	-0.21096036
14	0x3e976155	0.29566446
15	0xbe74571b	-0.23861353
16	0xbefbb1e4	-0.49159157
17	0x3ec1c6cc	0.37846982
18	0x3e319d07	0.17345057
19	0x3e946801	0.289856
20	0xbefd8279	-0.49513605
21	0x3d41eae4	0.04734315
22	0x3f0fc79c	0.56163955
23	0xbeef3b02	-0.46724707
24	0x3eb06468	0.34451604
25	0x3ef4742c	0.47744882
26	0xbddfa6d7	-0.10920494
27	0xbd0f1a82	-0.03493739
28	0x3dab48a1	0.08363462
29	0xbebe88d2	-0.3721376
30	0x3db698f7	0.089158945
31	0xbc97294c	-0.01845231
32	0x3efc6f86	0.49303836
33	0xbf509a94	-0.8148587
34	0x3c88a442	0.016679887
35	0x3ee847fd	0.45367423
36	0x3f86a7d7	1.0519971
37	0xbf24b773	-0.6434242
38	0xbf58976e	-0.84606063
39	0xbf213fc0	-0.629879
40	0xbe433d4e	-0.19066355
41	0xbec9881c	-0.39361656
42	0x3e669e8b	0.22521417
43	0xbe018b39	-0.12650765
44	0x3eb10268	0.34572148
45	0x3ed66842	0.41876417
46	0x3d088170	0.033326566
47	0xbe378cf7	-0.17924868
48	0x3dd120e6	0.10211353
49	0x3ce11b6f	0.027478902
50	0x3e9ebdf3	0.31004295
51	0xbed4ed59	-0.41587332
52	0x3e4a76fd	0.19771953
53	0x3ec54ce6	0.3853523
54	0xbebf068c	-0.37309682
55	0x3ceaf561	0.028681459
56	0x3e977422	0.2958079
57	0x3d07e0cf	0.03317338
58	0x3f0b06ca	0.54307234
59	0x3ef1ebb3	0.47250137
60	0x3ca68f60	0.020332038
61	0x3d404bc5	0.04694726
62	0x3edee9d7	0.4353778
63	0x3d414db0	0.04719323

flows.1.layers.0.network.2.bias f4 [8]
0	0x3b506a4a	0.0031801634
1	0x3eea5359	0.45766714
2	0xbe59bc63	-0.2126327
3	0xbe17528d	-0.14777584
4	0x3e76a733	0.24087219
5	0xbbbacf74	-0.005701
6	0x3e541aff	0.20713423
7	0x3e589c10	0.21153283

flows.1.layers.0.network.4.weight f4 [8, 8]
0	0x3e3176b5	0.1733044
1	0x3e6c4fdd	0.2307734
2	0xbe87ca32	-0.2652145
3	0xbe217559	-0.15767421
4	0xbcfb12ac	-0.030648552
5	0x3e023126	0.12714061
6	0xbe29a52e	-0.16566917
7	0xbea3a31c	-0.3196038
8	0x3b81004c	0.003936803
9	0x3f18590c	0.59510875
10	0xbddeb5d3	-0.10874524
11	0x3d84d81a	0.064865306
12	0x3eb0660b	0.34452853
13	0xbe824fc8	-0.25451493
14	0xbe4bf04b	-0.19915883
15	0x3e93fd00	0.2890396
16	0xbdff49a6	-0.12465219
17	0xbe0d4cb4	-0.13798791
18	0x3dd8fd1e	0.10595153
19	0x3cdd4c06	0.02701379
20	0x3e6c8f96	0.23101649
21	0x3e207737	0.15670477
22	0xbdba5417	-0.0909807
23	0x3e46ec55	0.19426091
24	0x3e524286	0.20533189
25	0x3e9a2af1	0.30110887
26	0x3ef9248f	0.48660704
27	0xbd59010f	-0.052979525
28	0xbf043c58	-0.5165458
29	0x3d33ff51	0.04394466
30	0xbe2f4fa0	-0.17120218
31	0xbe6c928b	-0.23102777
32	0x3e59d06c	0.21270913
33	0xbef0b27b	-0.4701117
34	0x3da6b4c8	0.0813995
35	0xbe7f8847	-0.2495433
36	0x3e820b6f	0.25399348
37	0x3ecbe785	0.39825073
38	0xbe86b0d0	-0.26306772
39	0xbeb0b261	-0.34511092
40	0x3ee30374	0.44338572
41	0x3ed64656	0.41850537
42	0xbd3b199d	-0.045678724
43	0xbdb9fb7d	-0.09081171
44	0xbdcef077	-0.10104459
45	0x3dddd665	0.10831908
46	0xbe76cbb0	-0.24101138
47	0x3e87799d	0.2645997
48	0x3dd38efa	0.10330005
49	0xbdcd2704	-0.10017207
50	0xbd6235d5	-0.05522712
51	0xbdaffec3	-0.08593514
52	0xbcd2afc1	-0.025718572
53	0xbdcc81ac	-0.099856704
54	0x3d2fc86f	0.042915758
55	0x3dd1b207	0.10239034
56	0xbe250ea5	-0.16118868
57	0xbdbcdfcf	-0.092223756
58	0x3ec03936	0.37543648
59	0x3c4c83ad	0.012482566
60	0xbd33d0da	-0.04390035
61	0x3dfed6d0	0.12443316
62	0xbe7afcd6	-0.24510512
63	0xbd5b46d6	-0.05353435

flows.1.layers.0.network.4.bias f4 [8]
0	0xbdd18e75	-0.1023225
1	0x3f066dc8	0.5251126
2	0xbe2d99a9	-0.16953148
3	0xbde7ddc8	-0.11321598
4	0x3e648f08	0.22320187
5	0xbdd80b20	-0.10548997
6	0x3c492382	0.012276532
7	0x3eaba9d4	0.33528006

flows.1.layers.0.network.6.weight f4 [2, 8]
0	0xbca7d01d	-0.020484978
1	0x3ea9f225	0.33192554
2	0xbb9efb59	-0.0048517403
3	0x3ee340a5	0.44385257
4	0xbd6b08b6	-0.057381354
5	0x3e2ceba6	0.16886768
6	0x3c1b4b54	0.009478409
7	0x3dd07966	0.10179405
8	0xba4e6632	-0.00078735047
9	0x3d2d06c9	0.0422428
10	0xbc33dffe	-0.010978697
11	0x3ed1ed59	0.41001394
12	0xbe1ce0d1	-0.15320136
13	0x3ea909b6	0.3301522
14	0xbba3c1c0	-0.004997462
15	0x3d7b235e	0.061313026

flows.1.layers.0.network.6.bias f4 [2]
0	0x3e8741d0	0.26417398
1	0xbe6f92bb	-0.23395817

flows.1.layers.1.network.0.weight f4 [8, 2]
0	0xbee74c27	-0.45175287
1	0x3f8fbeb0	1.1230068
2	0xbf2b7854	-0.6698048
3	0x3fbc181a	1.4694855
4	0x3daafd20	0.08349061
5	0xbd4457e7	-0.047935393
6	0xbf5a901c	-0.85376143
7	0x3da73960	0.0816524
8	0x3d53c7ca	0.051704206
9	0x3f61e8eb	0.8824603
10	0x3f00ed27	0.50361866
11	0x3fa8ef30	1.3197994
12	0x3f322d46	0.6960033
13	0xbf874fe4	-1.0571256
14	0x3f3f23b7	0.7466387
15	0xbe480ebe	-0.19536874

flows.1.layers.1.network.0.bias f4 [8]
0	0x3f9f070a	1.2424023
1	0x3eb1cadc	0.34725082
2	0xbd916577	-0.07099431
3	0x3e48cf88	0.19610417
4	0xbed127d4	-0.408507
5	0x3f3ac579	0.7295757
6	0x3f1e3a3e	0.6180762
7	0x3f4a9857	0.791387

flows.1.layers.1.network.2.weight f4 [8, 8]
0	0x3e9bfac4	0.30464756
1	0x3e9c3160	0.3050642
2	0x3e66c6b7	0.22536741
3	0x3de523da	0.11188479
4	0x3ebc3ec0	0.36766624
5	0xbeed1530	-0.46305227
6	0x3f08e95c	0.5348108
7	0xbecac16e	-0.396007
8	0xbe422055	-0.18957646
9	0xbf7a1783	-0.97692126
10	0xbe1ed941	-0.15512563
11	0xbdbc089c	-0.091813296
12	0xbe3b88d3	-0.18313913
13	0x3e59b028	0.21258605
14	0x3eb57d55	0.35447183
15	0xbdb7d9de	-0.08977102
16	0x3ea95e32	0.33079678
17	0xbdaebae8	-0.08531743
18	0x3d53666a	0.05161134
19	0x3df929f2	0.121662036
20	0x3e0a919e	0.13532111
21	0x3c854ab7	0.016270978
22	0x3e8865ea	0.26640254
23	0xbdd76668	-0.10517579
24	0x3f0d1693	0.5511257
25	0xbd9ae361	-0.075629
26	0xbe8b8c72	-0.2725559
27	0x3ed39598	0.41325068
28	0xbc840818	-0.01611714
29	0xbf0eff95	-0.5585874
30	0x3e9d18c9	0.30682972
31	0xbe572450	-0.21009946
32	0xbfc9bb25	-1.5760237
33	0xbf0930e4	-0.53590226
34	0x3e536637	0.2064446
35	0x3e219443	0.15779214
36	0xbe37ad89	-0.17937292
37	0xbf83484d	-1.025644
38	0xbf4282b9	-0.75980717
39	0xbf303ccc	-0.6884277
40	0xbd08d580	-0.033406734
41	0xbdc49bab	-0.09600004
42	0x3e499828	0.19686949
43	0xbe36623b	-0.1781091
44	0xbd1a0c06	-0.037609123
45	0xbe0987e1	-0.1343074
46	0xbe9ea750	-0.30987024
47	0x3e2a70cd	0.16644593
48	0xbeb6a37e	-0.3567161
49	0x3cb97249	0.022637503
50	0xbcc663f0	-0.024217576
51	0xbf2516d6	-0.6448797
52	0xbed83d69	-0.42234352
53	0x3e9e099c	0.30866706
54	0xbf5d4236	-0.86429155
55	0xbd7f4ad0	-0.062327206
56	0x3e6836bb	0.22677128
57	0xbe382c14	-0.17985564
58	0x3dc1c56b	0.094614826
59	0x3d9aed9f	0.07564854
60	0xbd2092aa	-0.03920237
61	0x3d6fca0a	0.05854229
62	0xbdba26c6	-0.09089427
63	0x3c8cba6e	0.01717874

flows.1.layers.1.network.2.bias f4 [8]
0	0xbe688d90	-0.22710252
1	0xbb0229b1	-0.0019861276
2	0xbe5c8ffe	-0.21539304
3	0x3df7ac05	0.12093357
4	0xbebe9fe4	-0.37231362
5	0x3d4b35ff	0.04961204
6	0x3c9ac36c	0.018892013
7	0xbdeb6e27	-0.11495619

flows.1.layers.1.network.4.weight f4 [8, 8]
0	0xbee2eb86	-0.44320315
1	0xbe8d929f	-0.27650926
2	0xbe0125b9	-0.12612046
3	0xbdac921a	-0.08426304
4	0x3f075fae	0.5288037
5	0x3e5b2a1a	0.21402779
6	0x3f44181f	0.76599306
7	0xbd4d7602	-0.05016137
8	0x3e20c1e0	0.15698957
9	0x3ed994da	0.42496377
10	0x3e0fb74a	0.14034763
11	0xbe93447f	-0.28763196
12	0xbe870a39	-0.26374987
13	0xbd64110c	-0.05568032
14	0x3f3bb5dd	0.73324376
15	0x3d8adc8b	0.067803465
16	0x3e81ac86	0.25326937
17	0x3d3a24f7	0.04544541
18	0x3ea54958	0.3228252
19	0xbe02a13a	-0.12756816
20	0x3e60a343	0.2193728
21	0xbe30a3be	-0.17249963
22	0x3e5b08ad	0.21390028
23	0x3ddb6542	0.10712673
24	0xbc8a827d	-0.016907925
25	0x3badda1f	0.005305543
26	0xbd241257	-0.040056553
27	0x3c32c16c	0.010910373
28	0x3b46cdd0	0.0030335076
29	0xbd98a91a	-0.074541286
30	0x3c9821eb	0.01857086
31	0x3d8f55df	0.069988005
32	0xbe5a0476	-0.21290764
33	0xbd35d48a	-0.044392146
34	0x3edb8238	0.42872787
35	0x3d8877a9	0.06663448
36	0x3ebfb915	0.37445894
37	0xbee805ef	-0.45317027
38	0x3e8f7a87	0.28023168
39	0x3ce88d72	0.028387759
40	0x3e2d95af	0.16951631
41	0xbd635b2d	-0.055506874
42	0x3de5810f	0.112062566
43	0x38c44f20	9.3607465e-05
44	0xbe4f5fe4	-0.20251423
45	0x3e7fd7ba	0.24984637
46	0xbe2e6724	-0.17031533
47	0xbd8f6716	-0.07002084
48	0xbe560f8a	-0.20904365
49	0xbd3804e5	-0.044926543
50	0x3c3ea94f	0.011637046
51	0x3d8e013b	0.069338284
52	0x3c2664c7	0.010155863
53	0x3dacfb71	0.08446396
54	0xbd9f6e20	-0.077846766
55	0xbbe55c4a	-0.006999527
56	0xbd4c040f	-0.049808558
57	0x3ed4047b	0.41409668
58	0xbe072929	-0.13199295
59	0xbe976694	-0.29570448
60	0x3f04ae0e	0.51828086
61	0x3d1a583b	0.0376818
62	0x3f04ecee	0.51924026
63	0xbd3dfff1	-0.046386663

flows.1.layers.1.network.4.bias f4 [8]
0	0x3ebda8f4	0.37042964
1	0xbe709234	-0.23493272
2	0x3ea2245c	0.31668365
3	0xbb2e208d	-0.0026569695
4	0x3e986ed5	0.29772058
5	0xbe20fb22	-0.157208
6	0xbd92a4ec	-0.071603626
7	0xbeb5964f	-0.3546624

flows.1.layers.1.network.6.weight f4 [2, 8]
0	0x3eb0d816	0.3453986
1	0x3e116fac	0.14202756
2	0x3d437aae	0.04772442
3	0xbb18e95f	-0.002333246
4	0x3d747c63	0.059688937
5	0xbda69d8c	-0.081355184
6	0xbc182d7e	-0.00928819
7	0x3f03a331	0.51420885
8	0xbe30db0c	-0.1727106
9	0x3db1e72c	0.08686671
10	0xbbe7bc63	-0.007072018
11	0xbb360117	-0.0027771646
12	0xbccb70dd	-0.02483409
13	0x3d56ead0	0.05247003
14	0xbc165af0	-0.009176955
15	0x3d833563	0.06406667

flows.1.layers.1.network.6.bias f4 [2]
0	0x3e45db13	0.19321851
1	0xbd9fc40c	-0.07801065

flows.1.layers.2.network.0.weight f4 [8, 3]
0	0xbc914988	-0.017735258
1	0x3f531a95	0.82462436
2	0xbedb0aed	-0.42781773
3	0xbfcc4bae	-1.5960596
4	0xbf807d01	-1.0038148
5	0x3de9806e	0.11401449
6	0x3f96e36d	1.1788155
7	0x3f0e84c3	0.5567133
8	0xbe855a2c	-0.26045358
9	0xbf9d4d26	-1.2289169
10	0xbd0339db	-0.032037597
11	0xbdeeb3c0	-0.11655378
12	0x3ebf0393	0.37307414
13	0xbf6e191c	-0.93007064
14	0xbf34ba61	-0.7059689
15	0x3d72553b	0.059163313
16	0xbf50c4d9	-0.81550366
17	0xbf180303	-0.59379596
18	0x3f38a405	0.72125274
19	0xbf4f9681	-0.81089026
20	0x3e2b013c	0.1669969
21	0x3f739496	0.951486
22	0x3f4701dc	0.7773721
23	0xbf3b3ba4	-0.7313788

flows.1.layers.2.network.0.bias f4 [8]
0	0x3e616ae8	0.22013438
1	0x3fa5b921	1.2947122
2	0x3f14ef27	0.5817742
3	0x3e7bccd9	0.24589862
4	0xbf52bf3a	-0.8232304
5	0x3f21bf91	0.6318293
6	0x3f3ebf8a	0.74511015
7	0xbecd427a	-0.4008978

flows.1.layers.2.network.2.weight f4 [8, 8]
0	0xbe74f3fc	-0.23921198
1	0x3ed865db	0.4226521
2	0x3e664fdc	0.22491401
3	0x3e1902dd	0.14942499
4	0x3f348174	0.7051003
5	0xbe798be6	-0.24369773
6	0x37467700	1.18294265e-05
7	0x3e0bec4a	0.13664356
8	0x3d6d3366	0.057910345
9	0xbefcaece	-0.49352115
10	0xbf6e3fe0	-0.93066216
11	0xbeca4b0f	-0.3951039
12	0x3f60b132	0.8777038
13	0xbeaf7a24	-0.34272873
14	0xbfaecb88	-1.3655863
15	0x3f0bc4cd	0.5459717
16	0x3e99e415	0.30056825
17	0xbd8b38e1	-0.06797958
18	0x3d80e480	0.06293583
19	0x3da2a980	0.07942486
20	0xbf399551	-0.72493464
21	0x3decd7a7	0.1156457
22	0xbf8ac077	-1.0839986
23	0x3e855aa6	0.26045722
24	0x3d90898c	0.07057485
25	0xbe29dd8a	-0.16588417
26	0xbd1a227c	-0.037630543
27	0x3f55cf70	0.8351965
28	0xbee8c3f8	-0.45462012
29	0x3f2f40ac	0.68458056
30	0x3e4bcf89	0.19903387
31	0xbf5735f2	-0.8406669
32	0xbdebb752	-0.11509575
33	0x3da7fdb1	0.08202685
34	0xbf0d8858	-0.5528617
35	0xbf22eb1c	-0.6364
36	0x3e7dc3ef	0.24781774
37	0x3f2c1d3e	0.6723212
38	0xbefb92ae	-0.49135345
39	0x3d4308cf	0.047615822
40	0x3f435911	0.7630778
41	0x3e069e38	0.13146293
42	0x3ee523f6	0.44754
43	0x3f85ccfb	1.045318
44	0xbebac0ea	-0.36475307
45	0x3f1cc6de	0.6124095
46	0xbe7f9ea6	-0.24962863
47	0x3e797eef	0.24364828
48	0xbf0974b7	-0.5369372
49	0xbf0bd395	-0.54619724
50	0x3e48449a	0.1955742
51	0xbe40718d	-0.18793316
52	0x3f029a67	0.5101685
53	0x3e14f704	0.14547354
54	0x3f7e1176	0.99245393
55	0xbed5cbcb	-0.41757044
56	0xbd3faf7a	-0.046798207
57	0xbfb3e3b5	-1.4053866
58	0x3f72b224	0.9480307
59	0xbf6e023f	-0.9297218
60	0x3df42458	0.119209945
61	0xbe59e424	-0.21278435
62	0xbe9f67c2	-0.31133848
63	0x3f143e5b	0.57907647

flows.1.layers.2.network.2.bias f4 [8]
0	0x3e1bbd59	0.15208949
1	0xbea6a231	-0.32545617
2	0xbe70f032	-0.23529127
3	0xbf00face	-0.503827
4	0x3d91f7d1	0.07127345
5	0x3e8bc5af	0.27299258
6	0x3e4f2a33	0.20230941
7	0xbe194174	-0.14966375

flows.1.layers.2.network.4.weight f4 [8, 8]
0	0x3f22302d	0.6335476
1	0x3e030fbf	0.12798975
2	0xbedaf490	-0.4276471
3	0xbf3ff737	-0.74986595
4	0x3e04ba45	0.12961681
5	0x3d752e57	0.059858646
6	0x3e16ca1f	0.1472554
7	0xbd459085	-0.048233528
8	0xbe5bc9f9	-0.21463765
9	0x3eb71c4b	0.35763773
10	0x3f81e43c	1.0147777
11	0x3e69927e	0.22809789
12	0x3ed7672f	0.4207091
13	0xbc85b6db	-0.016322544
14	0xbf64c180	-0.8935776
15	0x3b80a699	0.00392611
16	0x3e537513	0.20650129
17	0xbefe2ea6	-0.49644965
18	0x3dc7e4ef	0.097604625
19	0x3eca1d9a	0.3947571
20	0xbe8e4c38	-0.27792525
21	0xbcd02dc4	-0.025412448
22	0xbf140507	-0.5782017
23	0x3ea90385	0.33010498
24	0x3dc0ca3d	0.09413574
25	0xbed90f08	-0.4239428
26	0x3d76aec8	0.06022528
27	0xbf17e2b6	-0.5933031
28	0x3daeb114	0.08529869
29	0x3eae652e	0.3406157
30	0xbebde8e8	-0.37091756
31	0x3e95b78f	0.29241607
32	0x3e654bf4	0.22392255
33	0xbe0c1501	-0.13679887
34	0x3e8362fb	0.25661454
35	0x3e84b9bf	0.25922963
36	0x3e07bcc8	0.13255608
37	0x3f4a1601	0.78939825
38	0xbe583c0b	-0.21116655
39	0x3eabdafe	0.33565515
40	0xbee442b4	-0.4458214
41	0x3d981d58	0.07427472
42	0x3c056e1c	0.008143928
43	0xbf1ac0c1	-0.6045037
44	0x3dee5b0b	0.11638459
45	0x3d4e6447	0.0503886
46	0x3e1503da	0.1455225
47	0xbf126118	-0.57179403
48	0xbd779a88	-0.060450107
49	0xbf853076	-1.0405414
50	0xbedb9cce	-0.4289307
51	0x3f90e0be	1.1318586
52	0xbcadba1b	-0.021206906
53	0x3ed4da59	0.41572836
54	0xbf2093b4	-0.6272538
55	0xbd5d3dce	-0.05401402
56	0x3f16d01a	0.5891129
57	0x3eab2a57	0.3343074
58	0x3e677747	0.22604094
59	0x3e3bc0d3	0.18335275
60	0x3f2ea6e3	0.682234
61	0xbf49233a	-0.78569376
62	0x3ef755d5	0.48307672
63	0xbece626f	-0.40309474

flows.1.layers.2.network.4.bias f4 [8]
0	0xbe358f70	-0.17730498
1	0xbe7250ef	-0.23663686
2	0xbdbbfe67	-0.09179383
3	0x3db260fa	0.08709903
4	0x3e79f241	0.24408819
5	0xbdb6bc78	-0.08922666
6	0xbe816801	-0.2527466
7	0xbe6a2d0f	-0.22868751

flows.1.layers.2.network.6.weight f4 [2, 8]
0	0xbc8a2b66	-0.016866397
1	0x3e3e5dd3	0.18590479
2	0x3e189217	0.14899479
3	0x3e9ea484	0.3098489
4	0x3e028e31	0.12749554
5	0xba8021e4	-0.0009775725
6	0x3e070016	0.13183627
7	0xbe58914b	-0.21149175
8	0x3e691ac4	0.22764117
9	0x3e633e85	0.22191818
10	0xbea01763	-0.31267843
11	0xbb1eb764	-0.0024218196
12	0xbdb44102	-0.08801462
13	0x3c551078	0.013004415
14	0xbe77b844	-0.24191386
15	0xbc28f633	-0.010312605

flows.1.layers.2.network.6.bias f4 [2]
0	0xbcfed81f	-0.031108914
1	0xbe7c4ed9	-0.24639453

flows.1.layers.3.network.0.weight f4 [8, 4]
0	0xbf97b6b0	-1.1852627
1	0xbcf0bae6	-0.029385995
2	0xbe0fcc78	-0.14042842
3	0x3f9199cb	1.1375059
4	0x3f018601	0.505951
5	0xbea3a4cb	-0.31961665
6	0x3e750c3d	0.2393045
7	0xbd823858	-0.06358403
8	0xbe973fd9	-0.295409
9	0xbf5dbff4	-0.8662102
10	0xbec3ffec	-0.3828119
11	0x3ef20143	0.47266588
12	0xbd2dd608	-0.042440444
13	0xbe9a3248	-0.30116487
14	0xbeb85fd5	-0.36010614
15	0xbf0021ff	-0.50051874
16	0x3e7a141b	0.24421732
17	0xbf70e59c	-0.94100356
18	0xbe09e396	-0.13465723
19	0x3f5599b6	0.8343767
20	0xbc98c3d8	-0.018648073
21	0xbf7d0954	-0.9884236
22	0xbe6a943f	-0.22908114
23	0xbf3b7d38	-0.73237944
24	0xbef54687	-0.4790537
25	0x3ebab2df	0.36464593
26	0xbcc1bb95	-0.023649016
27	0x3f4c7a4c	0.7987411
28	0x3cbd7573	0.023127293
29	0x3bfd21ed	0.0077249915
30	0x3e91933b	0.2843264
31	0x3ebe80b2	0.37207562

flows.1.layers.3.network.0.bias f4 [8]
0	0x3f5519d0	0.8324251
1	0x3c4934b0	0.012280628
2	0x3eb6c450	0.3569665
3	0xbe51c404	-0.2048493
4	0x3fb543ce	1.4161317
5	0xbe00ca2e	-0.12577125
6	0xbf05ba22	-0.5223714
7	0xbefa7844	-0.4891988

flows.1.layers.3.network.2.weight f4 [8, 8]
0	0xbe8e9e85	-0.27855316
1	0x3f03d38c	0.5149467
2	0x3de18b70	0.11012924
3	0x3e825b33	0.25460204
4	0x3e4dbb72	0.20091036
5	0xbda4c4f2	-0.08045377
6	0x3ed3cba6	0.4136631
7	0xbe958aa0	-0.29207325
8	0x3e33cc6a	0.17558447
9	0x3f342fcd	0.7038544
10	0x3e7a87bd	0.24465843
11	0xbc87fc8c	-0.016599916
12	0xbe5fdda6	-0.21861896
13	0xbb652255	-0.003496309
14	0xbed446a6	-0.4146015
15	0xbe271586	-0.16316804
16	0xbef7626d	-0.4831728
17	0xbe465628	-0.19368804
18	0x3eb729f9	0.3577421
19	0xbd038b86	-0.03211548
20	0xbe0caaf1	-0.13737084
21	0x3d55e9e7	0.05222502
22	0x3ecdc1bf	0.4018688
23	0x3e91d91e	0.2848596
24	0x3e9f811d	0.31153193
25	0x3e4c3e0f	0.19945548
26	0x3e0e3650	0.13887906
27	0x3eda7e46	0.42674464
28	0x3e9d0d57	0.3067424
29	0x3e2ecd12	0.17070416
30	0x3beb7772	0.00718587
31	0xbf210887	-0.62903637
32	0xbec02b9f	-0.3753328
33	0x3de58aa3	0.112080835
34	0x3f1d0ba7	0.61345905
35	0xbe4f9cbb	-0.20274632
36	0xbd884914	-0.066545635
37	0x3e9b543d	0.30337706
38	0x3eb2824a	0.34865028
39	0x3f33d554	0.7024739
40	0xbf02651b	-0.50935525
41	0xbf989771	-1.1921216
42	0xbf12b9cc	-0.57314754
43	0xbf0f026d	-0.55863076
44	0xbe316a05	-0.173256
45	0xbf4c08c5	-0.7970088
46	0x3f5a064e	0.8516587
47	0xbf3a0670	-0.7266607
48	0x3de080f9	0.109620996
49	0x3e9ad0ad	0.30237332
50	0x3e1f04dd	0.15529199
51	0x3f2d468d	0.67685777
52	0xbf3f90f5	-0.7483056
53	0xbe50f796	-0.20406947
54	0x3d1658ea	0.03670589
55	0xbddce64e	-0.10786115
56	0xbdba60b5	-0.09100477
57	0xbe372c4a	-0.17887989
58	0xbdb9ce75	-0.09072582
59	0x3ee6d4fa	0.45084363
60	0x3e0fe286	0.14051256
61	0xbe9b6d0a	-0.30356628
62	0xbe0ab97d	-0.1354732
63	0xbf37107d	-0.71509534

flows.1.layers.3.network.2.bias f4 [8]
0	0x3ca09854	0.019603886
1	0xbd0658b5	-0.03279944
2	0x3eb1bddc	0.34715164
3	0x3eaa41e1	0.33253387
4	0x3e2ef986	0.17087373
5	0x3e37e39f	0.17957924
6	0xbe667b5d	-0.22507997
7	0x3e4c38f8	0.19943607

flows.1.layers.3.network.4.weight f4 [8, 8]
0	0xbea49225	-0.3214275
1	0x3deedcf1	0.11663235
2	0x3e8e7972	0.2782703
3	0x3d71521b	0.058916193
4	0xbe238a5f	-0.15970753
5	0xbd16b5d7	-0.03679451
6	0xbce2cabb	-0.02768456
7	0xbda7e20c	-0.08197412
8	0x3e7713fc	0.24128717
9	0x3e6a829b	0.22901385
10	0x3db5220b	0.08844384
11	0xbe907e41	-0.28221324
12	0x3e4907e9	0.19631924
13	0x3dbac7ac	0.09120116
14	0xbe9316bf	-0.2872829
15	0xbdda0924	-0.10646275
16	0xbe37131b	-0.17878382
17	0xbec05568	-0.3756516
18	0x3ec9deb0	0.3942771
19	0xbec6677f	-0.38750836
20	0x3f24b980	0.6434555
21	0xbe8e6c7b	-0.2781714
22	0xbed60912	-0.41803795
23	0xbead7b1a	-0.33882982
24	0xbcc8baf9	-0.024503218
25	0xbee8fc82	-0.45505148
26	0x3e596aea	0.2123219
27	0xbeeee3e0	-0.4665823
28	0xbf309c85	-0.6898883
29	0x3e5b3a5b	0.2140898
30	0x3e6a9d86	0.22911653
31	0x3e9fdbd9	0.31222418
32	0xbddb1fa3	-0.106993936
33	0xbd30e7d0	-0.043189824
34	0xbe5c9118	-0.21539724
35	0xbe463a26	-0.1935812
36	0xbd386627	-0.045019295
37	0x3e09d724	0.13460976
38	0xbb212d83	-0.0024593777
39	0x3e09fc38	0.1347512
40	0xbcbe982f	-0.023265926
41	0x3c8c3285	0.017113933
42	0xbdc7cbf2	-0.09755696
43	0xbd88f52f	-0.0668739
44	0x3e10eb36	0.14152226
45	0x3cb2d988	0.021832243
46	0xbd184daa	-0.03718344
47	0x3e2de5ed	0.16982241
48	0xbe36147a	-0.17781249
49	0x3d873583	0.066020034
50	0x3eb0661f	0.34452912
51	0xbe706d4c	-0.23479193
52	0x3e0f76ff	0.14010237
53	0xbf06bbc9	-0.5263029
54	0x3f7ac7c4	0.9796107
55	0x3e30c0a6	0.1726099
56	0x3c92bbc8	0.017911807
57	0xbe691311	-0.2276118
58	0x3e4fc5a2	0.20290235
59	0x3ec1a325	0.37819782
60	0x3df5d0d7	0.12002724
61	0xbed29529	-0.41129425
62	0x3e42f21b	0.19037668
63	0x3e45d959	0.19321193

flows.1.layers.3.network.4.bias f4 [8]
0	0xbcf264cd	-0.029589081
1	0x3da358fd	0.079759575
2	0xbcc0a3f2	-0.023515675
3	0x3d2bd6e1	0.04195297
4	0x3a3bc602	0.00071629894
5	0xbcc334bb	-0.023828855
6	0xbf031dfb	-0.5121762
7	0xbe886079	-0.26636103

flows.1.layers.3.network.6.weight f4 [2, 8]
0	0xbc8589df	-0.016301094
1	0x3e2393f8	0.15974414
2	0x3ee0e85a	0.4392727
3	0xbe314855	-0.17312749
4	0xbb82a147	-0.003986511
5	0x3ba25e70	0.0049551055
6	0xbec2a8a2	-0.38019282
7	0xbeb91b27	-0.36153528
8	0xbc088565	-0.008332585
9	0x3da9b3ba	0.08286233
10	0xbbc088f1	-0.0058756997
11	0xbeaedc86	-0.3415262
12	0xbd319457	-0.04335436
13	0x39b49a13	0.0003444707
14	0x3e2f0699	0.1709236
15	0x3e7662a8	0.24061072

flows.1.layers.3.network.6.bias f4 [2]
0	0x3e8e9b6a	0.27852947
1	0xbe90f151	-0.2830911

flows.1.layers.4.network.0.weight f4 [8, 5]
0	0x3efc7b82	0.4931298
1	0x3ea76152	0.32691437
2	0x3f96c254	1.1778054
3	0x3d1ccde3	0.038282286
4	0xbf24f48d	-0.64435655
5	0xbf48ff98	-0.78515005
6	0x3f37d778	0.71813154
7	0xbd4fa9d6	-0.050699078
8	0xbe9b52b9	-0.3033655
9	0x3ef3ca7f	0.4761543
10	0xbdbbacad	-0.09163795
11	0x3ed57791	0.41692784
12	0xbf1dbd4e	-0.6161698
13	0x3fbebab1	1.4900724
14	0x3f79913b	0.9748723
15	0xbf65c380	-0.89751434
16	0x3ee709d9	0.451247
17	0xbf02f4af	-0.5115461
18	0xbddd314a	-0.10800417
19	0xbfb45229	-1.4087573
20	0xbe403329	-0.18769516
21	0xbfa87400	-1.31604
22	0x3f01ca50	0.5069933
23	0xba71ea81	-0.0009228364
24	0xbec20b2a	-0.37899143
25	0xbf9cc8ec	-1.2248816
26	0x4004badf	2.0739057
27	0x3f99b37a	1.2007897
28	0xbe41b304	-0.18915945
29	0x3f5e7ead	0.8691204
30	0xbea40847	-0.32037565
31	0xbfed5dee	-1.854429
32	0x3f072006	0.5278324
33	0x3ec0c539	0.3765047
34	0x3ec9ddbb	0.3942698
35	0xbe2d18b2	-0.16903952
36	0x3c4ee261	0.012627215
37	0xbfaae1a9	-1.3350116
38	0x3f0cbcdb	0.5497567
39	0xbf0500d4	-0.5195439
