data/models/MAF_lane_change_with_two_npcs_best.pth (torch, 76564 bytes, 165 tensors)

flows.0.initial_param f4 [2]
00000000: 4b3b 0b3c 5a03 493d
0.008498023 0.049075462

flows.0.layers.0.network.0.weight f4 [8, 1]
00000000: 6e07 fc3d b5c6 0e3e beb8 32bf 9e62 7dbe
00000010: bbe1 5bbf 9636 6a3f 7bbc 6fbd 698f b93f
0.123061046 0.13942988 -0.69813144 -0.2474465 -0.8589131 0.9148954 -0.05852936 1.449689

flows.0.layers.0.network.0.bias f4 [8]
00000000: ae5d 9f3b 674d cc3c 6ef3 04bf 4796 08be
00000010: 45c4 7fbf ee3a d0be c103 0abe 9e73 53be
0.0048634624 0.024939252 -0.51933944 -0.13338576 -0.9990886 -0.4066996 -0.13477995 -0.20649573

flows.0.layers.0.network.2.weight f4 [8, 8]
00000000: 541e 1a3e f61c 9a3e 75f6 c9be aa48 a0be
00000010: e392 8c3d 74d3 cb3e 7bac ccbd 9765 383f
00000020: c284 0dbe a3de 80be 20c7 233f e6cd 5ebe
00000030: 6440 713d 5f3a 7bbc 4cdf 743d c492 c33e
00000040: 851d 66be 3b4b 973d 7894 12bf 1203 d1be
00000050: 01d3 06bf 1567 623e a76d d8bd fa67 d3bd
00000060: 0c5c 7e3e 70d9 bdbd 4f24 95bb 4000 7abe
00000070: 76d1 efbe 1154 75be 8f2c b23d 6d2e c0bd
00000080: 52b2 633c f407 b2bc 36f8 b33e 2e37 b43e
00000090: e78e 793e 770d dbbc 816d 8f3e 1843 d6be
000000a0: 6e38 11be e77d c2be 58b7 2ebe 377f 2dbe
000000b0: 99f7 8d3e 8d5d c03d ef70 27be 7e7b 553e
000000c0: b397 353e ac75 81bc a64c 5ebd 4ab7 983c
000000d0: 71f0 753e f6d6 743e 94a9 9dbe d8e8 07be
000000e0: 9229 7ebe 833d 343f 6c2b babb d97b 2dbe
000000f0: 03ec aa3d 0141 37be ba54 13be 21e6 553c
0.15050632 0.3010022 -0.39445844 -0.31305438 0.06863954 0.39809763 -0.099938355 0.72030014
-0.13820174 -0.25169858 0.63975716 -0.21758232 0.0588993 -0.015333741 0.059783265 0.3819791
-0.22472198 0.07387396 -0.57257795 -0.40822655 -0.52665716 0.22109635 -0.105677895 -0.10322566
0.248398 -0.092699885 -0.0045514475 -0.24414158 -0.46839494 -0.2395785 0.08699905 -0.09383855
0.013897495 -0.021732308 0.35150307 0.3519835 0.24370919 -0.026739819 0.28013232 -0.41848063
-0.14181682 -0.3798668 -0.17062128 -0.1694306 0.27727965 0.093928434 -0.16351674 0.2084789
0.1773365 -0.01580318 -0.054272316 0.018642087 0.24017502 0.23910126 -0.3079344 -0.13272417
-0.24820545 0.7040636 -0.005681446 -0.16941775 0.08345797 -0.17895891 -0.1438779 0.013055355

flows.0.layers.0.network.2.bias f4 [8]
00000000: 555a 84be 6c2c 8f3e 76ea 9d3e 81d8 c6be
00000010: 8065 613d 51ed 133d 33b5 013e cc97 60bd
-0.25850168 0.2796358 0.30842942 -0.38837054 0.05502844 0.036114994 0.12666778 -0.054832265

flows.0.layers.0.network.4.weight f4 [8, 8]
00000000: cd8a 6d3e 97dd 4b3d d6db fd3d 2b16 95be
00000010: ed8b cabc db67 593e 4123 c9be c7a7 67be
00000020: 6341 953e ec77 63be 61ef 75be 39eb 953c
00000030: 0298 833e 488f 373e f4e0 ccbe 404a 51bd
00000040: c00c 2abd d6a4 84be f77c 83be 7ff2 f83d
00000050: 3f29 f6bd d9da 8d3e e84b 2fbe 180a 883e
00000060: 1390 80be d5de e03e cc97 d23d b8bb 2abf
00000070: 9149 1e3d 0f40 28be f226 a1bd a98a afbd
00000080: 794f a53e 4e8a c53d 4fc4 42be 5480 663d
00000090: cac9 bebe f956 15bd e28d 923d 6744 823d
000000a0: 4793 dabd aa5c a9bc 89cd af3d c4d9 b5be
000000b0: 48d8 9cbe 8cdb 053d 6d65 8a3e 0962 ff3c
000000c0: bbbd 7d3d 030b afbc 4264 f83c 2309 6e3e
000000d0: fc15 3c3e 994a a43d 5f5b b63d 80db cabe
000000e0: a137 c2be 1c26 6abe a2fc ca3e e7c8 953e
000000f0: 5937 4dbe b305 d6bd 0330 63bd 674b 4b3c
0.2319748 0.04977187 0.12395446 -0.29118475 -0.024724925 0.21231024 -0.3928471 -0.22622596
0.2915145 -0.22213715 -0.24017097 0.01830064 0.2570191 0.17925751 -0.40015376 -0.0510962
-0.041516066 -0.2590701 -0.25681278 0.121556275 -0.12019586 0.2770603 -0.171188 0.265702
-0.2510992 0.43920007 0.10282859 -0.66692686 0.038644377 -0.16430686 -0.07868756 -0.08571369
0.32287195 0.0964552 -0.19020198 0.056274727 -0.37263328 -0.036459897 0.07155968 0.06360703
-0.10672622 -0.020674068 0.085841246 -0.35517704 -0.3063376 0.03268008 0.27030507 0.031174676
0.06194852 -0.021367555 0.030321244 0.23245673 0.18367761 0.08022041 0.089041464 -0.3962059
-0.37933066 -0.228661 0.3964587 0.2925484 -0.20040645 -0.10450306 -0.05546571 0.012408114

flows.0.layers.0.network.4.bias f4 [8]
00000000: cb8a c73c 972d 703e 88ea 0e3e 85fa 74be
00000010: 7530 2f3e d7c6 f9bd 76ff 153d aae2 5abe
0.024358174 0.23454891 0.13956654 -0.2392369 0.17108329 -0.12196129 0.03662058 -0.21375528

flows.0.layers.0.network.6.weight f4 [2, 8]
00000000: e21c be3d ecbf a2bd 1e6f e7ba 45c0 b2bd
00000010: adad 063d 3729 393d 8da9 62bc d2c6 963e
00000020: ab9b 483e 5fd9 bbbd 9637 9abb 3190 08be
00000030: 54bb 673e 90e5 a53d 4aef fabc 34ac d53d
0.09282853 -0.079467624 -0.0017657017 -0.08728079 0.032880474 0.04520532 -0.013834369 0.29448563
0.19590633 -0.091723196 -0.0047063334 -0.13336255 0.22630054 0.08100426 -0.03063168 0.10433236

flows.0.layers.0.network.6.bias f4 [2]
00000000: 2d1a 373d bbdb 76be
0.044702698 -0.24107258

flows.0.layers.1.network.0.weight f4 [8, 2]
00000000: 2fb0 243f b0ce afbf 282c d23e 1cd2 a03e
00000010: 4a05 d33e 0409 d53e ba95 1c40 a12d 283f
00000020: e1d3 08c0 7321 403f 8cd1 a6bf c5aa 053e
00000030: c4e6 cb3f a85b 0a40 b023 0bbf e52c bebe
0.64331335 -1.3734951 0.41049314 0.314103 0.41214973 0.4160844 2.4466386 0.65694624
-2.137932 0.7505104 -1.3032699 0.13053425 1.5929799 2.1618443 -0.5435133 -0.37143627

flows.0.layers.1.network.0.bias f4 [8]
00000000: 5077 7fbf 287d 45bf 8baf 6bbf 8454 823e
00000010: ea73 bebf bb2c 573f 0b53 a03e f8b5 443f
-0.9979143 -0.771441 -0.9206473 0.25455105 -1.4879124 0.8405263 0.31313357 0.7684016

flows.0.layers.1.network.2.weight f4 [8, 8]
00000000: 4fe8 2bbf b397 1dbf 8083 3bbf 6eb8 1b3f
00000010: 7697 833e f0b8 163f bd2f 4c3f 84c4 ef3e
00000020: e946 c53d f6bc 503e e65e 0b3f 7f0e b33e
00000030: 1e84 7bbe 182c 233f f934 a9be a04a 25bf
00000040: af44 893e e6bf 6abe b952 9b3d 0bdd 1d3f
00000050: f4d5 033f 1b83 ebbb 35ed 04bf 96a9 183e
00000060: f0e0 07c0 8655 70bf 7805 52bf d2ad c0bb
00000070: 446f eebd 3c7e 813f 7baa 21bf 30e0 b23f
00000080: e61a 713e 8e19 71be 5a88 833d cad0 e0be
00000090: 7b2f 01be a35a 1e3d e986 c33e 991a 943e
000000a0: c4b3 f7be 8f28 09bd d139 883d 9880 14bf
000000b0: 5f2f 803e 1088 26bf 4c9b f4bd 6da6 623d
000000c0: e74e a9be 5177 363c 79f6 763e 37e1 45be
000000d0: 459a 6d3f cc66 713e ddef e2bf e541 6e3e
000000e0: 1ae4 ac3e 185d c3bf ce0f f9bf ff79 963e
000000f0: bc1b 5ebe 0ea9 c2be 7354 9f3e 1de8 a23f
-0.6715135 -0.615596 -0.7324753 0.6082829 0.25701493 0.5887594 0.7976034 0.46829617
0.09632666 0.20384583 0.5444168 0.34971997 -0.24562117 0.63739157 -0.33048227 -0.64566994
0.26810214 -0.22924766 0.075841375 0.6166541 0.5149834 -0.00718726 -0.5192445 0.14908442
-2.123104 -0.938805 -0.82039595 -0.005880096 -0.11642316 1.0116649 -0.6315076 1.3974667
0.23545417 -0.23544905 0.06422491 -0.43909293 -0.12615769 0.038660657 0.38188866 0.28926542
-0.48379338 -0.033485945 0.066516526 -0.5800872 0.2503614 -0.65051365 -0.11943683 0.055334497
-0.3306801 0.011136846 0.2411746 -0.19324194 0.9281352 0.2357437 -1.772945 0.23267324
0.33767778 -1.5262785 -1.9457948 0.2938995 -0.21690267 -0.38019603 0.31119117 1.2727085

flows.0.layers.1.network.2.bias f4 [8]
00000000: 0df8 b83d 1449 123d 6cf2 4e3d e085 bb3e
00000010: f463 ebbd 2c62 76be 6579 f1be 206e f83e
0.09031687 0.035714224 0.05052416 0.36625576 -0.11493674 -0.24060887 -0.4716293 0.4852152

flows.0.layers.1.network.4.weight f4 [8, 8]
00000000: 5b3e 28be 3ad6 febe 38dc c03e d0f9 cebd
00000010: 252e 973d c127 0f3f 38e5 8bbe d51d 40be
00000020: 5852 9bbe fbf5 b43e 0d52 a23e b7d8 3b3f
00000030: c13f 07be 0bd5 903e ef6c 77be 6b88 373e
00000040: 204c 63bf 70ff 053f 0e2d 943e 4d78 26bf
00000050: 994a 1cbe e7ec 8f3a 98b3 053f a1c4 a9bf
00000060: 9cfa 1abe 3080 d7be d478 0abf f496 113e
00000070: 1bd8 093d 7ec6 283d ab08 41be 0aae abbd
00000080: f625 303e d7f5 c33e 5cd8 0abe 603a c43b
00000090: 2c85 87be d7be 17bf b391 3f3e 26b2 04be
000000a0: 4461 fa3d 38b0 973e 84cf 61be 7277 a03e
000000b0: d7e4 3abd fc3a 903e d835 213e 43ff 803e
000000c0: 57b2 43bb 885b 18be 0824 1f3f 707a 303f
000000d0: b47e f13c 33f3 b7bc 95c5 173f a407 833d
000000e0: 5eb5 a4be fe50 06bf 8afa eb3d f759 033f
000000f0: 2c85 013e 9207 cc3e 1e56 0d3f b3a0 df3e
-0.16430037 -0.49772817 0.37668014 -0.10106242 0.07381848 0.55920035 -0.27323318 -0.1876138
-0.3033626 0.35343918 0.31703225 0.73377556 -0.13207914 0.2828754 -0.24162649 0.17923133
-0.8878803 0.5234289 0.28940624 -0.65027314 -0.15262832 0.0010980637 0.52227163 -1.3263131
-0.15134662 -0.42089987 -0.5409062 0.1421774 0.03365336 0.041204922 -0.18850963 -0.08382805
0.17201981 0.38273498 -0.13559097 0.005988404 -0.2646879 -0.59275573 0.18707924 -0.12958583
0.12225583 0.29626632 -0.22051817 0.3134113 -0.045628395 0.28170002 0.15743196 0.2519475
-0.0029860938 -0.14878666 0.62164354 0.68936825 0.029479362 -0.022454834 0.5928586 0.06397942
-0.32169622 -0.52467334 0.11522396 0.5130915 0.12648457 0.39849526 0.5520953 0.4367729

flows.0.layers.1.network.4.bias f4 [8]
00000000: 8d0a 973e 999e 803e 2832 c2be 3e66 9dbd
00000010: 4582 883e 76d8 803e 8e5b 91be 63b6 6d3e
0.29500237 0.25121 -0.3792889 -0.07685517 0.26661888 0.25165147 -0.28390163 0.23214106

flows.0.layers.1.network.6.weight f4 [2, 8]
00000000: 4897 ce3c c445 5e3e 2938 c8be 6feb 81bd
00000010: 3294 c4bd ad86 8b3e d70b 04be 6a52 5a3e
00000020: 63d2 c13d 8bcc 0a3e fd59 e3bd 9ef8 8ebd
00000030: 99d2 0cbe 79d3 2e3d 2f06 05be df9b 87be
0.02521862 0.21706301 -0.39105347 -0.063437335 -0.095985785 0.27251187 -0.12895142 0.21320501
0.09463956 0.1355459 -0.11101148 -0.06981014 -0.13752212 0.042682145 -0.1299064 -0.26486108

flows.0.layers.1.network.6.bias f4 [2]
00000000: c7a8 89be 169d 353e
-0.2688658 0.17735705

flows.0.layers.2.network.0.weight f4 [8, 3]
00000000: bf66 febe fd22 953f 4a16 433f 5658 a6bf
00000010: 37c0 8ebe a41d e2be f75a 873d 6181 fe3e
00000020: fff6 44bf 0fe5 bbbe ac9c da3d 44e0 1f3d
00000030: d2d9 603f fe59 4e3e 2c6f c93e ea62 c1be
00000040: 6fa5 5b3f 6d4b 1dbf 4980 b93d 38cc 653e
00000050: ed27 0f3f 1083 23bd dfce 013f 95de f93e
-0.49687764 1.1651303 0.76205885 -1.2995708 -0.27881023 -0.4416324 0.06609147 0.49708083
-0.76939386 -0.36698195 0.10674414 0.039032236 0.8783237 0.20151517 0.3934263 -0.37770778
0.85799307 -0.61443216 0.090576716 0.22441185 0.55920297 -0.039919913 0.50706285 0.4880263

flows.0.layers.2.network.0.bias f4 [8]
00000000: a334 1fbf afb4 4bbd cd7a 0f3e ee8b 0fbe
00000010: 5538 d8be 5f66 2b3e 25eb 32bf 59bb 823e
-0.6218969 -0.04973286 0.14011689 -0.14018223 -0.42230478 0.1673827 -0.6989005 0.2553356

flows.0.layers.2.network.2.weight f4 [8, 8]
00000000: 4c23 913d e3b9 0dbe b93b 69bd 1592 293d
00000010: 8f3e 433f be7c df3c e07b 643e dbf9 c83e
00000020: 1f62 723e 2245 ffbe bf7a 5e3e 038e f83e
00000030: 69bf 70be 0305 d8bb 4c84 06bf 7b15 8abe
00000040: 1a4f df3e bc19 8d3e 7f6b 5b3e 5e17 34be
00000050: ce37 cdbe f315 293f e623 253e 2be8 1e3f
00000060: 3905 d83d 9dbc 81bf ea28 23bf ab47 31bd
00000070: 77b4 343f b7a8 1dbf bd35 81be f716 24be
00000080: 2b7e 0cbf c2b1 80be c27a bc3e d007 75bf
00000090: e987 1f3f 5ebb fc3d 47c6 68bf f161 4cbd
000000a0: 861e a83d 21b6 0fbf 9331 6c3e f687 10bf
000000b0: e2a3 02be e8c2 153e ebdf 8a3e 3a72 f43e
000000c0: 1584 a5be 7daf e03e 691d 6ebe 0cbc e1bc
000000d0: 493b 853e b482 27be 77a6 253f f586 d43e
000000e0: 14c8 003f 87ae c5bd 1b49 9fbe 259f 6c3f
000000f0: 4a94 103e 1b2e ef3e 67d8 86be 8c46 1cbf
0.070868105 -0.13840441 -0.05694172 0.04139908 0.7626733 0.027281161 0.2231288 0.39253125
0.23670243 -0.49857432 0.21726511 0.48545846 -0.23510517 -0.0065923943 -0.5254562 -0.26969513
0.43615037 0.27558696 0.21427725 -0.17587039 -0.40081638 0.66049117 0.16126975 0.6207301
0.10547871 -1.0135685 -0.63734305 -0.04328124 0.7058787 -0.61585563 -0.25236312 -0.16024385
-0.5488002 -0.25135618 0.36812407 -0.95715046 0.6231676 0.12340425 -0.9092755 -0.04989809
0.08208947 -0.5613728 0.23065786 -0.5645746 -0.12757829 0.14625132 0.2712396 0.47743398
-0.32327333 0.43883887 -0.23253407 -0.027555488 0.26021793 -0.16358453 0.6470713 0.41509214
0.50305295 -0.09652429 -0.31110463 0.92430335 0.14119068 0.46714863 -0.26336977 -0.61045146

flows.0.layers.2.network.2.bias f4 [8]
00000000: 3bb9 debe 7bd9 33be f4cf 5d3e 66b2 3d3e
00000010: 551c fa3d 28b7 853d ab8b 353e 6430 6ebe
-0.43500695 -0.17563431 0.21661359 0.18525085 0.12212435 0.06529075 0.1772906 -0.23260647

flows.0.layers.2.network.4.weight f4 [8, 8]
00000000: c9e9 5ebe 0e45 f4be 98c4 de3e 678c 043e
00000010: ae75 2e3e 1ddd 873d 13c2 dd3e a2c1 18bf
00000020: 248e d2be 1992 e03e 6003 97be de52 1dbe
00000030: a794 a7be 91ae 7fbe dc9f a7be 8bb5 f13e
00000040: 5d54 173e a180 8e3e dba6 223f b9e1 c33e
00000050: ccb3 81bc e76a 883e a82d 023c 6df4 b6be
00000060: a5a9 a23e 89f4 10bf 587d f83d 819c 263e
00000070: 3b83 35bf 2a80 87be 0799 3f3f 1d08 f13e
00000080: e9f2 c7be 8862 d53e 7bef 2e3e 1a8f a03e
00000090: 55ca 7e3e 3e89 42be dba3 013d 583f b23e
000000a0: 3258 c9bd b0be 143e 9bb7 903e b131 203f
000000b0: 0a0b 94be c3b4 38be ec65 01be adbb 803e
000000c0: 26f1 f8bd cba6 9fbd 23ec 093e 9a9a 48be
000000d0: 9434 3b3e 7f90 c33d 5094 c93e 8156 b9be
000000e0: 62be e4bd cadb 91be bea4 383f 7997 23bc
000000f0: 1ee0 1ebe b337 d8be c570 f53d 0f9e ea3e
-0.2176887 -0.47708935 0.43509364 0.12944184 0.17037079 0.06633971 0.4331213 -0.5967046
-0.4112407 0.43861464 -0.29494762 -0.15363643 -0.327306 -0.24968936 -0.3273915 0.4720882
0.14778276 0.2783251 0.6353585 0.3825815 -0.015832804 0.2664406 0.007945456 -0.35733357
0.31770054 -0.5662313 0.121332824 0.16270639 -0.70903367 -0.2646497 0.74842876 0.47076502
-0.39052513 0.41676736 0.17083542 0.31359178 0.24881871 -0.18997666 0.031650405 0.34813952
-0.09831275 0.14525867 0.2826508 0.62575823 -0.28914672 -0.18037705 -0.12636536 0.25143185
-0.121553704 -0.07795485 0.13468985 -0.19590226 0.18281776 0.09549045 0.39370966 -0.3619881
-0.11169125 -0.28487998 0.72126377 -0.009984844 -0.15515181 -0.42229995 0.119844 0.45823714

flows.0.layers.2.network.4.bias f4 [8]
00000000: 0670 35be 4034 c9be bfef 03be b932 4e3c
00000010: 5616 c1bd 1ef8 d13c 38b7 83be bd8c dd3e
-0.17718515 -0.39297676 -0.12884425 0.012585335 -0.09428088 0.025631007 -0.25725722 0.43271437

flows.0.layers.2.network.6.weight f4 [2, 8]
00000000: fb0b f0bd 8059 2a3c adea 663d 79a9 15bd
00000010: 2c18 3fbb 010d 7a3e 39a3 c3bd 3285 6d3e
00000020: e07c 21be 85cc 063f 24ad 88be 0084 f9be
00000030: 75a0 b23e fd18 3cbe 7d28 b93d a9be 7abe
-0.11721035 0.010397315 0.056376148 -0.036538575 -0.0029158695 0.24419023 -0.095526166 0.23195341
-0.15770292 0.5265582 -0.26694596 -0.4873352 0.34888044 -0.18368907 0.09040926 -0.24486794

flows.0.layers.2.network.6.bias f4 [2]
00000000: c587 023d 2771 91be
0.03186776 -0.2840664

flows.0.layers.3.network.0.weight f4 [8, 4]
00000000: 9a07 ad3f bbde 633d 01cc 30bf 7cbd 093f
00000010: 5351 8abe c86b 453e a77b 91bf 04f4 5f3f
00000020: 49cf 503e 4e94 2e3e 1590 9a3f cf7b 8cbd
00000030: 0eaa b3be cb77 023f 0095 74bf a10c d4bf
00000040: 0fc7 d2bd 63b2 9bbe 62b7 e8bd 1934 48bf
00000050: edd0 0340 e582 9a3e bf8a 30c0 2b23 f3bf
00000060: f494 cebf a29e 2f3f 3da1 16bf 5e30 9c3e
00000070: 9301 433f 2fde 4f3f 1eec 433f da75 bd3e
1.3517945 0.055632334 -0.69061285 0.53804755 -0.2701517 0.19279397 -1.1365861 0.87481713
0.20391573 0.17048761 1.207522 -0.06859552 -0.3509068 0.5096404 -0.95539856 -1.6566354
-0.10291874 -0.30409536 -0.113631025 -0.78204495 2.0596268 0.3017799 -2.7584684 -1.8995107
-1.6139207 0.6860143 -0.5883978 0.3050565 0.7617428 0.811984 0.7653216 0.37003976

flows.0.layers.3.network.0.bias f4 [8]
00000000: 27c3 efbe 5657 76bf e425 94bf 07a2 1d3f
00000010: 5f02 2c3f a1d5 b73f ae58 13bf bb17 3c3f
-0.46828577 -0.96227014 -1.1574063 0.6157536 0.6719112 1.4362069 -0.5755719 0.7347371

flows.0.layers.3.network.2.weight f4 [8, 8]
00000000: 53a6 a43e 3862 383e 9a7b 41bf bc98 42bd
00000010: 98d2 25bf 53f1 363f 9420 1ebf 0e2a 03bf
00000020: 9d0d 743f ca79 673e 3c4e 2bbf 42aa a4be
00000030: a74a 09bf d7c3 91bf 9120 053c 7b81 f1bd
00000040: 496a 4f3f 1dc8 e63d edf5 653e 6e75 8d3e
00000050: c569 253f 9774 c23e 2084 e13e 03b0 ad3e
00000060: cc00 cbbe 043a 05c0 6456 623e fbf6 d03c
00000070: 1b53 403f 8e30 0dbf d773 85bf fee9 d13e
00000080: 428b 4b3c 672b eb3d 5813 163e 25e1 1b3f
00000090: 1c1a e53e 23c0 073e 6d83 fdbd 283d 01bf
000000a0: dda2 b5bc c52c 23bd a38c 82be ba50 46bf
000000b0: b350 963d d9b9 4c3e 30e8 28bf 307e 993f
000000c0: dbd0 a5bf 0824 9b3f 28ee 53bf 7e44 93bd
000000d0: ab44 37be 61e1 07bf c2fc aa3e 061d a7bf
000000e0: c766 a43e ec7d afbf 6af8 36bf 80aa f63f
000000f0: 0771 673f 1994 0b40 9e59 933f 5882 37bd
0.32158145 0.18006217 -0.75579226 -0.04750894 -0.64774466 0.7146198 -0.6176846 -0.51236045
0.9533327 0.22605053 -0.6691625 -0.32161146 -0.53629535 -1.138789 0.00812544 -0.117922746
0.81021553 0.11268637 0.22457094 0.27628654 0.64614516 0.37979576 0.44046116 0.3392335
-0.39649045 -2.081666 0.22103268 0.025508394 0.7512681 -0.55152214 -1.0425977 0.40998834
0.012423338 0.11482888 0.14655817 0.6089042 0.44746482 0.13256888 -0.12378583 -0.5048394
-0.022172386 -0.039837617 -0.25497922 -0.7746693 0.07339611 0.1999277 -0.6597929 1.1991634
-1.2954363 1.2120371 -0.8278527 -0.07190798 -0.17897289 -0.53078276 0.33395964 -1.3055732
0.32109663 -1.3710303 -0.714728 1.9270782 0.9040684 2.1809142 1.1511724 -0.04480204

flows.0.layers.3.network.2.bias f4 [8]
00000000: 3bb3 853e ac08 6f3d 89aa b63e d26d f03e
00000010: 5dd7 debe 8370 2e3f 03ee e63e bed9 013f
0.26113304 0.05835788 0.35676983 0.46958786 -0.43523684 0.6814043 0.45103464 0.50722873

flows.0.layers.3.network.4.weight f4 [8, 8]
00000000: 3b31 64bf 0dba a0be e049 ec3e 76c5 133e
00000010: f243 413e 07d6 053e 5ac6 2ebe 9cc6 39be
00000020: 521d 163f 8b25 0cbf 7bdc b23e 55c3 0fbf
00000030: ff31 543f e123 68bf b5d2 24be b629 4d3d
00000040: 75ff 3dbd 5a7a 87bf 4728 6cbe b4a8 7c3f
00000050: 6b1e 44be 1545 6a3e aa1c 063f 94e6 003f
00000060: 4ce9 a7be c584 02bf 2db7 5e3f d481 72be
00000070: 12bf 47bd 1b25 debb fbc9 19be ef40 a13e
00000080: 9aa0 67bf 557d 993e 89f9 eabd 90f6 edbe
00000090: a587 8dbe 8f60 b73e b57e 913e ad73 273e
000000a0: 394d dbbe 0835 b1be cd1d 1abf e74f 48bf
000000b0: ad89 3e3f 519f ecbe 3ce9 463f c05e 553f
000000c0: 254b 2b3d 1a58 6f3f 292c 5c3e dfa8 4cbf
000000d0: 90f6 6c3e 947a 25bf 7740 09bf 2002 70be
000000e0: ad02 623f fd86 e43d b611 acbe 8125 103d
000000f0: 47ec f0bd 2b3f ec3e a14a 2f3e be30 593d
-0.8913762 -0.31391945 0.46150112 0.14430794 0.18873575 0.13069926 -0.17067853 -0.1814217
0.5863849 -0.54744786 0.34933838 -0.5615743 0.8288879 -0.90679747 -0.16096003 0.050088607
-0.0463862 -1.0584214 -0.2306224 0.9869492 -0.19152229 0.22877915 0.5238749 0.50351834
-0.3279518 -0.5098384 0.86998254 -0.23682338 -0.048766203 -0.0067793257 -0.15018456 0.31494853
-0.90479434 0.29978433 -0.11473376 -0.46477175 -0.2764255 0.35815856 0.28416982 0.1635272
-0.42832354 -0.34610772 -0.6020172 -0.7824692 0.74428827 -0.462153 0.7769964 0.833477
0.04181971 0.9349381 0.21501221 -0.79945177 0.23140931 -0.64640164 -0.5361399 -0.2343831
0.8828533 0.111585595 -0.33607262 0.035192017 -0.11763816 0.46141943 0.17118312 0.053025

flows.0.layers.3.network.4.bias f4 [8]
00000000: 8908 3fbe 29e5 713e 7b47 dbbc 706c bebe
00000010: 53f8 023d d0e8 48bf 543a 61be c979 81bc
-0.186556 0.23622574 -0.026767483 -0.37192106 0.0319751 -0.78480244 -0.21994907 -0.015805142

flows.0.layers.3.network.6.weight f4 [2, 8]
00000000: bd0a cb3e 67d8 a83c 20b0 a43e 6a57 d23e
00000010: 6c6a 6f3e 326d 04bf 66fb abbb d777 b3be
00000020: 5bc1 1bbf 0b15 0cbe 4621 6c3e e209 4f3e
00000030: a8fe 4f3e 12ab 67bb 93f3 d5bd 0cad 563e
0.3965663 0.020611001 0.32165623 0.41082317 0.2338044 -0.5172912 -0.005248475 -0.35052368
-0.6084191 -0.13679902 0.23059568 0.20218614 0.20311987 -0.0035349769 -0.10446849 0.2096445

flows.0.layers.3.network.6.bias f4 [2]
00000000: 7a9f babd 672e eabe
-0.09112449 -0.45738527

flows.1.initial_param f4 [2]
00000000: fa5e 9ebd fdb7 8fbe
-0.07732959 -0.2807006

flows.1.layers.0.network.0.weight f4 [8, 1]
00000000: ac69 b0bf 3c29 f53f 9984 d43f 7503 ebbe
00000010: 26c9 bfbb dc5f b43e 05e4 59bf 95fa 3ebf
-1.3782248 1.9153209 1.6602966 -0.45901075 -0.005852836 0.35229385 -0.85113555 -0.7460111

flows.1.layers.0.network.0.bias f4 [8]
00000000: d632 d13e 8f99 8fbf 8a77 a53e dade dc3e
00000010: 9b86 e03e 156c 13bf a0ad 8f3f 4019 4bbf
0.40859097 -1.1218737 0.32317764 0.43138772 0.43852696 -0.57586795 1.1224861 -0.79335403

flows.1.layers.0.network.2.weight f4 [8, 8]
00000000: ebdd c03f 3454 a4bf 7531 95be 6011 273f
00000010: a4e3 843e 348c ccbe 5016 813e a6bd 94be
00000020: 53a3 c1be fbc0 89be 4484 a43e 12e3 f9bc
00000030: 965d edbd e7bd f03d 79b3 9e3e 6f7c 8d3e
00000040: 5b2f 0a3e 5bdc 29be 3f42 2e3d 2770 c4be
00000050: c82c 77be a802 e23c c692 213c 1a62 0bbf
00000060: 1c5f 1a3f 3e2a 8cbe f2a1 e1be dbe2 853e
00000070: c55a 773e 52ff 27be 51d4 88bd 60af 483e
00000080: 7f9a 0a3c 361a e6be fd63 033f cb01 c8be
00000090: 00ab 643d 2bbc 533e 170c 21be 326f 143f
000000a0: c16d 2a3e 1d4a 173d 17b4 d13e 9ad6 4f3c
000000b0: d62c 0a3d 8d1d 64be 3860 1e3d 8719 0abf
000000c0: 5155 213e 493d 99bd db9f 653e c8ae f2bd
000000d0: d6f1 503e 5d5c 053e d665 c9bd 648b fd3d
000000e0: 810f cebe 23c1 1fbe 1a2f 933e 8d6d 1d3b
000000f0: 7cf6 1ebe 38e0 47be 7181 683e cd01 ef3e
1.5067724 -1.2838197 -0.29139295 0.6526089 0.25954926 -0.39950716 0.25212336 -0.2905094
-0.3781992 -0.26905045 0.3213216 -0.030503783 -0.11590116 0.11754971 0.30996302 0.27633998
0.13494627 -0.16587965 0.042543646 -0.38366815 -0.24138176 0.027589157 0.009861654 -0.54446566
0.60301375 -0.27375978 -0.44068867 0.2614964 0.2415572 -0.1640599 -0.06681121 0.1959815
0.008459686 -0.44941872 0.51324445 -0.39063868 0.05582714 0.20677249 -0.15727268 0.5798217
0.1664343 0.036935914 0.4095771 0.012685442 0.033734165 -0.22276898 0.03866598 -0.539452
0.15755202 -0.07482392 0.22424261 -0.11849743 0.20404753 0.13023515 -0.09833877 0.12380102
-0.40246204 -0.1560102 0.28746873 0.0024021596 -0.15523714 -0.19519126 0.22705628 0.4668106

flows.1.layers.0.network.2.bias f4 [8]
00000000: eace 613e acb0 d0bc 533d aa3d daa2 45be
00000010: c3a2 053e 666f b13d 994f 00bd 86af 91bc
0.22051588 -0.025474869 0.08312478 -0.19300404 0.1305037 0.08663826 -0.03132591 -0.017783891

flows.1.layers.0.network.4.weight f4 [8, 8]
00000000: ff62 703c 254b 263e b1ad 29be 9153 3fbe
00000010: 7c74 043f 8402 89be 82ff 62bd e9a7 0b3d
00000020: d369 1b3f aa9f b4be e894 e23d 46ad 8a3f
00000030: 0f6f cbbe 0200 13bd 53e2 4bbe 13f2 8bbe
00000040: 9f9e 99bc 721f 81bc 4106 663d b07d 513d
00000050: 2062 b4be 4502 853c 6f45 30be 06ad 2cbe
00000060: e324 82bd 9b77 0f3e b08a 7f3d db20 803e
00000070: a009 04be dee3 873d 3133 8bbe f25e 98bd
00000080: 8270 80bd 86b6 1f3d e04c f13d 6527 b83d
00000090: dc70 813e 2ee9 6ebd 6da0 31bb 42d4 3d3d
000000a0: 83fa 9abe b460 6c3e 3608 0d3f b2ff ba3e
000000b0: d649 a23e 913f c53e 7d7a 253e 3ee4 4f3d
000000c0: 4ab9 363e 3d38 c0bd 289f e63d e2ad be3e
000000d0: 7fbc 823e afae 933a 7c3b 473e 6405 1fbe
000000e0: 4727 0abf edc3 873c 9fe9 febd cfec 85be
000000f0: 8f10 2ebe adaa b43e 2ae5 393d f2d0 69bd
0.01467204 0.16239603 -0.16570164 -0.18684222 0.5174024 -0.26759732 -0.055419452 0.03409568
0.6070835 -0.35278064 0.11063558 1.0834129 -0.39733168 -0.03588868 -0.19910555 -0.27333125
-0.018752394 -0.015762065 0.056158308 0.051145256 -0.35231113 0.016236434 -0.17213987 -0.16862878
-0.06354692 0.1401047 0.062388122 0.25025067 -0.12894297 0.06635259 -0.27187493 -0.074399844
-0.06271459 0.038992427 0.11782241 0.08991889 0.25281417 -0.058327846 -0.0027103678 0.046345003
-0.3026925 0.23083764 0.55090654 0.36523205 0.31696957 0.3852506 0.16160007 0.050754778
0.1784412 -0.093857266 0.112608254 0.37242037 0.25534436 0.001126727 0.19456285 -0.155294
-0.5396618 0.016572917 -0.124469034 -0.26157233 -0.16998504 0.35286465 0.045384564 -0.05708403

flows.1.layers.0.network.4.bias f4 [8]
00000000: 0a9a 933e 4399 c83d d7d9 72be 8dc1 05be
00000010: b55c b93d 5b1e 9dbd 8425 233d 8999 83be
0.2882846 0.09794857 -0.23715912 -0.13062115 0.090508856 -0.076718055 0.0398307 -0.25703076

flows.1.layers.0.network.6.weight f4 [2, 8]
00000000: 253b 26be d876 b73d 7883 2d3e 7b19 45bc
00000010: 4e8c 8e3b 207e ee37 887d 323d 2025 6939
00000020: 9662 d63d 9e8c 9ebe cc60 21be 9d0f 973d
00000030: 6e4a b23b f900 7ebe 9598 623e 79d9 a7be
-0.162335 0.089582145 0.16944683 -0.012030001 0.0043502217 2.8430542e-05 0.043576747 0.00022234442
0.104680225 -0.30966657 -0.15759581 0.07376025 0.0054410016 -0.24805059 0.22128518 -0.32783106

flows.1.layers.0.network.6.bias f4 [2]
00000000: cc95 393e 2090 b3be
0.18123549 -0.35070896

flows.1.layers.1.network.0.weight f4 [8, 2]
00000000: ed77 d73d f9e3 7ebe 2919 0dbf 168b 0b3f
00000010: 6004 5f3e 4ea5 3cbe 8453 dfbd ec07 51bf
00000020: 54c1 413e 61b8 a4be 69bf 2bbf 685d d1be
00000030: c9a0 a1bf ab02 debd 0050 76be db4a ad3e
0.10520921 -0.24891652 -0.55116516 0.54509103 0.21779013 -0.18422434 -0.10904601 -0.8165271
0.18921405 -0.3217192 -0.67088944 -0.40891576 -1.2627193 -0.108403526 -0.24053955 0.33846173

flows.1.layers.1.network.0.bias f4 [8]
00000000: 6565 8f3e 10ad 0fbf b436 bc3e 9578 58be
00000010: b9e4 eebe b822 50bc fcea 383f 6856 83bf
0.28007045 -0.5612345 0.36760485 -0.21139748 -0.46658877 -0.01270359 0.7223356 -1.0260744

flows.1.layers.1.network.2.weight f4 [8, 8]
00000000: 4b91 15be 9a74 d13d 45c7 003f f44c 0ebf
00000010: 82d8 4b3e 6263 9a3e 2438 7b3e 7cd1 d7bd
00000020: 8ace 133f 1197 ac3e 89fc d5bd f2f6 d7bd
00000030: 80c5 963e 8c4e bf3d e3bb 13bf 93ed ab3d
00000040: 84c9 3fbe 2d07 4bbf fe19 893b 595f 4fbf
00000050: 0c98 59be e116 58bf b79a f2be 54dd 86bd
00000060: 498f c13e 4dea 6abe e80b a93d 02c6 b53e
00000070: cb6c ba3e 208b 66bd 0188 153f c87b 34be
00000080: a61f 773e 4297 47bd 4d5e 163e 14c1 35be
00000090: 38fc 773e 541d 81be 3798 a3bc 0ce3 d5be
000000a0: 2afe afbe a8b3 7d3e d0ee f9be 5c8e 20be
000000b0: 4b80 e9bc 93a4 20be 5163 93bd 57ea d63e
000000c0: a599 a93e ecbc 17be 9d1e 193d 9223 2ebd
000000d0: dedc c93e 8faf 15be 5bb1 78bd ce53 f23b
000000e0: 0389 87bd ff3d afbd ff4d 9cbe c01a 963d
000000f0: 727b 69be 481e debe 57bd cbbe e536 963e
-0.14606206 0.10227318 0.5030406 -0.5558617 0.1990681 0.30153948 0.24533135 -0.10538003
0.5773703 0.33709005 -0.10448558 -0.10545148 0.29447556 0.093411535 -0.5770857 0.08394923
-0.18729216 -0.79307824 0.0041840067 -0.81004864 -0.21249408 -0.8440991 -0.47383663 -0.06585184
0.3780463 -0.22940941 0.08254224 0.3550263 0.36411127 -0.056285024 0.5841065 -0.17625344
0.24133167 -0.048728235 0.1468441 -0.17749435 0.24217308 -0.25217688 -0.019970043 -0.41774786
-0.343736 0.24775565 -0.48815012 -0.15679306 -0.028503558 -0.1568778 -0.071966775 0.41975662
0.33125034 -0.14818162 0.03738271 -0.04251439 0.3942632 -0.14617752 -0.060716014 0.007395244
-0.0661793 -0.08556747 -0.30528256 0.07329321 -0.22800997 -0.43382478 -0.39792892 0.29338756

flows.1.layers.1.network.2.bias f4 [8]
00000000: 7223 9dbe 784c 193e 24b7 023f 853f 43be
00000010: 1104 debd 228f a9be 75cd 143c 30b7 433e
-0.30691105 0.14970577 0.510607 -0.190672 -0.10840619 -0.33117014 0.009082188 0.19112849

flows.1.layers.1.network.4.weight f4 [8, 8]
00000000: 3a09 fabd 420b 4ebe 901e 9abe 56fe d03c
00000010: a82a d0be 7ae3 193f d311 10be 4987 243d
00000020: a3ee 633e f7f0 6dbe 7d01 163f c27c 483e
00000030: 7867 8bbe 1cf5 d53e f06e 01bf 8292 d3be
00000040: 52c6 b83e be75 163e 5297 90be 4f74 813d
00000050: ea41 eb3e e3c8 2cbb f4fc 863e 286c 3abe
00000060: c43d 85be 4a6c 7b3e cf78 863d af41 3d3f
00000070: f3a4 503d 0eeb 12bf 71c2 123b f62e f8be
00000080: 5651 8b3d 97c2 793e 705e 8f3d af3b c8bd
00000090: 9979 b93d 7681 8fbe c741 8e3d 53c9 95be
000000a0: e391 50bf 3442 d1bc 9536 1c3f 85b1 b0be
000000b0: 7705 803e 4ff8 f1bb 9425 5f3e dcce e83e
000000c0: 6413 303e fdfe 143f d3ab 993d 417c 233c
000000d0: 7696 89bb 5834 c5be 2b3f 85be 93ae f83d
000000e0: 55a0 90be eefb ff3e 9c9a a9be 32e4 c0bd
000000f0: b1f8 f3bd 3252 f5be 79ec 693d f9f3 0c3e
-0.12208791 -0.20121482 -0.30101442 0.025511902 -0.40657544 0.60112727 -0.140693 0.04016808
0.22259001 -0.23236452 0.5859602 0.19578841 -0.27227378 0.41788566 -0.505599 -0.41322714
0.36088806 0.14693353 -0.28240448 0.06321012 0.45948726 -0.0026364855 0.26364863 -0.18205321
-0.26023686 0.24553028 0.06566011 0.7392835 0.050938558 -0.57389915 0.0022393728 -0.48473328
0.06802623 0.24390636 0.070004344 -0.09777009 0.09056396 -0.28028458 0.0694614 -0.2925516
-0.81472605 -0.025544263 0.61020786 -0.34510437 0.2500417 -0.007384337 0.21791679 0.4547032
0.17194897 0.5820158 0.07503476 0.009978355 -0.0041988445 -0.38516498 -0.26024756 0.121426724
-0.28247324 0.49996895 -0.3312577 -0.09418525 -0.119126685 -0.47914273 0.057110284 0.13764943

flows.1.layers.1.network.4.bias f4 [8]
00000000: e5c3 98bd 2f08 943d bd40 823e 9b23 863e
00000010: 7a38 4dbe 0292 893e ea2c 93be c9f7 99be
-0.07459239 0.072281234 0.25440016 0.2619904 -0.20041075 0.26869208 -0.28745204 -0.30071858

flows.1.layers.1.network.6.weight f4 [2, 8]
00000000: 9247 303e cd62 a63e 50c0 93be b0a0 12bf
00000010: 2d6a dbbd f666 8c3e 1099 a8be 9e21 10bf
00000020: dc15 243e 2cb0 91be 7583 48be cfd9 04be
00000030: e2ac 0f3d 5a12 cbbe b031 78be 6ded de3c
0.17214802 0.32497254 -0.2885766 -0.5727644 -0.10713611 0.27422303 -0.32929277 -0.56301296
0.16023964 -0.2845472 -0.19581397 -0.12973712 0.035076983 -0.3966244 -0.24237704 0.027212823

flows.1.layers.1.network.6.bias f4 [2]
00000000: 5c21 81be e48f a8bd
-0.25220764 -0.0823057

flows.1.layers.2.network.0.weight f4 [8, 3]
00000000: 31fe b2be e45a 5ebf e58a f63e 29bd 4b3e
00000010: de0e 88bd b515 5a3f c533 c8be 835d bc3e
00000020: a9f2 893b 516a 0abf d7b1 39be 2cdf 1cbc
00000030: 12b2 5a3f e43a 84bf 9f52 87be f60a d93e
00000040: 3da5 9fbe ed8d babe 60e9 5abd 3fb1 bdbe
00000050: 8593 77bd 6691 8cbe ad31 a43e 87cf 3cbf
-0.34959558 -0.8685744 0.48152843 0.19896378 -0.06643461 0.8518937 -0.39101997 0.36790094
0.0042098355 -0.54068476 -0.18134247 -0.009574693 0.85427964 -1.0330472 -0.26430222 0.42391175
-0.31180754 -0.36436406 -0.05344522 -0.3704929 -0.06044342 -0.2745468 0.3206915 -0.7375416

flows.1.layers.2.network.0.bias f4 [8]
00000000: 1ed9 213f f91e 5ebf 6ce2 4abf 740f 1abe
00000010: a337 da3e 6d2d e0be 24ab 67be 0e91 353f
0.6322192 -0.8676601 -0.7925174 -0.15044957 0.42620572 -0.43784657 -0.22623879 0.7092446

flows.1.layers.2.network.2.weight f4 [8, 8]
00000000: 1d87 60be 1384 973b 79dd cfbe 0e38 1a3f
00000010: 659b 73be 02c3 7e3e 32bd 7f3e 9303 7d3c
00000020: 9c53 0a3d 594a c7bd c229 25be 6979 14bf
00000030: 6020 c23d 7f19 a33e 0ae3 8f3d b744 05bf
00000040: 3efa 303d b2b1 0e3f c5f4 01bb 44fd 2a3f
00000050: c305 f5be 3a70 fabe 2b10 eabe 8596 00bf
00000060: 918b 0c3f 4aac c0be 5bca 83bf 4ca6 64bf
00000070: 3967 62be 4eaa 3a3d 520c 243e bae8 82be
00000080: 22dc e2bd 76e5 6f3e 3ede 63be afb7 b43e
00000090: 5df9 3fbd 4ee9 f7be cccf 95bb ff6c 36be
000000a0: ff75 cf3e 2f09 06be 496e 1c3f 331b 9bbe
000000b0: 31c9 193f add7 9bbe 15e9 dbbd def7 e5be
000000c0: 6abd f6be 9e0d 113f ae7a 31be 3561 96bc
000000d0: f570 abbd 5316 24be 552c 893e c0ab 2bbf
000000e0: 2e46 7abd aa31 ddbe 70b7 8a3c 248a 92bd
000000f0: 910c a9be a015 d23e 0145 2c3f 7dbc 3ebe
-0.21926542 0.004623899 -0.40598658 0.6024178 -0.23789747 0.24879077 0.24974516 0.015442747
0.033771142 -0.097309776 -0.1612921 -0.5799776 0.09478831 0.3185539 0.07025726 -0.52057976
0.0432074 0.5573989 -0.0019829732 0.667927 -0.47855958 -0.48913747 -0.4571546 -0.50229675
0.5490046 -0.37631446 -1.0296129 -0.8931625 -0.22109689 0.04557257 0.16020325 -0.2556818
-0.11077143 0.23427376 -0.22252747 0.3529639 -0.04686867 -0.48420185 -0.0045718905 -0.17815016
0.4051971 -0.13089441 0.6110578 -0.3029419 0.6007262 -0.30437985 -0.10737816 -0.4491567
-0.48191386 0.56661403 -0.17331955 -0.018356899 -0.08371154 -0.16024141 0.26791635 -0.67058945
-0.061102085 -0.43201953 0.016933173 -0.071552545 -0.330174 0.41032124 0.6729279 -0.1862659

flows.1.layers.2.network.2.bias f4 [8]
00000000: be08 00bd 2357 753b 650f 013d d1c2 d33e
00000010: 1f30 163d 1c73 7f3e 144f 123d 0857 45be
-0.031258337 0.003743597 0.031508822 0.4135957 0.036666986 0.24946254 0.035719946 -0.19271481

flows.1.layers.2.network.4.weight f4 [8, 8]
00000000: b837 1d3f ff8e f03d fe13 333f e640 3a3c
00000010: 5175 c33e 35da d4be 98fd 453f c7c6 153d
00000020: 88cc 943e 03c6 b6be 65e3 8abd 327c b13d
00000030: e2bf ed3c 718b 82be ca6e d5bd 32c0 dbbe
00000040: b8a6 8abe 9dfd 26be f79b 833f 0138 17be
00000050: c944 d83e 9750 763e 301c 4f3f 730c 25bf
00000060: c9c9 503e c622 8c3d d81d 143d eb39 e1be
00000070: 5f2d 33bd 5f1e c83e 79f2 21bf 4659 163e
00000080: d21d b63d a76f f8bd ec1b 1b3e 1756 8e3e
00000090: 97ad 863e aa22 3d3e 3149 e93e 7308 5a3e
000000a0: 8c40 b43d 2471 d03e 61b7 71be 39d3 40be
000000b0: be25 8b3d bea4 4a3d 6d78 2e3f d98c c33e
000000c0: fe64 78bc cf7a 293f 9cbb 48bf 73e4 f53d
000000d0: 38ab ac3d f364 453e 68ae 92bd f9ce 1f3e
000000e0: cbc1 7bbe 59c6 513e e427 2dbe 0c10 c1be
000000f0: e9a5 383e 797e e43e ef94 a2be 6047 c43d
0.61413145 0.11746024 0.6995238 0.011368012 0.38175443 -0.4157273 0.7734008 0.036566522
0.29062295 -0.35697946 -0.06781653 0.086662665 0.02902216 -0.2549701 -0.10421522 -0.4292007
-0.2708032 -0.16307683 1.0281972 -0.14767458 0.4223998 0.2405418 0.80902386 -0.6447212
0.20389475 0.0684257 0.036161274 -0.439895 -0.04374444 0.3908567 -0.6326061 0.14682493
0.088924065 -0.12130671 0.1514737 0.27800056 0.26304314 0.18470255 0.45563653 0.21292286
0.08801374 0.4071132 -0.2360511 -0.18830575 0.06794308 0.049473517 0.68152505 0.38193396
-0.015160797 0.66203016 -0.7841127 0.12006464 0.08431095 0.1927679 -0.071621716 0.15606298
-0.24585645 0.2048582 -0.16909748 -0.37707555 0.1803204 0.4462774 -0.31754252 0.09583926

flows.1.layers.2.network.4.bias f4 [8]
00000000: c316 f1be de7f 8bbe 75ec 283e e9df fdbd
00000010: 3cf4 823e 89d5 9fbe 3acf 0abe 78c4 f43c
-0.47087678 -0.27245992 0.16496451 -0.12396223 0.2557696 -0.31217602 -0.13555613 0.02987884

flows.1.layers.2.network.6.weight f4 [2, 8]
00000000: 01c8 233e 0e75 cd3d 11fb dc3e bc49 dc3d
00000010: 596f c1bd 649e a0be 5154 f6be 8200 90bc
00000020: 1e35 dc3e 2946 113e 44aa 333d 8531 b5be
00000030: c984 6dbd 583e 793e d409 96be c3b7 03be
0.15994264 0.10032092 0.43160298 0.10756251 -0.09445066 -0.31370842 -0.48111203 -0.017578367
0.43009275 0.1418692 0.04386355 -0.35389343 -0.057987962 0.24340189 -0.29304373 -0.12863068

flows.1.layers.2.network.6.bias f4 [2]
00000000: 56af a93e 98ac 453d
0.33141583 0.0482603

flows.1.layers.3.network.0.weight f4 [8, 4]
00000000: 4ad3 e73e 2b2f dc3f af85 dbbe 9723 17bf
00000010: 23de 2ebf 1ff2 de3e 0ee9 9f3d 2edc bfbd
00000020: 511a 50be 3191 96bf 94a7 9bbf b5d4 d8be
00000030: 78e5 1c40 ff7e a63f 3ef5 89be 347e 2abe
00000040: 499d 143f 898e 42bf 9d00 c03e 9c14 193f
00000050: b3c0 28bf 386e 8e3e bd7d 09bf 4ade fe3e
00000060: 121b bfbe 5251 bfbd d9ec e33e 5537 03bf
00000070: e446 863e e371 0c3f fdde d53e 8074 b53f
0.45278388 1.7201895 -0.4287543 -0.5903868 -0.68307704 0.435441 0.078081235 -0.09368168
-0.20322539 -1.1763059 -1.2160516 -0.42349783 2.4515057 1.3007506 -0.26944917 -0.16649705
0.580525 -0.7599874 0.37500468 0.5979707 -0.65919036 0.27818465 -0.53707486 0.49778968
-0.3732534 -0.093416825 0.44516638 -0.51256305 0.2622596 0.5486128 0.4177169 1.4176178

flows.1.layers.3.network.0.bias f4 [8]
00000000: 9bca e43e b067 a63f 22e4 f13e a0fa d73e
00000010: 0cf6 99be e481 11bf 9f2b 233e 2a47 533e
0.44685826 1.3000393 0.47244364 0.421834 -0.3007053 -0.5683882 0.15934609 0.20632616

flows.1.layers.3.network.2.weight f4 [8, 8]
00000000: 701c 553e 2666 283f 61fc 05bf 5b17 a13e
00000010: 2319 c73d 1d70 923e 580c d83e d9a0 20bf
00000020: d802 4bbe ea15 183f eb26 2fbe 23bf 243f
00000030: 4de3 35bf 9cfc af3e 62c1 ad3d b111 c03c
00000040: e314 5e3e 6b01 b83b e18a 96be 6ff2 083f
00000050: 066d 863f ad10 78be 9cfd c93e dbd7 883f
00000060: c415 f83e 922d fe3d 3d1a a93e a96f fdbe
00000070: eb86 463e 0f31 60bc 817c 3bbf 2bf8 e13e
00000080: 9e79 033f 7917 183f e838 92bf b6ac 5cbf
00000090: 8dea 983e 4eae 70be 15db e33e 3c89 873e
000000a0: bf29 813c 191f 053e 3cab 04be 76a2 be3e
000000b0: 7a1d b33e 9877 cf3d b967 a53e e3cb 3dbf
000000c0: d0a5 3cbe 32b5 b5be feb6 3a3f 4c47 65be
000000d0: 7cf1 ae3e 5dc9 813f a9b4 953e 07d7 41bf
000000e0: 4895 a83e c946 6bbf 1c96 12bf f5d0 8bbe
000000f0: 2530 943e 013b f5be 7d62 b5be cfc6 00bc
0.2081163 0.65780866 -0.52338225 0.3146313 0.09721591 0.2860116 0.42196918 -0.62745434
-0.19825304 0.5940844 -0.1710469 0.6435415 -0.7104996 0.34372413 0.084841505 0.023445936
0.21687655 0.0056154034 -0.2940283 0.53494924 1.0502021 -0.24225111 0.394513 1.0690874
0.48454106 0.124110356 0.3302783 -0.49499252 0.19387405 -0.0136835715 -0.7323685 0.4413465
0.5135745 0.59410816 -1.1423616 -0.86201036 0.29866448 -0.23503992 0.44503084 0.2647189
0.015766976 0.13000144 -0.12955946 0.37233323 0.34983426 0.101302326 0.32305697 -0.7413923
-0.18422627 -0.35489804 0.72935474 -0.22390479 0.34168613 1.0139576 0.29239395 -0.7571873
0.32926393 -0.91904885 -0.572603 -0.2730786 0.2894298 -0.4789658 -0.35426703 -0.0078599

flows.1.layers.3.network.2.bias f4 [8]
00000000: fe1a eabe 3e57 1ebe 9d67 553e 274c 873d
00000010: 645e 693c 89f1 d7bd 4289 04bf 0d2d 31be
-0.45723718 -0.15462968 0.20840307 0.06606322 0.014243696 -0.10544116 -0.5177194 -0.17302342

flows.1.layers.3.network.4.weight f4 [8, 8]
00000000: da1e a53c 3ce8 58bd 1530 dcbe 639a 5cbc
00000010: 7025 08be 908f 98be bdf0 d1be 2d2f 193f
00000020: 96a5 63bf 020e 4dbd 000c e43e 1759 23be
00000030: ffeb bcbe 5bbb 8ebd f69e 80be c3fc 55be
00000040: dfdc a7be ed57 14bf 2989 153e 6124 27bd
00000050: 1278 c8be 55ea dbbd 445a dc3e fcc4 0f3e
00000060: 1bf5 91be 5a99 883e 0819 773b d720 8d3d
00000070: 0bff d5be 8330 ccbe 97c4 a5be 479d 42bf
00000080: 05c0 88be 2f34 18be 6487 23be 730c 563e
00000090: 8b37 753e 9fcd 193e db02 123e f86a a93e
000000a0: 4662 5c3f a4eb 643f 3164 01be 5d97 4dbf
000000b0: 4c1a bcbe c48e 3f3c 1f85 1e3f 7f84 673e
000000c0: d5b6 bc3e 7320 4a3e 5970 ed3d 926f b2bd
000000d0: 2163 293f f917 75bd f7fe 50bb faf7 c6be
000000e0: 41bb 8cbe c6ab 8fbe f13c 733f 2179 ac3e
000000f0: b40d 4e3d 4519 f0be bcd2 dbbd 457a 3e3e
0.020156313 -0.05295585 -0.43005434 -0.013464543 -0.13295531 -0.2979703 -0.4100398 0.5983761
-0.8892454 -0.050062187 0.44540405 -0.15951954 -0.368988 -0.06969329 -0.25121278 -0.20897202
-0.327857 -0.57946664 0.14603104 -0.040806178 -0.39154106 -0.10738055 0.43037617 0.14039987
-0.28507313 0.26679498 0.0037704129 0.06891029 -0.41796145 -0.39880762 -0.3237655 -0.76021236
-0.26709 -0.14863656 -0.15969616 0.20903187 0.23946969 0.15019844 0.14258902 0.33089423
0.86087453 0.8942206 -0.12635876 -0.8030909 -0.36738813 0.011691753 0.61921877 0.22609137
0.3685824 0.19738941 0.11593694 -0.087126866 0.66166884 -0.059837315 -0.0031890252 -0.38861066
-0.27486613 -0.2806074 0.95014864 0.33686164 0.050306037 -0.4689428 -0.10733554 0.1860133

flows.1.layers.3.network.4.bias f4 [8]
00000000: a54a eebb 8dd2 c5bd 3c80 d53e ddea d2bd
00000010: eda5 343e 60aa f0be dece d43d 2dc6 d2bc
-0.007272082 -0.096593 0.41699398 -0.10298703 0.1764142 -0.47004986 0.10391019 -0.025729263

flows.1.layers.3.network.6.weight f4 [2, 8]
00000000: 55d6 a8be b652 94bd 91a5 00be 36f7 a83e
00000010: 7377 4fbd 75cb f43e 5681 413e 0994 f2bd
00000020: a534 2a3d d65b 85be 064d 9abe 5636 75be
00000030: d9e4 debd 41cf bd3d de12 b23c c3f3 47be
-0.32976022 -0.07242338 -0.12563159 0.33001107 -0.050651025 0.47811475 0.18896994 -0.11844642
0.041554112 -0.26046628 -0.3013689 -0.23946509 -0.10883493 0.09268046 0.021737512 -0.19526581

flows.1.layers.3.network.6.bias f4 [2]
00000000: 3ec5 1a3e d9ad 8c3c
0.15114304 0.01717274

flows.2.initial_param f4 [2]
00000000: 7959 9e3d 1aa8 febe
0.07731909 -0.49737626

flows.2.layers.0.network.0.weight f4 [8, 1]
00000000: fbcf 113f 66b6 193f d21f d4be f380 a1be
00000010: a740 0abe c0f9 17bf c550 c33f f894 80be
0.5695798 0.6004394 -0.41430527 -0.31543693 -0.13501225 -0.59365463 1.5259024 -0.25113654

flows.2.layers.0.network.0.bias f4 [8]
00000000: 766a 873f 0ec2 c1be acab b03d 7b4f abbe
00000010: 62ef 18be 97f1 0c3f 21fc 1c3f 9e6a 033c
1.0579364 -0.37843364 0.08626494 -0.33459076 -0.14935067 0.55056137 0.6132222 0.008021025

flows.2.layers.0.network.2.weight f4 [8, 8]
00000000: 84ad fc3e b4ab 0bbf ed23 943e 62d0 553e
00000010: b9ed 9cbd 073d 363f 52bd 083e 9c0d 2d3e
00000020: 06dc 8cbe 1294 a63d a308 d5bd e194 f33d
00000030: 9189 b53e 27bd 613e 6272 81be 264c b23e
00000040: 3cd8 9fbd 03ea 8fbe b68e a9be cac0 a2be
00000050: cef4 dd3d 873d af3d 4586 9e3c 4205 0bbf
00000060: b07b a33e bfc8 33bd bfe0 e7bc afce c0be
00000070: b3f0 cdbe f40d 28be 7e8f 38bf 8a0e 23bf
00000080: b3b8 da3e 934e c6be 9bc8 a5bd 0329 4abe
00000090: 703f e03d 25bb 85bd b577 0c3d 1304 673e
000000a0: 0c69 49be 5a44 ca3e 8c1d e5be aca3 803e
000000b0: dda6 1e3e 480b b1be 91c2 89be d7c2 41bd
000000c0: c582 923e 1ae5 ec3d d994 363d a8bb 763d
000000d0: 920f 85bd 89ad cabd f985 523f 6ec4 9e3d
000000e0: d11c 6cbe 511f c93d 93c2 4c3d 8813 22be
000000f0: f124 21be 7387 663e 563f f53e bce1 74be
0.49351132 -0.54558873 0.2893366 0.20880273 -0.076625295 0.7118687 0.1335347 0.16899723
-0.27511615 0.08133711 -0.10402038 0.11893631 0.35456517 0.22044812 -0.2528258 0.34823722
-0.07804915 -0.28108224 -0.33116692 -0.3178771 0.108377084 0.08556657 0.019351134 -0.543049
0.31930304 -0.04389262 -0.02830541 -0.37657687 -0.402227 -0.16411573 -0.7209395 -0.6369406
0.4271904 -0.38731822 -0.08094903 -0.19742207 0.109496 -0.065298356 0.03429385 0.22560148
-0.19668978 0.39505273 -0.44749105 0.25124872 0.15493341 -0.3457892 -0.26906255 -0.047304954
0.28615394 0.11567135 0.044575546 0.060237557 -0.064971104 -0.098963805 0.82235676 0.0775231
-0.23057868 0.09820426 0.049990248 -0.15827763 -0.15736748 0.22512607 0.47899884 -0.23914236

flows.2.layers.0.network.2.bias f4 [8]
00000000: 2149 223e 37a6 e6bc 1a57 413d b49e 4ebd
00000010: 6b93 8abe bbfc 6e3d 51b1 8e3d 67b5 943d
0.15848209 -0.02815543 0.047202207 -0.05044432 -0.27065596 0.05834649 0.06967414 0.07261162

flows.2.layers.0.network.4.weight f4 [8, 8]
00000000: e1e9 26be d25d f5bd 7814 c3be 151e bcbd
00000010: 529c f23c 32b9 1a3e a9e3 a1be 19e4 c83e
00000020: 0508 1c3d afe9 163d 7b17 9dbe 3441 283e
00000030: b75d 9a3e 0e6f 503d ae5e 563e 861d 17be
00000040: 8b04 633e 0179 693e 97df 133c db2a 713e
00000050: d4b2 b73d 2cb5 843d 235d 18bf 9854 82be
00000060: 25a7 113f 5c98 f13d 86eb 603e 3142 233d
00000070: 6f9d ae3e 084d e0be a9b9 80be 8c87 e7bd
00000080: 9370 863e 76de 3a3d 4cd6 923c 744f 833e
00000090: 8bb2 8ebe a940 1bbe a211 e6bd 6e7f b13d
000000a0: 712d 1f3d 7a66 1cbf 3d59 aa3e 8d71 3b3f
000000b0: 7dd1 983e 2918 b1be 4f57 303e e95d 953d
000000c0: bc28 cbbe 9e5e 6abe 00ac 223e 3a2f 973e
000000d0: 8a2c f23d 7bd7 b33d d81b 09bd 33c8 4bbd
000000e0: ff52 693e 9750 21bd 3578 b53e 2e39 f13d
000000f0: a069 00bf f2c4 493c b2a0 d2bd 65a8 413e
-0.16300155 -0.119807854 -0.38101554 -0.09185425 0.029615555 0.15109709 -0.31619003 0.39236525
0.038093586 0.03684395 -0.30681977 0.16431123 0.30149624 0.05088716 0.20934555 -0.14757356
0.22169702 0.22800066 0.009025476 0.23551504 0.08969656 0.06479868 -0.59517115 -0.25455165
0.5689567 0.11796638 0.21964845 0.039858047 0.34104487 -0.4380877 -0.25141647 -0.113051504
0.26257762 0.04562231 0.01792445 0.25646555 -0.27870592 -0.15161385 -0.11233832 0.086668834
0.038861696 -0.61093867 0.33271208 0.7322014 0.29847327 -0.34588745 0.17220806 0.072933026
-0.39679515 -0.22887656 0.15885925 0.29528219 0.118249014 0.08781334 -0.03347382 -0.04975147
0.22785567 -0.039383497 0.35443273 0.11778484 -0.5016117 0.012315022 -0.102845564 0.18911894

flows.2.layers.0.network.4.bias f4 [8]
00000000: 762c 773e cc3f 36bd 1bc6 87be 1911 debd
00000010: e17d a0be dbb4 003f 3ac8 3bbe b818 0dbe
0.24138054 -0.044494435 -0.2651833 -0.10843105 -0.31346038 0.50275964 -0.18338099 -0.1377896

flows.2.layers.0.network.6.weight f4 [2, 8]
00000000: 065a 72bb 1247 873b e0f1 2cbe 81eb 883e
00000010: d031 f7bd 09f8 be3e 8bc5 89bc 43f4 aa3b
00000020: 87a2 0d3c d4f0 9abb afd5 e43d e9d1 723e
00000030: 6db8 bdbc 7491 963e 55ea 9fbe 4863 343c
-0.0036979928 0.0041283453 -0.16889143 0.26742175 -0.12070048 0.3729861 -0.016817829 0.0052171065
0.008644707 -0.004728416 0.111735694 0.23712887 -0.02315923 0.29407847 -0.3123347 0.011009999

flows.2.layers.0.network.6.bias f4 [2]
00000000: d101 503e ed59 8bbe
0.20313193 -0.27217045

flows.2.layers.1.network.0.weight f4 [8, 2]
00000000: 6fd9 3d3f 38c4 a8be a54f 4dbe 1afb 2ebf
00000010: fa4f 9f3f ca8f c1bf ef24 afbd 404e 913f
00000020: cc43 dd3d e988 89bd ed75 92bf 12f8 73bf
00000030: 2a05 68be b7b0 953c 5e75 9d3f aead 223d
0.741599 -0.32962203 -0.20049913 -0.683519 1.2446282 -1.5122006 -0.085519664 1.1352005
0.10803947 -0.06715567 -1.1442238 -0.953004 -0.2265822 0.01827274 1.2301443 0.039716415

flows.2.layers.1.network.0.bias f4 [8]
00000000: 114a 673f 9e83 41bf d295 9f3f 0382 57be
00000010: 3f70 ba3d 0eb7 013f bb71 8ebe 3e72 a53d
0.9034739 -0.75591457 1.2467597 -0.2104569 0.091034405 0.50669944 -0.27821144 0.080784306

flows.2.layers.1.network.2.weight f4 [8, 8]
00000000: 46a3 e63e c463 90bc f212 133d 1470 04bd
00000010: 0da8 b6bd 03c5 df3e a7ae 043f 7357 173f
00000020: 232c 843e 8283 69bd 5c14 febc 04c5 d33b
00000030: eee5 e93d a652 0e3f bac1 89bd 0480 be3e
00000040: a972 84be a23a 94be 19a0 b5bd 6ed4 65bd
00000050: 37be 4c3e ea61 82bf 5587 aabb 7431 82bd
00000060: 9ff7 97be bdb1 e13f 7245 6e3e c2bf 0dbf
00000070: c869 3d3d 0495 adbe b1e5 c23d 9e83 71be
00000080: b3d9 72be 6cec 473f 0723 cdbc c81c bcbe
00000090: cf02 bbbe 9181 d3be b037 cd3e e110 8abf
000000a0: 4cb4 303e 3e14 243f c1d9 573f 4106 e8be
000000b0: 8219 a6be 0490 6dbe 5160 c2be 04ef 533e
000000c0: 0222 e1bd 59c6 5d3f 2491 dcbe a3f3 293c
000000d0: f4ba 163e 0ed1 ba3e 4575 9d3e 3168 ba3e
000000e0: 1412 493f a74b f1be cd58 023f ae78 d9be
000000f0: 677a fb3e 78ad d9be 145d 09be d87c c13f
0.45046443 -0.017625697 0.03590674 -0.03233345 -0.08918772 0.43704996 0.51829 0.5911781
0.25814924 -0.05701018 -0.031015567 0.006462695 0.11420809 0.5559486 -0.067264035 0.37207043
-0.2586873 -0.28950983 -0.08868427 -0.05611079 0.19994436 -1.0186131 -0.005204121 -0.06357089
-0.29681107 1.7632366 0.23268679 -0.55370724 0.04624346 -0.33902752 0.095164664 -0.23585364
-0.23715858 0.78095126 -0.025041116 -0.36740708 -0.3652558 -0.4130979 0.4008155 -1.0786401
0.17256278 0.6409339 0.8431664 -0.4531727 -0.32441336 -0.23199469 -0.3796411 0.20696646
-0.109928146 0.8663078 -0.43079484 0.010373029 0.14719754 0.3648762 0.30753532 0.36407617
0.7854321 -0.4712803 0.5091675 -0.42474884 0.49116823 -0.4251516 -0.13414413 1.5116224

flows.2.layers.1.network.2.bias f4 [8]
00000000: b5d4 dc3c 7f42 0b3f d882 af3e 5d84 243d
00000010: 3f99 f2bd c8fc 91bd 102a 593d 76da 533e
0.026956895 0.5439834 0.34279513 0.040165294 -0.118456356 -0.07128292 0.05301863 0.20688805

flows.2.layers.1.network.4.weight f4 [8, 8]
00000000: 8515 793e b240 12be 4a28 fcbd dd0f 95be
00000010: dd43 e7be a330 6cbe f0ad 64bf cc27 eb3e
00000020: 1c2e afbe 8824 55be 5cb9 b3be 3bcc 553e
00000030: 6455 43be 1ca5 a13e d4cb 443f fbbc a13d
00000040: a6d2 f539 f892 d23e a83e ef3e ec21 e33e
00000050: 6a9a 14bd 8e39 aabe 5ab9 96be 3ae1 e6be
00000060: 82b2 06bd b4a6 90be 8ef5 1cbe eb3b 9abe
00000070: a4a8 293f 236e 213e cbd7 d13e dc8c 913e
00000080: 0853 dbbe 727a 09bf 4629 a0be 9b56 913e
00000090: 1c50 ef3e 9908 83be 79d2 3e3e 281b e23e
000000a0: 9a65 063e 6a57 d83e 4092 9dbe 820c dbbd
000000b0: 7441 f7bd 9fd8 7b3e 9c10 d33e 81be 83be
000000c0: 7247 53be 5b2b 93be 0eac 193e c658 4d3e
000000d0: 8eff 6c3f 2a17 e0bc f6b2 453f 9452 c0be
000000e0: 5b32 5c3e 312f c33d 1b10 b43e 5ea9 073f
000000f0: ca68 823e cde1 7e3f 3b62 7f3e 9c3c fabd
0.24324615 -0.14282492 -0.12312372 -0.29113665 -0.45168963 -0.23065428 -0.8932791 0.459288
-0.34214866 -0.20814717 -0.35102355 0.20878689 -0.19075543 0.3157128 0.7687352 0.07897373
0.00046886987 0.41127753 0.4672749 0.44361818 -0.036280073 -0.33247036 -0.29438287 -0.4509371
-0.032885082 -0.28252184 -0.15328047 -0.3012384 0.6627295 0.1576467 0.4098495 0.2842778
-0.42836785 -0.5370246 -0.3128149 0.28386387 0.46740806 -0.25592497 0.18634976 0.44161344
0.13124695 0.42254192 -0.30775642 -0.10695745 -0.12073031 0.24594353 0.4122361 -0.2573128
-0.20632723 -0.28744015 0.1500704 0.20053396 0.92577446 -0.027354795 0.772262 -0.37563002
0.21503584 0.095304854 0.35168537 0.5299281 0.25470573 0.99563295 0.24939816 -0.122185916

flows.2.layers.1.network.4.bias f4 [8]
00000000: 4d1f 8f3e e876 3c3e 4f5f 9d3d dd7d 63be
00000010: a598 e9bd c0f6 d53d 87bf 48bd 993c 133d
0.27953568 0.18404734 0.07684194 -0.22215982 -0.11406068 0.104474545 -0.04901078 0.035946462

flows.2.layers.1.network.6.weight f4 [2, 8]
00000000: 6f27 9a3e d066 19be f993 c43d eba7 1d3e
00000010: ee14 8f3e 8277 92be 1cff 3b3d 9800 c9be
00000020: a77b dfbd 0f25 d8bc 4fc4 f7be f9a8 503e
00000030: e425 f9bd 8042 0ebd a776 503e 3591 b1be
0.3010821 -0.14980626 0.09598536 0.15396087 0.27945656 -0.28606802 0.045897588 -0.39258265
-0.10912257 -0.026384858 -0.4839196 0.20376958 -0.1216543 -0.034731388 0.20357762 -0.34681097

flows.2.layers.1.network.6.bias f4 [2]
00000000: 3a98 8d3d c894 53be
0.069138005 -0.20662224

flows.2.layers.2.network.0.weight f4 [8, 3]
00000000: 0ffe 03c0 6c16 0fbf a20c a3bf 84a4 97bf
00000010: 1a48 963f 5dd3 eb3e 8cc9 a0be b04c 76be
00000020: d363 a1be 385c e3be 3227 113f c86a 8e3f
00000030: bb82 963e 1ac6 243f cf2e 27bf 9521 7ebe
00000040: 4132 65be 83c3 0ebe 0bbb 243e bebe 1cbf
00000050: 4e85 36be fae7 943e 610c aa3d 66e1 62bf
-2.0623815 -0.5589359 -1.273823 -1.1847081 1.1740754 0.46059695 -0.31403768 -0.24052691
-0.31521472 -0.44406295 0.5670043 1.1126337 0.29396614 0.6436478 -0.653058 -0.24817498
-0.22382452 -0.1394177 0.16086976 -0.6122855 -0.17824289 0.29083234 0.08303142 -0.8862518

flows.2.layers.2.network.0.bias f4 [8]
00000000: 14a9 33be 8142 5bbf 397e 003e 693e 4f3f
00000010: e8b7 3dbe 5c51 893e 18da 363f 5204 413f
-0.17544967 -0.8564835 0.1254815 0.80954605 -0.18527186 0.26819885 0.71426535 0.7539722

flows.2.layers.2.network.2.weight f4 [8, 8]
00000000: a55a 58bf 108b b83e 800d d9be 1132 3bbf
00000010: 0c0a 51bf d769 833e 79c1 6c3e fdd6 583f
00000020: 8822 c23d 7971 963e 476c 07bf c41e 16bf
00000030: 91fa 23bf a742 8fbe c2b7 ffbe cc65 9d3e
00000040: b69d b7bd 4695 1d3f d783 09bf 8dd2 b1be
00000050: 8c75 18bf 48ee b8be 337c 1bbf 81eb 26be
00000060: 1ac8 0ebf 01f1 403f a5df 12be fda5 543f
00000070: 68ed 293e 66cd a03d efe8 453e ab8f 233f
00000080: ea5a ac3d 86fc 3fbe 9fdd 28be e04c 1bbf
00000090: 096f 363f f9ef 03be 607c 01bf 416b 053e
000000a0: 6347 e73e fc84 bc3e 2339 d4bd 18f0 693e
000000b0: c34e c7be c1e7 e6bc 94a3 55bd 8f40 fdbe
000000c0: a800 02bf 5f58 24bf 3edc ddbd abe3 a5be
000000d0: 0bbc b8be fc66 36bf 07a3 27bc f00c 45bf
000000e0: ff7b df3c 70a2 9a3f 8f8f 09be 9abb cdbe
000000f0: 07ce 08bf bcf9 6b3d 494b 503e d147 ef3e
-0.8451331 0.36043596 -0.42393112 -0.7312327 -0.81655955 0.25666687 0.23120679 0.84703046
0.094792426 0.29383448 -0.52899593 -0.58640695 -0.6405421 -0.2798054 -0.49944884 0.30741727
-0.08965628 0.615559 -0.53716797 -0.3473095 -0.5955436 -0.36119294 -0.6073639 -0.16300775
-0.5577408 0.7536774 -0.14343126 0.8306578 0.1659447 0.07851677 0.19327138 0.63891095
0.08415778 -0.18748674 -0.16490792 -0.60664177 0.71263176 -0.12884511 -0.50580406 0.13029195
0.4517165 0.3682021 -0.103624605 0.22845495 -0.38927278 -0.02818668 -0.052157953 -0.49463317
-0.5078225 -0.64197344 -0.108330235 -0.3240026 -0.36080965 -0.7125089 -0.01023174 -0.76972866
0.027280806 1.2080822 -0.1343367 -0.4018219 -0.5343937 0.057611212 0.20341219 0.4673448

flows.2.layers.2.network.2.bias f4 [8]
00000000: fa7c ffbd 37d5 853e 1cdf 3e3e adf8 e1be
00000010: 7777 84be 97b8 873e e417 29bf e70d f7bc
-0.12475009 0.26139233 0.18639797 -0.44135037 -0.25872394 0.26508018 -0.6605208 -0.030157996

flows.2.layers.2.network.4.weight f4 [8, 8]
00000000: 653e 043f 202e 843e 5b7b c1be 2950 a83e
00000010: 5fb9 0b3e ba52 34be b4d5 81be a996 563f
00000020: d3ae 673f fbc7 c13e 2b56 573e fcb8 173f
00000030: 5513 15bf 996d 9d3d 064e 923e 0895 ce3e
00000040: 3e28 dd3c ce39 e93e 19f1 343e 4d51 14bd
00000050: 140a efbd 983a 783d b35f f43e 2c95 19be
00000060: 7cc4 d93e 18e9 0f3f 0475 b63c f925 30be
00000070: a5f8 c43d bc70 29be b4a7 80bd 65e9 9abc
00000080: eb6c b53e 1db3 643e bb83 6b3f addc 22bd
00000090: 26ea 67be 79a1 373c 45a1 8abd 5fe8 463f
000000a0: acb9 1c3d d4a4 7f3d a6d6 ce3c 10d6 cd3e
000000b0: f3f2 193f f67b 65be 7db7 043e ee98 4e3e
000000c0: db67 49be 3111 89be 6835 c7bd 5b11 6d3e
000000d0: 042e aabe 6e69 79be 32a1 a53e aa46 27bf
000000e0: 26b7 04bf 2e39 aabe 3aae 49bf 2a62 1c3e
000000f0: ce16 fe3d c35b 87bd 34e4 64be 1fda 76be
0.51657706 0.2581644 -0.37789425 0.32873657 0.13644932 -0.17609683 -0.25358355 0.8382364
0.90501136 0.37847885 0.21028964 0.5926664 -0.58232623 0.0768692 0.28575152 0.40348077
0.026996728 0.45551914 0.17670096 -0.036210347 -0.11671844 0.060602754 0.47729263 -0.14998311
0.42532718 0.5621505 0.022272594 -0.17201985 0.09617738 -0.16546911 -0.06281987 -0.01891012
0.3543466 0.22333951 0.9199788 -0.039761234 -0.22647914 0.011207932 -0.06769041 0.7769832
0.038263008 0.06241305 0.025248837 0.4020238 0.60136336 -0.22410569 0.1296062 0.20175526
-0.19668524 -0.26770929 -0.09726983 0.23151152 -0.33238232 -0.24356624 0.32349545 -0.653422
-0.5184196 -0.3324675 -0.78781474 0.15271822 0.124066934 -0.06609299 -0.22352678 -0.24106644

flows.2.layers.2.network.4.bias f4 [8]
00000000: 117e 4c3e 2f43 433e 15d5 81be 474a cf3d
00000010: dabb 1d3e 558d 483d 6875 983c 00d0 193d
0.19969966 0.19068597 -0.2535788 0.10121589 0.15403691 0.04896291 0.018610671 0.03755188

flows.2.layers.2.network.6.weight f4 [2, 8]
00000000: 70db 0d3e 2ee8 2e3e 87a7 8abe 6ead aabd
00000010: bc6d aebe d7da 303d 5fee 85bd d523 b53e
00000020: a2b6 eebe dd4a ac3e a680 4c3e 19bf 66be
00000030: cdd9 ed3d 3763 80be 47f2 433e 36a7 abbe
0.1385324 0.17080757 -0.27080938 -0.0833386 -0.34068096 0.043177452 -0.06539606 0.353789
-0.46623713 0.33650866 0.1997095 -0.22533835 0.11613808 -0.25075695 0.1913539 -0.3352601

flows.2.layers.2.network.6.bias f4 [2]
00000000: ff5d 0fbe ee48 70be
-0.140007 -0.2346532
